DyGCN/savedmodel/model.pt (torch, 83482 bytes, 19 tensors)

gc1.weight f4 [77, 48]
000000 9a f5 6a bd 64 e7 76 3d b0 6f 0f bd 9c e6 0f 3e
       -0.05736313 0.060279265 -0.035018623 0.14052814
000010 29 89 1e be 3f 56 d1 bd c9 0f 04 3e 42 05 a1 bd
       -0.1548201 -0.10221528 0.12896647 -0.07862331
000020 62 c9 01 3e 31 61 1d 3e c0 4d 1f 3d 5e ee 09 3e
       0.12674478 0.15369107 0.038892508 0.13469836
000030 69 0d 62 3d ea 6a 55 3e 63 1a 3a be f9 8f 37 be
       0.05518857 0.20841566 -0.18174128 -0.17926015
000040 d0 5a c9 bd c1 70 7d bd aa 68 19 be de 67 36 3e
       -0.09831774 -0.06187511 -0.14981332 0.1781306
000050 ed 3f e1 bc c4 c9 45 bd 1d 4a 28 be 23 a8 cd 3d
       -0.027496303 -0.04828812 -0.16434522 0.10041835
000060 45 e0 24 be 4e d7 ce bd 43 6e 9f 3d 98 6c e2 bd
       -0.16101177 -0.1009966 0.07784703 -0.11055869
000070 01 87 a1 bd 56 32 1c 3e 0d 67 16 3e 09 cd 51 be
       -0.07887078 0.15253577 0.14687748 -0.20488371
000080 db 41 31 bd 38 82 38 be f4 2a a9 3a cd 91 50 be
       -0.043275695 -0.18018425 0.0012906478 -0.20368119
000090 e2 b6 7b 3d d9 b4 17 3e b4 65 58 3e c9 7f 09 3e
       0.061453708 0.14815082 0.21132547 0.13427652
0000a0 d8 8d 16 3e 0a 5a dc 3c d2 c9 7e bd 46 5b d0 3d
       0.14702547 0.026898403 -0.06220419 0.10173659
0000b0 68 de 64 3b 34 92 0b 3d 81 bc 02 be 9f 95 3d be
       0.0034922604 0.034074977 -0.12767221 -0.18514107
0000c0 54 fe 0a be d8 3a 75 3c 80 90 5d be bc 60 6d 3d
       -0.13573581 0.014967643 -0.21637154 0.05795358
0000d0 e1 80 ab bd 8a 6e 4c bd c5 f5 a6 3d 1a dd 2d be
       -0.08374191 -0.049910106 0.081523456 -0.16978875
0000e0 c7 f9 fd 3c f8 7d 85 3d 77 aa 53 be 40 80 94 3d
       0.031002892 0.06518167 -0.20670496 0.07251024
0000f0 9c 2a 87 3d fd d2 c0 3d 94 9e e4 bc 6a 9c 7e 3c
       0.06599924 0.09415243 -0.027907647 0.015540222
000100 18 ef b8 bd 68 bb 32 bd ae e9 da bd b2 92 ac 3d
       -0.090299785 -0.043635756 -0.10689102 0.084264174
000110 b6 5a 45 be 0c d4 72 3d 30 62 e2 bd 27 c4 34 3e
       -0.19272885 0.059284255 -0.11053884 0.17652951
000120 d7 08 73 3d fe 88 a9 bc 4b bc 28 3e c5 cc 5f be
       0.059334602 -0.020695206 0.16478078 -0.21855457
000130 72 c4 15 be b1 67 dd 3d 29 43 12 3e 19 c3 2a be
       -0.14625719 0.10810793 0.14283432 -0.16675986
000140 34 6c fd bd 4b 3c c9 bd 2b d8 5f bc e8 fb 66 3d
       -0.12374154 -0.09825953 -0.013662378 0.05639258
000150 49 1f 3a 3e 3c ba 1a 3e 06 01 24 3d 2b 59 22 3e
       0.18175997 0.15110105 0.04004004 0.15854327
000160 da b7 f9 3b 3a 19 ce 3c a2 da 82 bd 0d df 07 3e
       0.007620794 0.025158513 -0.06389357 0.13268681
000170 2f 41 4c 3e 81 d6 c1 3c f9 e2 a8 bd db 67 40 be
       0.1994674 0.023661854 -0.082464166 -0.18789618
000180 82 65 8b bd 89 cb 08 bd 0d c4 67 bd 43 5f 25 bc
       -0.068064705 -0.03339723 -0.056583453 -0.010093513
000190 26 47 11 bd 14 c1 55 3d 44 1b f0 bd 98 c5 88 3d
       -0.035468243 0.052186087 -0.117239505 0.06678313
0001a0 55 90 91 bd 1b f4 8d bd 40 fc bd bd d8 c8 02 be
       -0.07107607 -0.06931325 -0.092766285 -0.12771928
0001b0 73 8f e2 3d 72 f8 6f bd 8f 3d a5 bb 78 38 13 be
       0.11062517 -0.058586545 -0.0050427387 -0.1437701
0001c0 68 cd 5e bc 45 12 32 3d 31 01 0b be 30 30 cd bd
       -0.013598777 0.043474454 -0.13574673 -0.10018957
0001d0 ab 1d aa bd b2 e7 5b bd fe ba b7 bb 92 4b ef bd
       -0.0830644 -0.05368776 -0.005607008 -0.11684336
0001e0 95 69 0a be 8d d2 67 bd 29 aa 69 3d 78 98 0d 3c
       -0.13516839 -0.05659728 0.057047043 0.008642308
0001f0 9e 3a e3 bd 6a 6a 16 3e 97 4d c6 bd 5a 94 89 3a
       -0.11095165 0.14689031 -0.09682768 0.0010496483
000200 d2 6b 3b bd df 73 c4 3d 82 9b 86 3d 91 78 a1 3d
       -0.045757122 0.09592413 0.065726295 0.07884324
000210 5d da bb 3d 42 d4 c0 bd 5b 87 99 bd 8a d7 ef 3a
       0.09172509 -0.09415485 -0.0749652 0.0018298489
000220 2a 5b 89 3d 8e a3 10 3e 4b 65 5e bd 11 e8 d6 3d
       0.06706841 0.14124891 -0.05429582 0.10493482
000230 fb 7f ed 3d 22 e3 09 3e 84 cc 03 3e 72 3f 18 bd
       0.11596676 0.1346555 0.12870985 -0.03716988
000240 f0 85 fa bd a8 2e f3 3d e6 2c b2 bd 14 60 3b 3d
       -0.12232578 0.11874133 -0.0869997 0.045745924
000250 0d 4b c2 bd 35 ee 9c 3b 96 b7 ea bd 81 50 f4 bd
       -0.09486971 0.0047891387 -0.114607975 -0.119294174
000260 d2 01 59 bd 0c 44 46 3d 42 da c3 3d 34 50 0b 3b
       -0.05298025 0.04840474 0.09563114 0.0021257522
000270 06 c7 5c 3d 90 b6 cd bc 08 fe 1c 3d 54 5d 8f 3d
       0.05390074 -0.025111467 0.0383282 0.07000223
000280 1d 78 aa bd b0 f7 13 3d c7 fb 05 3e 47 d0 c7 bd
       -0.08323691 0.036124885 0.13084327 -0.097565226
000290 64 b2 d1 bd 5a 79 00 be 3a 5c 1a bc 87 77 e6 bd
       -0.102391034 -0.12546292 -0.009421403 -0.11253267
0002a0 b0 c5 c1 bd bf be 11 be 1b b3 f5 bd c9 82 cc bc
       -0.09461534 -0.1423292 -0.11997052 -0.024964707
0002b0 2e 1e e0 3d a9 16 23 bd 2d 47 d7 3d 1f 53 b7 3d
       0.10943256 -0.039816532 0.105116226 0.08951401
0002c0 62 29 cc 3d 4b 19 fa 3d fc cd db bd 0a fc 9e bd
       0.09968831 0.122118555 -0.10732648 -0.077629164
0002d0 b0 55 aa 3d 22 c3 69 3d e4 0c d0 3d 46 9a 5f 3d
       0.08317125 0.05707086 0.10158709 0.054590486
0002e0 de 5b 78 3c 8e 49 11 3e ec b2 36 3d d2 5a ff 3d
       0.015158622 0.14188215 0.044604227 0.124684945
0002f0 c4 54 f8 bd b5 86 dd 3d d0 50 c8 bd e1 ec 44 bc
       -0.12125543 0.10816709 -0.09781039 -0.012019367
000300 8e 57 8e bd eb a5 fd 3d a9 7e 18 be a2 95 67 bd
       -0.069502935 0.12385162 -0.14892067 -0.056539185
000310 98 1f 53 3d 5b a8 08 be 62 11 21 3d 03 66 bd 3d
       0.051543802 -0.13345473 0.03932322 0.09247973
000320 12 83 0c 3e f8 ac 7d bd 6c c7 0d be 26 58 16 3e
       0.13721874 -0.061932534 -0.13845605 0.14682063
000330 0a 7e 3f bd 1d 0d f1 3d 9e ab f2 3d ae 01 c1 bd
       -0.04675106 0.11770079 0.1184914 -0.094241485
000340 30 2a 76 bd 9c 3f 21 3d b9 28 bb bd 94 1c a7 bd
       -0.060098827 0.039367303 -0.091386266 -0.08159748
000350 e7 b4 08 bd 01 41 13 be b6 8d d0 bd 83 fd 9e 3d
       -0.033375647 -0.14380266 -0.10183279 0.07763197
000360 f1 24 ab bd fa 89 71 3d 9f 64 05 3d 18 b6 58 bd
       -0.083566554 0.058969475 0.032566663 -0.052908033
000370 64 43 d9 bd 5a 93 90 bc e4 eb f2 bd 50 8f f1 bd
       -0.10608557 -0.017648388 -0.11861399 -0.11794913
000380 9f a0 47 bd 56 36 88 bd 8f ec 13 be 2a 24 02 3d
       -0.048737165 -0.06650989 -0.14445709 0.03177277
000390 0b a7 67 3d 38 92 87 bc d3 12 ff 3b 37 13 f5 bd
       0.05655579 -0.016549215 0.0077842264 -0.119665556
0003a0 f1 76 01 be 81 72 f3 3d d6 b9 31 bd c1 76 56 3c
       -0.12643029 0.11887074 -0.043390118 0.013089837
0003b0 b6 10 0c bd aa 1e a6 3c a9 fa f4 3d 76 48 9d 3d
       -0.034195624 0.020278294 0.11961872 0.076798365
0003c0 87 5f 75 3d b5 32 be bd a8 d3 1c bd 42 03 88 3d
       0.059905555 -0.09287015 -0.03828779 0.066412464
0003d0 c4 8d be 3d fe 29 6e bd 80 1b c6 3d 4d 93 9c 3d
       0.093043834 -0.058145516 0.09673214 0.07645283
0003e0 e5 f7 10 3e 2f 53 10 3e 6d 54 67 bd 34 10 cd bc
       0.14157064 0.14094232 -0.056477 -0.02503214
0003f0 db a8 06 be 95 44 3b bd 12 26 7b bd 09 e7 bc 3d
       -0.13150351 -0.0457197 -0.061315604 0.09223754

gc1.weight2 f4 [48, 32]
000000 20 d4 6e 7c 35 35 6e bd 20 db 6e 7c b4 09 93 bd
       4.9602762e+36 -0.05815621 4.960844e+36 -0.07179585
000010 00 e1 6e 7c bc 55 00 00 60 d7 6e 7c bc 55 00 00
       4.9613208e+36 3.0756e-41 4.96054e+36 3.0756e-41
000020 40 de 6e 7c bc 55 00 00 60 dc 6e 7c bc 55 00 00
       4.9610977e+36 3.0756e-41 4.9609456e+36 3.0756e-41
000030 e0 dc 6e 7c 00 07 8a 3c 40 d8 6e 7c bc 55 00 00
       4.960986e+36 0.016849041 4.960611e+36 3.0756e-41
000040 20 da 6e 7c 0a 8b 7b 3c 00 dd 6e 7c bc 55 00 00
       4.960763e+36 0.015352974 4.9609963e+36 3.0756e-41
000050 a0 d5 6e 7c bc 55 00 00 c0 d5 6e 7c b9 0d 2e 3c
       4.960398e+36 3.0756e-41 4.960408e+36 0.010623389
000060 c0 e1 6e 7c 1f 8f 72 bd a0 d8 6e 7c b2 1a 33 3c
       4.9613816e+36 -0.059218522 4.9606413e+36 0.010931658
000070 a0 df 6e 7c c5 f3 7c bd c0 df 6e 7c bc 55 00 00
       4.9612092e+36 -0.061755914 4.9612194e+36 3.0756e-41
000080 60 dc 6e 7c e7 98 8f bd 80 d7 6e 7c b4 73 7c bd
       4.9609456e+36 -0.07011586 4.96055e+36 -0.06163378
000090 a0 dc 6e 7c bc 55 00 00 60 d3 6e 7c bc 55 00 00
       4.9609658e+36 3.0756e-41 4.9602154e+36 3.0756e-41
0000a0 20 cf 6e 7c bc 55 00 00 40 d0 6e 7c bc 55 00 00
       4.9598706e+36 3.0756e-41 4.959962e+36 3.0756e-41
0000b0 00 d5 6e 7c e4 b5 24 3d 40 de 6e 7c bc 55 00 00
       4.9603472e+36 0.040212527 4.9610977e+36 3.0756e-41
0000c0 80 d7 6e 7c b8 f3 09 3d 80 d2 6e 7c bc 55 00 00
       4.96055e+36 0.033679694 4.9601444e+36 3.0756e-41
0000d0 e0 df 6e 7c bc 55 00 00 e0 d5 6e 7c 81 c3 9a 3c
       4.9612295e+36 3.0756e-41 4.9604182e+36 0.018892052
0000e0 80 d3 6e 7c 38 89 8b bd a0 db 6e 7c 9c b8 89 bb
       4.9602255e+36 -0.06813282 4.9608847e+36 -0.0042029154
0000f0 e0 df 6e 7c 1c e3 88 bd 80 d9 6e 7c bc 55 00 00
       4.9612295e+36 -0.06683943 4.9607123e+36 3.0756e-41
000100 20 dc 6e 7c ec 13 2b bd 40 de 6e 7c cc 67 84 bd
       4.9609253e+36 -0.041767046 4.9610977e+36 -0.0646511
000110 a0 d7 6e 7c bc 55 00 00 20 d5 6e 7c bc 55 00 00
       4.9605602e+36 3.0756e-41 4.9603574e+36 3.0756e-41
000120 60 df 6e 7c bc 55 00 00 a0 e0 6e 7c bc 55 00 00
       4.961189e+36 3.0756e-41 4.9612904e+36 3.0756e-41
000130 00 d5 6e 7c 17 a1 85 bb 60 d8 6e 7c bc 55 00 00
       4.9603472e+36 -0.0040780413 4.960621e+36 3.0756e-41
000140 c0 d6 6e 7c 18 d2 9f 3b e0 df 6e 7c bc 55 00 00
       4.9604892e+36 0.00487734 4.9612295e+36 3.0756e-41
000150 20 d7 6e 7c bc 55 00 00 80 d9 6e 7c de f8 ff 3a
       4.9605196e+36 3.0756e-41 4.9607123e+36 0.0019529124
000160 60 dc 6e 7c 87 7d 43 bd 00 da 6e 7c f8 8e 2d 3c
       4.9609456e+36 -0.047727134 4.960753e+36 0.010593168
000170 20 da 6e 7c 2f f2 55 bd 40 da 6e 7c bc 55 00 00
       4.960763e+36 -0.052232917 4.960773e+36 3.0756e-41
000180 00 d8 6e 7c 60 af 19 3d a0 e0 6e 7c 19 be 89 3d
       4.9605906e+36 0.037520766 4.9612904e+36 0.067257114
000190 70 8f 22 e1 41 7f 00 00 e0 db 6e 7c bc 55 00 00
       -1.8741927e+20 4.565e-41 4.960905e+36 3.0756e-41
0001a0 00 d8 6e 7c bc 55 00 00 e0 cf 6e 7c bc 55 00 00
       4.9605906e+36 3.0756e-41 4.9599314e+36 3.0756e-41
0001b0 80 de 6e 7c 93 10 f7 3b e0 dc 6e 7c bc 55 00 00
       4.961118e+36 0.0075398176 4.960986e+36 3.0756e-41
0001c0 a0 db 6e 7c c3 6d 03 39 80 d9 6e 7c bc 55 00 00
       4.9608847e+36 0.00012534023 4.9607123e+36 3.0756e-41
0001d0 c0 d7 6e 7c bc 55 00 00 e0 dc 6e 7c d7 63 c8 39
       4.9605703e+36 3.0756e-41 4.960986e+36 0.0003822136
0001e0 e0 d8 6e 7c b9 8b 4d 3d 60 db 6e 7c c1 28 34 bc
       4.9606616e+36 0.050182078 4.9608644e+36 -0.010996045
0001f0 a0 d5 6e 7c 09 ab 63 3d c0 dc 6e 7c bc 55 00 00
       4.960398e+36 0.055583034 4.960976e+36 3.0756e-41
000200 40 d8 6e 7c 7a ef 53 bd 80 dd 6e 7c e6 43 8f bd
       4.960611e+36 -0.051742055 4.9610368e+36 -0.069953725
000210 80 d7 6e 7c bc 55 00 00 00 d4 6e 7c bc 55 00 00
       4.96055e+36 3.0756e-41 4.960266e+36 3.0756e-41
000220 20 db 6e 7c bc 55 00 00 40 dc 6e 7c bc 55 00 00
       4.960844e+36 3.0756e-41 4.9609354e+36 3.0756e-41
000230 40 d6 6e 7c 11 18 1b 3c 80 da 6e 7c bc 55 00 00
       4.9604486e+36 0.009466187 4.9607934e+36 3.0756e-41
000240 20 d2 6e 7c 2a 0d 37 3c 20 d4 6e 7c bc 55 00 00
       4.960114e+36 0.011172572 4.9602762e+36 3.0756e-41
000250 a0 de 6e 7c bc 55 00 00 80 cf 6e 7c 34 57 e7 3b
       4.961128e+36 3.0756e-41 4.959901e+36 0.007059956
000260 20 d4 6e 7c 90 d6 5e bd 20 d8 6e 7c e0 68 2f 3c
       4.9602762e+36 -0.05440384 4.9606008e+36 0.0107061565
000270 20 dc 6e 7c 26 70 6d bd 00 d5 6e 7c bc 55 00 00
       4.9609253e+36 -0.05796828 4.9603472e+36 3.0756e-41
000280 40 d5 6e 7c a7 db 46 bd 20 de 6e 7c d4 e0 8f bd
       4.9603675e+36 -0.04854932 4.9610875e+36 -0.070253044
000290 e0 dc 6e 7c bc 55 00 00 40 da 6e 7c bc 55 00 00
       4.960986e+36 3.0756e-41 4.960773e+36 3.0756e-41
0002a0 40 da 6e 7c bc 55 00 00 40 db 6e 7c bc 55 00 00
       4.960773e+36 3.0756e-41 4.9608543e+36 3.0756e-41
0002b0 00 da 6e 7c 41 3a 08 3b 20 dd 6e 7c bc 55 00 00
       4.960753e+36 0.0020786675 4.9610064e+36 3.0756e-41
0002c0 00 d6 6e 7c e1 56 fc 3b 00 d5 6e 7c bc 55 00 00
       4.9604284e+36 0.0077007865 4.9603472e+36 3.0756e-41
0002d0 a0 db 6e 7c bc 55 00 00 c0 d9 6e 7c a2 da 85 3b
       4.9608847e+36 3.0756e-41 4.9607326e+36 0.004084901
0002e0 e0 d2 6e 7c f1 0e 64 bd c0 dc 6e 7c e0 2b 3f 3c
       4.9601748e+36 -0.05567831 4.960976e+36 0.011668175
0002f0 40 dc 6e 7c 60 bc 74 bd 20 db 6e 7c bc 55 00 00
       4.9609354e+36 -0.05974996 4.960844e+36 3.0756e-41
000300 e0 de 6e 7c 77 04 22 3d c0 e1 6e 7c f9 b3 82 3d
       4.9611484e+36 0.03955504 4.9613816e+36 0.06381983
000310 40 da 6e 7c bc 55 00 00 60 dd 6e 7c bc 55 00 00
       4.960773e+36 3.0756e-41 4.9610267e+36 3.0756e-41
000320 20 d3 6e 7c bc 55 00 00 40 d9 6e 7c bc 55 00 00
       4.960195e+36 3.0756e-41 4.960692e+36 3.0756e-41
000330 c0 e2 6e 7c 28 63 e9 3b a0 d5 6e 7c bc 55 00 00
       4.9614628e+36 0.007122416 4.960398e+36 3.0756e-41
000340 80 d6 6e 7c 69 fc eb ba e0 df 6e 7c bc 55 00 00
       4.960469e+36 -0.0018004301 4.9612295e+36 3.0756e-41
000350 e0 e2 6e 7c bc 55 00 00 80 d2 6e 7c a4 b2 0b 3a
       4.961473e+36 3.0756e-41 4.9601444e+36 0.0005329049
000360 a0 d4 6e 7c fb 4f 3e 3d e0 d5 6e 7c 61 09 2e bc
       4.9603168e+36 0.046462994 4.9604182e+36 -0.010622353
000370 80 da 6e 7c 02 e4 59 3d c0 e1 6e 7c bc 55 00 00
       4.9607934e+36 0.05319596 4.9613816e+36 3.0756e-41
000380 80 df 6e 7c ab 0a c7 bc c0 da 6e 7c b9 55 75 bd
       4.961199e+36 -0.02429708 4.9608137e+36 -0.059896205
000390 40 e1 6e 7c bc 55 00 00 40 d9 6e 7c bc 55 00 00
       4.961341e+36 3.0756e-41 4.960692e+36 3.0756e-41
0003a0 a0 da 6e 7c bc 55 00 00 80 e0 6e 7c bc 55 00 00
       4.9608036e+36 3.0756e-41 4.9612802e+36 3.0756e-41
0003b0 90 8b 22 e1 b8 94 42 bc 20 da 6e 7c bc 55 00 00
       -1.8740182e+20 -0.011876278 4.960763e+36 3.0756e-41
0003c0 e0 da 6e 7c 86 56 4c bb 00 dc 6e 7c bc 55 00 00
       4.960824e+36 -0.0031179502 4.960915e+36 3.0756e-41
0003d0 a0 db 6e 7c bc 55 00 00 00 d5 6e 7c fb 37 29 bb
       4.9608847e+36 3.0756e-41 4.9603472e+36 -0.002582072
0003e0 a0 d4 6e 7c 95 d7 19 bd e0 d6 6e 7c 83 5f 29 3c
       4.9603168e+36 -0.03755911 4.9604993e+36 0.010337713
0003f0 c0 d6 6e 7c 94 8e 39 bd 60 df 6e 7c bc 55 00 00
       4.9604892e+36 -0.04530199 4.961189e+36 3.0756e-41

gc1.bias f4 [32]
000000 78 be e9 3d 3c 45 17 3e c7 6f 6c bd 77 02 cb 3d
       0.11413282 0.14772505 -0.057723787 0.099125795
000010 d0 6c 66 bd 22 c9 63 bd 84 93 93 3d eb 78 01 be
       -0.056256115 -0.055611737 0.07205871 -0.12643783
000020 7c 59 6d 3d 8d c9 0f be 5a be 0d 3d 41 30 8d bd
       0.057946667 -0.1404173 0.03460536 -0.06893969
000030 40 38 83 bd a4 b5 06 3d 2d 32 9b 3d 67 6f 99 bd
       -0.06407213 0.03288807 0.0757793 -0.074919514
000040 c0 65 94 3d a2 95 f6 3d 28 86 2c bd e5 3f 39 bd
       0.0724597 0.12040259 -0.04212013 -0.04522695
000050 93 4b 11 bc 8b fc 06 be 98 2c 10 3e 0a df a9 3d
       -0.008868116 -0.13182275 0.14079511 0.082944945
000060 47 a5 c3 bb f1 55 f8 3d 3d fa 10 be 2a af d8 3d
       -0.0059706303 0.12125767 -0.14157958 0.10580285
000070 e7 21 80 bd 4b d0 00 3e f5 a2 c9 3d 6e d8 2b bc
       -0.06256466 0.12579457 0.09845535 -0.010488613

gc2.weight f4 [77, 48]
000000 a5 7a 21 be 33 7a 92 bd 86 9a 4b bc 51 b9 1b be
       -0.15769441 -0.07152214 -0.012426978 -0.15207411
000010 2c c9 d1 bd 10 24 dd 3d 0b f6 59 3d a5 1a d4 3c
       -0.102434486 0.10797894 0.05321316 0.025891611
000020 dd 66 b3 3c 63 f2 25 3d e5 3c a1 3c e9 68 34 3d
       0.021899635 0.04051436 0.019682357 0.044045363
000030 3e 18 14 3d 50 a9 db bd ff 23 e9 bc e9 1a 23 3d
       0.03615593 -0.10725653 -0.028459547 0.039820585
000040 40 e5 ab 3c 62 ec 84 3d d2 90 f9 bc 70 62 e9 bd
       0.020983338 0.06490399 -0.030464564 -0.113957286
000050 d2 85 1d 3e 70 55 01 3e e5 81 de bb a8 ae 17 bd
       0.1538308 0.12630248 -0.006790387 -0.0370318
000060 2c f3 cf bd 78 15 c3 bd cf 3f 04 be c0 a8 36 bc
       -0.10153803 -0.09525579 -0.12914966 -0.011148632
000070 af a2 01 be 4b 21 e0 bc 65 65 24 3e 22 b4 1e 3e
       -0.12659715 -0.027359625 0.16054304 0.15498403
000080 af f9 59 bd f3 b6 1d 3e 1c 53 b9 bd 08 b4 12 3e
       -0.053216632 0.15401821 -0.09049055 0.14326489
000090 88 2b e9 3d 12 c9 ac 3d 2b 8c 01 be 6a 5c 8e 3d
       0.11385256 0.084367886 -0.12651126 0.0695122
0000a0 14 de 5b bc 79 54 88 bd 99 72 91 ba a1 73 d5 3c
       -0.013419647 -0.06656737 -0.0011096775 0.026056113
0000b0 18 da 2d bd b1 33 fb 3c a1 6a c2 3c e8 89 c1 3d
       -0.04244432 0.030664297 0.023732485 0.09450132
0000c0 98 9a 05 be 34 6b a9 3d 09 e1 a7 3d 6c 76 12 3e
       -0.13047254 0.082724005 0.08197219 0.14302987
0000d0 ba 1c 0d be 42 20 18 3e 82 d8 ee 3c 7b ea 64 3d
       -0.1378049 0.14856055 0.029155973 0.05588768
0000e0 a8 e9 d1 bc e5 bc ee 3d 35 88 04 be ed 03 bb 3c
       -0.025624111 0.116571225 -0.12942584 0.02282902
0000f0 8a 6c 82 3d 60 ba 00 3d 19 87 6f bd 3f 4b 9c 3d
       0.063683584 0.03142774 -0.05847845 0.076315396
000100 66 fc 62 3d 0d e7 fe bd 97 85 d1 3c de c2 37 bd
       0.055416487 -0.12446413 0.025576396 -0.044863574
000110 e1 38 0f 3e dc 4c 04 3e c7 a6 bd 3d 43 fb eb 3d
       0.13986541 0.12919945 0.09260326 0.11522534
000120 bf e2 84 bd b8 10 a9 bd 42 e5 b0 3d 55 f4 d6 3b
       -0.06488561 -0.08255142 0.086374775 0.0065598884
000130 38 67 7c 3d ab 34 72 bd bb 6f 9c 3b 45 b7 09 3e
       0.061621875 -0.05913226 0.0047740615 0.13448818
000140 d2 bc 9c bd 75 71 c1 ba 45 c8 01 3e fd 83 10 3e
       -0.07653202 -0.0014758544 0.12674053 0.1411285
000150 95 33 07 3e f3 a7 91 bc f7 6f 5b 3d 32 0d 26 3d
       0.1320327 -0.01778028 0.053573575 0.040539928
000160 71 12 ff bd 2e 20 e0 3d 5d 79 ca 3d 6b c2 00 be
       -0.12454689 0.10943638 0.098864295 -0.12574165
000170 81 a7 97 bd 4b 78 ff bd c1 5f cb bd 2e e8 d8 3d
       -0.07404996 -0.12474116 -0.09930373 0.1059116
000180 e2 b8 08 bc c2 65 05 3e 57 b3 14 bd bc 28 3b 3d
       -0.008344861 0.13027099 -0.036303844 0.045693144
000190 a4 ae 31 bd d7 f8 9c bd 9c ed 59 bd a8 23 d8 3d
       -0.04337944 -0.0766465 -0.053205118 0.10553676
0001a0 5f b9 fd bd e3 ac ff bc d5 b2 65 bd 71 34 8b bd
       -0.12388872 -0.031210368 -0.05607875 -0.06797112
0001b0 8f 19 55 3d ba 17 fe bd 2e 76 60 3d df 44 4c bd
       0.052026328 -0.12406869 0.054800205 -0.049870368
0001c0 11 5c f3 bd 21 34 97 bd df 55 a9 bd 50 95 f7 3d
       -0.11882795 -0.0738299 -0.08268332 0.12089026
0001d0 0c a9 54 ba 50 fc 89 3d ba 4d 40 3d 4a 52 8f bc
       -0.0008112348 0.06737578 0.046949126 -0.017495293
0001e0 80 50 cf 3c 8a 7e b8 bd 33 48 80 3d 55 ee 27 3c
       0.02530694 -0.090085104 0.06263771 0.010249694
0001f0 1d 3d 4b 3c 25 fc e3 bd e4 4d a5 3b d1 61 a2 3d
       0.012404707 -0.11132077 0.0050446857 0.07928813
000200 69 a6 56 3d 3b e9 24 bd a1 97 09 3e f8 c1 fe bd
       0.052404795 -0.04026149 0.13436748 -0.1243934
000210 5f 14 77 3c bf b9 52 3d b9 ff 6c bd ca de 05 3e
       0.01508054 0.051446673 -0.057861064 0.13073269
000220 0e 25 3d bd 41 87 83 bd 3e a6 25 3d a8 04 8c 3c
       -0.046177916 -0.06422282 0.040441744 0.017092064
000230 0b 0d 1b 3c 90 9e 62 bc 5a 22 5e bd 7a 3c 0e be
       0.009463559 -0.01383175 -0.05423198 -0.13890257
000240 7e 1e 8f bd 23 5e a4 3d 19 24 e4 3d 9a 0b a7 bd
       -0.06988238 0.08025768 0.111396976 -0.0815651
000250 08 b3 8a 3d 57 fc 60 3d 9d 83 71 3c de 52 27 bc
       0.06772429 0.05492815 0.014740852 -0.010212628
000260 c6 9f ad bd 0e bc a7 bd 65 fa 8a bc c4 dc 10 be
       -0.0847774 -0.081901655 -0.0169651 -0.14146715
000270 70 13 2f bc 02 fc fc bc 53 a8 fc 3d dc 63 97 bd
       -0.010685787 -0.030881885 0.12336793 -0.073920935
000280 b8 95 ed bd d9 ca 22 bc 12 3d 42 bd 49 f0 e8 3c
       -0.11600822 -0.009936058 -0.047421522 0.02843489
000290 9a bc 76 bd a2 34 0a 3d e2 2d 11 3e 11 3e 74 bd
       -0.06023846 0.0337416 0.14177659 -0.059629504
0002a0 c3 51 f7 3d fb 70 db bd df ee 76 bd 38 98 af 3d
       0.12076142 -0.10714909 -0.0602864 0.08573955
0002b0 98 80 02 3e fa 46 fe 3d dc 1a 28 3d dd c3 90 3d
       0.12744367 0.124158815 0.04104124 0.07068608
0002c0 a5 fd 0f 3a 4c 50 b9 bd 7c ed 10 bd e8 1b c1 3d
       0.0005492813 -0.090485185 -0.035382733 0.09429151
0002d0 ce 09 f5 3d 9e 9e fc bc 2e 25 5f bd b6 4e 11 3e
       0.11964761 -0.030837353 -0.054478817 0.14190182
0002e0 f4 3d 10 3e d2 a0 05 be 67 32 de bd e2 79 dd bd
       0.14086133 -0.1304963 -0.10849457 -0.10814263
0002f0 c4 3f 44 bd 24 cd 8a 3d 3f 22 9a bd 57 02 10 3e
       -0.047912374 0.06777409 -0.07526063 0.14063393
000300 57 1c 88 3d fb 84 0a 3e c7 f4 e1 bd 51 3b b2 bd
       0.066460304 0.1352729 -0.11033016 -0.0870272
000310 ce cb 12 be a2 bc 23 bd a6 9f cd 3c ca a3 9a bd
       -0.14335558 -0.039974816 0.02510054 -0.075507715
000320 de db 91 bd 2d cb d7 bc 12 db 09 be fa 31 c0 bd
       -0.071220145 -0.026341999 -0.13462475 -0.09384532
000330 12 d2 9d 3d 76 f3 05 be c9 7d 31 3d fa 5a ae bc
       0.07706083 -0.13081154 0.04333285 -0.021283615
000340 db 22 f6 bc 6f 5a 9b 3d 5b ef bd 3d 8b d2 62 bc
       -0.030045917 0.07585608 0.09274169 -0.013844143
000350 0c ee 5e 3d e9 b5 74 bd d0 30 2d 3d cf e1 00 be
       0.054426238 -0.059743796 0.04228288 -0.12586139
000360 01 3d c1 3c f7 7f a6 3d 33 3b f4 3d 82 3c 0b 3e
       0.02358866 0.08129876 0.11925354 0.135973
000370 88 21 0f be 8a fd e8 3d ff d2 7e bd bb 50 9d bd
       -0.13977635 0.11376484 -0.06221294 -0.07681414
000380 be 68 9c bd 54 14 73 3d 8b 2f 88 3d 01 dd 9a 3d
       -0.076371655 0.05934556 0.06649693 0.075616844
000390 6b 55 ca 3d d1 25 d1 bd 09 08 df 3d 5c 2f c3 ba
       0.098795734 -0.10212291 0.108902045 -0.0014891434
0003a0 eb 28 95 bd 03 8b 23 3d d9 e0 00 3e ff 96 ae bd
       -0.07283195 0.039927494 0.12585773 -0.08524894
0003b0 5d da 8f 3d 0e 28 95 3c 1d b7 89 bd f1 eb 95 bc
       0.07024071 0.018207576 -0.06724379 -0.018300982
0003c0 7a a6 0c be 01 18 86 bd 3e 70 b1 3b cd 1c 04 be
       -0.13735381 -0.06547547 0.0054149916 -0.12901612
0003d0 c1 4e a4 3b 7e 16 a8 3d 7c f2 dd bd 05 1a 2d 3d
       0.005014271 0.08207415 -0.10837266 0.042261142
0003e0 90 50 31 bd 7d 7c 1d 3d 15 bf 8b bc b9 32 0d 3e
       -0.04328972 0.0384488 -0.017058888 0.1378888
0003f0 82 d0 cc 3d f7 74 06 3e 3b fc 90 3d 87 3d d0 bd
       0.10000707 0.13130556 0.07079359 -0.101679854

gc2.weight2 f4 [48, 32]
000000 60 e0 6e 7c 35 1a 18 3c 40 da 6e 7c bc 55 00 00
       4.96127e+36 0.009283592 4.960773e+36 3.0756e-41
000010 00 e3 6e 7c ed 02 a7 bc e0 df 6e 7c 6d 18 4e 3c
       4.961483e+36 -0.020387137 4.9612295e+36 0.012579066
000020 00 df 6e 7c bc 55 00 00 60 d8 6e 7c bc 55 00 00
       4.9611585e+36 3.0756e-41 4.960621e+36 3.0756e-41
000030 e0 db 6e 7c bc 55 00 00 c0 da 6e 7c bc 55 00 00
       4.960905e+36 3.0756e-41 4.9608137e+36 3.0756e-41
000040 80 de 6e 7c bc 55 00 00 20 e0 6e 7c bc 55 00 00
       4.961118e+36 3.0756e-41 4.9612498e+36 3.0756e-41
000050 60 d9 6e 7c bc 55 00 00 e0 d3 6e 7c bc 55 00 00
       4.9607022e+36 3.0756e-41 4.960256e+36 3.0756e-41
000060 40 d9 6e 7c bc 55 00 00 40 dd 6e 7c bc 55 00 00
       4.960692e+36 3.0756e-41 4.9610165e+36 3.0756e-41
000070 a0 dc 6e 7c bc 55 00 00 60 d9 6e 7c 85 d2 73 3c
       4.9609658e+36 3.0756e-41 4.9607022e+36 0.014881735
000080 c0 d7 6e 7c 82 0a 00 3c 20 dc 6e 7c bc 55 00 00
       4.9605703e+36 0.007815005 4.9609253e+36 3.0756e-41
000090 e0 d9 6e 7c 6b 7e e5 bc a0 e2 6e 7c 62 cc 91 3c
       4.9607427e+36 -0.028014382 4.9614526e+36 0.017797653
0000a0 20 dd 6e 7c bc 55 00 00 80 dc 6e 7c bc 55 00 00
       4.9610064e+36 3.0756e-41 4.9609557e+36 3.0756e-41
0000b0 00 dd 6e 7c bc 55 00 00 a0 d9 6e 7c bc 55 00 00
       4.9609963e+36 3.0756e-41 4.9607224e+36 3.0756e-41
0000c0 c0 d8 6e 7c bc 55 00 00 c0 db 6e 7c bc 55 00 00
       4.9606515e+36 3.0756e-41 4.960895e+36 3.0756e-41
0000d0 e0 da 6e 7c bc 55 00 00 80 d9 6e 7c bc 55 00 00
       4.960824e+36 3.0756e-41 4.9607123e+36 3.0756e-41
0000e0 60 d8 6e 7c bc 55 00 00 80 e1 6e 7c bc 55 00 00
       4.960621e+36 3.0756e-41 4.9613613e+36 3.0756e-41
0000f0 e0 dc 6e 7c bc 55 00 00 80 db 6e 7c ee e7 57 bb
       4.960986e+36 3.0756e-41 4.9608746e+36 -0.0032944637
000100 a0 d8 6e 7c 04 af 61 bc c0 d4 6e 7c bc 55 00 00
       4.9606413e+36 -0.013774637 4.960327e+36 3.0756e-41
000110 a0 d9 6e 7c 69 e9 03 3d a0 de 6e 7c 41 66 b4 bc
       4.9607224e+36 0.03220502 4.961128e+36 -0.022021415
000120 60 da 6e 7c bc 55 00 00 a0 d7 6e 7c bc 55 00 00
       4.9607833e+36 3.0756e-41 4.9605602e+36 3.0756e-41
000130 60 d5 6e 7c bc 55 00 00 a0 d9 6e 7c bc 55 00 00
       4.9603776e+36 3.0756e-41 4.9607224e+36 3.0756e-41
000140 40 db 6e 7c bc 55 00 00 a0 d8 6e 7c bc 55 00 00
       4.9608543e+36 3.0756e-41 4.9606413e+36 3.0756e-41
000150 00 d7 6e 7c bc 55 00 00 c0 d8 6e 7c bc 55 00 00
       4.9605095e+36 3.0756e-41 4.9606515e+36 3.0756e-41
000160 20 da 6e 7c bc 55 00 00 c0 d5 6e 7c bc 55 00 00
       4.960763e+36 3.0756e-41 4.960408e+36 3.0756e-41
000170 e0 d9 6e 7c bc 55 00 00 a0 d9 6e 7c 67 ee 94 3a
       4.9607427e+36 3.0756e-41 4.9607224e+36 0.0011362553
000180 40 d9 6e 7c 0a a6 e1 3b 20 d8 6e 7c bc 55 00 00
       4.960692e+36 0.0068862485 4.9606008e+36 3.0756e-41
000190 60 d7 6e 7c 92 d2 bf bc 20 d9 6e 7c a5 3c 63 3c
       4.96054e+36 -0.023415837 4.960682e+36 0.013869439
0001a0 a0 d5 6e 7c bc 55 00 00 e0 db 6e 7c bc 55 00 00
       4.960398e+36 3.0756e-41 4.960905e+36 3.0756e-41
0001b0 c0 db 6e 7c bc 55 00 00 e0 de 6e 7c bc 55 00 00
       4.960895e+36 3.0756e-41 4.9611484e+36 3.0756e-41
0001c0 60 d8 6e 7c bc 55 00 00 60 da 6e 7c bc 55 00 00
       4.960621e+36 3.0756e-41 4.9607833e+36 3.0756e-41
0001d0 00 d8 6e 7c bc 55 00 00 20 da 6e 7c bc 55 00 00
       4.9605906e+36 3.0756e-41 4.960763e+36 3.0756e-41
0001e0 c0 d9 6e 7c bc 55 00 00 c0 dc 6e 7c bc 55 00 00
       4.9607326e+36 3.0756e-41 4.960976e+36 3.0756e-41
0001f0 a0 d8 6e 7c bc 55 00 00 60 dc 6e 7c f4 a8 97 3b
       4.9606413e+36 3.0756e-41 4.9609456e+36 0.004628295
000200 20 db 6e 7c 74 f7 34 3c c0 e1 6e 7c bc 55 00 00
       4.960844e+36 0.011045326 4.9613816e+36 3.0756e-41
000210 c0 da 6e 7c 1f 30 dd bc 80 d6 6e 7c 36 d2 9d 3c
       4.9608137e+36 -0.027000485 4.960469e+36 0.019265275
000220 e0 db 6e 7c bc 55 00 00 80 da 6e 7c bc 55 00 00
       4.960905e+36 3.0756e-41 4.9607934e+36 3.0756e-41
000230 60 d5 6e 7c bc 55 00 00 c0 d6 6e 7c bc 55 00 00
       4.9603776e+36 3.0756e-41 4.9604892e+36 3.0756e-41
000240 a0 d8 6e 7c bc 55 00 00 a0 de 6e 7c bc 55 00 00
       4.9606413e+36 3.0756e-41 4.961128e+36 3.0756e-41
000250 c0 da 6e 7c bc 55 00 00 e0 d9 6e 7c bc 55 00 00
       4.9608137e+36 3.0756e-41 4.9607427e+36 3.0756e-41
000260 a0 da 6e 7c bc 55 00 00 a0 de 6e 7c bc 55 00 00
       4.9608036e+36 3.0756e-41 4.961128e+36 3.0756e-41
000270 40 db 6e 7c bc 55 00 00 60 d7 6e 7c 4d ca 3b 3b
       4.9608543e+36 3.0756e-41 4.96054e+36 0.0028654516
000280 a0 da 6e 7c b5 fa 2d bc 60 d7 6e 7c bc 55 00 00
       4.9608036e+36 -0.010618855 4.96054e+36 3.0756e-41
000290 a0 d5 6e 7c dd 59 aa 3c e0 d3 6e 7c 88 d4 5b bc
       4.960398e+36 0.020794803 4.960256e+36 -0.013417371
0002a0 80 d8 6e 7c bc 55 00 00 00 d8 6e 7c bc 55 00 00
       4.9606312e+36 3.0756e-41 4.9605906e+36 3.0756e-41
0002b0 20 dc 6e 7c bc 55 00 00 e0 d8 6e 7c bc 55 00 00
       4.9609253e+36 3.0756e-41 4.9606616e+36 3.0756e-41
0002c0 c0 d8 6e 7c bc 55 00 00 60 dc 6e 7c bc 55 00 00
       4.9606515e+36 3.0756e-41 4.9609456e+36 3.0756e-41
0002d0 a0 de 6e 7c bc 55 00 00 80 d7 6e 7c bc 55 00 00
       4.961128e+36 3.0756e-41 4.96055e+36 3.0756e-41
0002e0 20 d8 6e 7c bc 55 00 00 00 d6 6e 7c bc 55 00 00
       4.9606008e+36 3.0756e-41 4.9604284e+36 3.0756e-41
0002f0 60 d8 6e 7c bc 55 00 00 20 d9 6e 7c 87 55 86 bc
       4.960621e+36 3.0756e-41 4.960682e+36 -0.016398204
000300 40 dc 6e 7c 79 27 09 bc a0 df 6e 7c bc 55 00 00
       4.9609354e+36 -0.008371227 4.9612092e+36 3.0756e-41
000310 60 d6 6e 7c c1 50 e1 3c a0 d4 6e 7c 3e fa 7e bc
       4.9604588e+36 0.027504327 4.9603168e+36 -0.015562592
000320 e0 db 6e 7c bc 55 00 00 20 d6 6e 7c bc 55 00 00
       4.960905e+36 3.0756e-41 4.9604385e+36 3.0756e-41
000330 40 da 6e 7c bc 55 00 00 80 d9 6e 7c bc 55 00 00
       4.960773e+36 3.0756e-41 4.9607123e+36 3.0756e-41
000340 00 dc 6e 7c bc 55 00 00 20 d8 6e 7c bc 55 00 00
       4.960915e+36 3.0756e-41 4.9606008e+36 3.0756e-41
000350 00 dd 6e 7c bc 55 00 00 80 db 6e 7c bc 55 00 00
       4.9609963e+36 3.0756e-41 4.9608746e+36 3.0756e-41
000360 e0 d3 6e 7c bc 55 00 00 e0 db 6e 7c bc 55 00 00
       4.960256e+36 3.0756e-41 4.960905e+36 3.0756e-41
000370 40 d8 6e 7c bc 55 00 00 c0 da 6e 7c 1d ac e6 ba
       4.960611e+36 3.0756e-41 4.9608137e+36 -0.0017598901
000380 60 df 6e 7c d7 c3 6d 3b c0 d8 6e 7c bc 55 00 00
       4.961189e+36 0.003628006 4.9606515e+36 3.0756e-41
000390 20 df 6e 7c 8a 2c ca bc 60 db 6e 7c 2b 4d 80 3c
       4.9611687e+36 -0.024679441 4.9608644e+36 0.015661797
0003a0 c0 d6 6e 7c bc 55 00 00 e0 d8 6e 7c bc 55 00 00
       4.9604892e+36 3.0756e-41 4.9606616e+36 3.0756e-41
0003b0 20 d6 6e 7c bc 55 00 00 c0 dc 6e 7c bc 55 00 00
       4.9604385e+36 3.0756e-41 4.960976e+36 3.0756e-41
0003c0 60 d9 6e 7c bc 55 00 00 00 dc 6e 7c bc 55 00 00
       4.9607022e+36 3.0756e-41 4.960915e+36 3.0756e-41
0003d0 c0 d5 6e 7c bc 55 00 00 00 d3 6e 7c bc 55 00 00
       4.960408e+36 3.0756e-41 4.960185e+36 3.0756e-41
0003e0 60 d0 6e 7c bc 55 00 00 e0 d6 6e 7c bc 55 00 00
       4.959972e+36 3.0756e-41 4.9604993e+36 3.0756e-41
0003f0 c0 d4 6e 7c bc 55 00 00 a0 d7 6e 7c e4 84 70 bc
       4.960327e+36 3.0756e-41 4.9605602e+36 -0.014680121

gc2.bias f4 [32]
000000 9a 7e 4b bc da 2d b9 3d e7 ec 20 3e 43 26 05 be
       -0.012420321 0.090419486 0.15715371 -0.13002877
000010 1a 1f c4 bd 88 b0 1f 3d 2d a3 aa 3b 31 62 23 3e
       -0.09576245 0.038986713 0.0052074404 0.15955426
000020 1c 5e 83 3c fd a7 07 be 7c 2e 74 3d b7 37 65 bc
       0.016036086 -0.13247676 0.059614643 -0.013990334
000030 b2 40 12 be 54 77 61 bd c1 c5 ce bd e5 d5 b8 bd
       -0.14282492 -0.05504544 -0.10096312 -0.09025172
000040 ff 44 06 3e 33 e1 14 bb c8 64 7b bd c7 ff 03 be
       0.13112257 -0.0022717237 -0.06137541 -0.1289054
000050 6d 89 4e 3c 6c 8c a5 bd cc fa 24 bd f5 83 08 be
       0.012606007 -0.08083424 -0.04027824 -0.13331588
000060 7f 6e d2 bc bf 7a 51 bd 5c c9 98 bd 3c 06 d9 bd
       -0.025687454 -0.05114245 -0.07460281 -0.10596892
000070 bf 71 8a 3d df b2 cb bd ed 7f c9 ba cf 3c e1 3d
       0.067599766 -0.09946226 -0.0015373208 0.109979264

gc3.weight f4 [77, 48]
000000 74 d3 6c bd e3 22 40 bd c4 26 01 be 75 3f 6a 3d
       -0.057818845 -0.04690827 -0.12612444 0.057189424
000010 32 e1 36 3d 02 19 52 3d 26 24 92 3b 0f 57 00 be
       0.044648357 0.05129338 0.0044598756 -0.1253321
000020 97 d5 07 3e e0 a3 e4 bd 54 26 de 3d 49 85 1a be
       0.13265072 -0.11164069 0.10847154 -0.15089907
000030 f2 37 f2 bd b9 5f 8b bc a1 b0 5b 3d 89 d7 8d bb
       -0.11827077 -0.017013418 0.053635243 -0.0043286723
000040 95 27 9a 3c 19 51 00 3e 3e a3 90 bd 0d d8 22 3d
       0.018817702 0.12530936 -0.07062386 0.039756823
000050 93 1b 99 3d 8f f8 a9 bd 82 78 05 3e ed 70 05 be
       0.074759625 -0.08299362 0.13034251 -0.13031359
000060 47 8b c8 3d 4a e1 9c 3d 26 1e ba 3d d8 ce df 3d
       0.0979219 0.07660158 0.090877816 0.10928124
000070 5d dd b2 bd 78 e1 b1 bd 37 07 46 3d 1c b7 28 bc
       -0.08733628 -0.08685583 0.048346724 -0.010297563
000080 06 a1 09 be b3 c7 82 3d f7 50 d0 bd 83 3c 5f bd
       -0.13440332 0.06385746 -0.10171693 -0.054501068
000090 c9 ee 8d bd d1 dc c0 bd 44 dd b3 bc a4 f8 a0 3d
       -0.0693031 -0.094171174 -0.021956094 0.078599244
0000a0 85 68 9b bd 91 82 fb 3c a9 b1 90 3d d5 ad 05 3e
       -0.07588295 0.030701907 0.07065136 0.13054593
0000b0 27 a4 00 3e ae 6c c6 bd 5b 85 0e be 6e 49 9e 3d
       0.12562619 -0.09688698 -0.13918059 0.07728849
0000c0 c9 4e 7a 3c d7 3a 60 bd 91 c1 c6 3c 89 13 c7 3d
       0.015277573 -0.054743614 0.024262222 0.09720523
0000d0 52 51 02 be 51 f1 ef bd 25 87 6d bd 7e c8 2c 3d
       -0.12726334 -0.11715949 -0.057990212 0.04218339
0000e0 42 7a 7c bc c8 82 a0 bd 24 03 6b 3d a6 20 96 bd
       -0.015410008 -0.078374445 0.057376042 -0.07330446
0000f0 70 a7 30 3d 26 7c 8a bc ef 45 03 be a8 c3 93 3c
       0.04312843 -0.016904902 -0.12819646 0.018037632
000100 46 f7 c1 3d d8 6b bb bd 80 48 84 bd fd 8e 18 3d
       0.09470992 -0.09151429 -0.06459141 0.03724574
000110 c5 20 79 3c 3a df 16 3e cf 0c 3c bd 32 8a c0 3d
       0.015205567 0.14733592 -0.045910653 0.09401359
000120 1f ad b0 bd 46 14 83 bd 9c 68 9c 3d bd 43 05 be
       -0.0862677 -0.06400351 0.0763714 -0.13014121
000130 bb 11 ba 3d 09 72 00 be 15 ae 05 bc 70 ab 02 bd
       0.09085413 -0.12543501 -0.00815918 -0.031901777
000140 f9 a5 63 3d 00 4e 9b 3d 61 98 1d 3e ab 45 03 bc
       0.055578206 0.07583237 0.15390159 -0.008012216
000150 a2 fc 90 3d 3e 72 ea 3d 75 f8 d9 3c 2d ca 19 be
       0.07079436 0.11447571 0.026607731 -0.1501853
000160 5b fe 98 bd 3f 1c a7 bc ba 53 b4 bd c7 19 97 3d
       -0.074703895 -0.020399211 -0.08805032 0.073779635
000170 7c 32 b4 bd f7 23 5b bd b6 a6 6b bc d2 b7 d3 3d
       -0.08798692 -0.053501096 -0.014383009 0.10337795
000180 a8 9c b4 bd ab c5 8c bd 17 90 15 3e 16 94 65 bd
       -0.08818942 -0.0687364 0.14605747 -0.05604943
000190 77 63 d9 bd 55 54 bc bd 8d ef 20 3e 16 91 ef 3d
       -0.106146745 -0.091957726 0.15716381 0.11697595
0001a0 a4 31 d2 3c 32 e3 9e 3d 82 35 08 3e 0b 5c 9c 3d
       0.025658436 0.07758178 0.13301662 0.07634743
0001b0 34 6e 08 be b0 13 c6 3d 10 2e 9b 3d ae 9d 76 3d
       -0.13323289 0.09671724 0.07577145 0.06020897
0001c0 ca 6e a9 bd 34 e8 89 3d af 5a b5 3d 52 98 6c 3d
       -0.082730845 0.06733742 0.08855187 0.05776245
0001d0 71 9e a8 3c 90 b1 a6 bd 2f 5c 2a 3e a9 a1 55 bd
       0.020583363 -0.08139336 0.16636728 -0.052156124
0001e0 d8 a5 15 3e 09 56 28 be 4c 10 87 bd 6b 1f d1 3d
       0.14614046 -0.1643907 -0.06594905 0.102110706
0001f0 0f 3d 99 bd e4 3e 2a be 68 8e e6 3d 88 99 b6 3d
       -0.07482349 -0.16625553 0.112576306 0.089160025
000200 87 0e 11 be 3e da 16 3e 1e 86 b4 3d 98 52 ed 3c
       -0.14165698 0.1473169 0.08814643 0.028970048
000210 bf 26 a9 3d 6e 72 d4 3d e3 4b 5e 3d 5e 88 06 be
       0.08259343 0.10373388 0.05427159 -0.13137957
000220 6a fd ae bc 7b c6 60 3d 0a 43 25 3e 08 96 c9 3d
       -0.021361072 0.054876786 0.16138855 0.09843069
000230 e0 21 0f 3c 00 20 84 bd c3 f3 23 3d a2 e8 12 bc
       0.008736104 -0.06451416 0.04002739 -0.008966597
000240 6a cf 28 3c 43 da 2f bc c0 54 af 3d b9 5d c2 3d
       0.010303358 -0.01073319 0.08561087 0.094905324
000250 82 f7 71 3d 05 14 2f bd 78 93 8b 3d b8 c4 b9 bc
       0.059073932 -0.0427437 0.06815237 -0.02267681
000260 2e 91 1d 3e e1 ae c3 3d 7b f3 aa 3d 70 0e 96 bd
       0.15387413 0.0955484 0.083472215 -0.073269725
000270 2d 05 12 3e 02 36 7c bd 75 eb f3 3c 13 41 5c bc
       0.14259787 -0.061574943 0.02977536 -0.013443249
000280 3e 0e f5 3d 8b 40 41 bc cc c0 ad bb 4f 0e 8a bd
       0.11965607 -0.011795173 -0.005302524 -0.067410104
000290 25 03 05 be 05 10 32 be 80 62 05 be f2 4a d2 3d
       -0.12989481 -0.17388923 -0.13025856 0.10268201
0002a0 ee b6 18 bd 9d d2 ed bc 91 01 8e 3d 89 8e 62 3c
       -0.03728383 -0.029031092 0.069338925 0.013827928
0002b0 cb 33 0a be ad db 7f 3d 92 04 2d 3d 8c 81 24 be
       -0.1349632 0.06246536 0.042240687 -0.16065043
0002c0 8f ae 7a 3d 8f 31 ef 3c b9 ee c8 3d 65 d5 a9 bd
       0.06120163 0.029198436 0.09811158 -0.08292655
0002d0 1d 24 97 bd 45 2f 45 3d 1f e3 31 3d 67 4a 94 3c
       -0.07379935 0.048140783 0.04342949 0.018101884
0002e0 04 c2 eb 3c cd 94 08 3e 55 a7 0b bd 54 43 b5 bd
       0.028779037 0.13338013 -0.034095127 -0.088507324
0002f0 5e f7 cd 3d cb 1c 7d bd a4 09 d3 3d 71 33 ae bd
       0.10056947 -0.061795037 0.10304573 -0.085059054
000300 51 af a4 bd fb 23 36 3d 81 b3 03 3e 63 5b ee bd
       -0.080412515 0.044467907 0.12861444 -0.116385244
000310 1c f4 05 bd 9d c0 e3 bd 29 75 49 3d dc 6c 99 bd
       -0.032703504 -0.111207224 0.049184 -0.074914664
000320 ee 24 94 3c c6 b1 ae bd 5d ad 7b 3d da 38 8a bd
       0.018084016 -0.08530001 0.06144463 -0.06749125
000330 fe 6f aa bd 87 d2 d2 3d ac 0e 32 3d d2 22 17 be
       -0.08322142 0.10294061 0.043471023 -0.14759377
000340 60 d5 b1 bd 80 7a 7e 3d ac 91 87 bd f8 b8 71 3d
       -0.08683276 0.062128544 -0.066195816 0.05901429
000350 ca c1 df bd 09 fa b4 3d 9b 80 e9 3d fd ca da 3c
       -0.10925634 0.08836753 0.11401483 0.02670812
000360 a1 4b cc bd e6 24 f4 bd af 09 e2 bd d2 36 e2 3d
       -0.099753626 -0.119211 -0.11037003 0.110456124
000370 2b dd 8e 3d bc 65 c4 3d 5c 3e 01 bd 2d bf d8 bd
       0.06975778 0.09589717 -0.03155361 -0.10583339
000380 8f 42 e3 bd 28 f8 1e 3e 97 2a bb bc 47 cb f7 bd
       -0.110966794 0.15524352 -0.022847457 -0.12099319
000390 d6 2f b3 bd 69 8c 9b 3b ad fb a7 bd 91 13 70 3c
       -0.08749358 0.004746963 -0.082023 0.0146531025
0003a0 77 49 0f be aa af e0 bd ce 1e d5 bd 61 77 9e bc
       -0.13992868 -0.10971005 -0.10406266 -0.019344034
0003b0 90 27 70 3d d4 36 28 3e 27 03 a7 3c 55 f9 94 3d
       0.05863148 0.16427165 0.020387245 0.07274119
0003c0 12 1b e9 3d 16 16 2d bc ad 9b cf 3d 6e 22 b0 3d
       0.113821164 -0.010564348 0.10137115 0.08600317
0003d0 b6 e9 fb 3d 46 a8 1e 3b a6 6b 15 3e 75 d1 ee bd
       0.12300436 0.0024209186 0.14591846 -0.116610445
0003e0 bb 89 e5 3d 56 c2 e7 bb ba 7d 66 3d 4c 37 a2 bd
       0.112079106 -0.007072727 0.056272246 -0.07920703
0003f0 39 78 f9 bb 1e c8 03 3e 60 69 0a be 18 06 59 3d
       -0.0076132086 0.12869307 -0.1351676 0.052984327

gc3.weight2 f4 [48, 32]
000000 20 82 5c 3b 00 00 00 00 8d 7f 97 b8 00 00 00 00
       0.0033646896 0.0 -7.223999e-05 0.0
000010 e7 75 b4 3b 00 00 00 00 26 8c ae 3c 00 00 00 00
       0.005507219 0.0 0.021307062 0.0
000020 00 00 00 00 00 00 00 00 00 00 00 00 10 de a5 bc
       0.0 0.0 0.0 -0.02024749
000030 c4 20 91 ba 00 00 00 00 00 00 00 00 6b f3 5c 3b
       -0.0011072387 0.0 0.0 0.0033714424
000040 5e f0 b6 bc c3 db 8d 3c ce be fd 3b ef 6a 1f bb
       -0.022331413 0.017316705 0.007743693 -0.0024325212
000050 78 31 48 3c 89 82 07 ba a5 57 46 3c 1c 5f 50 3c
       0.0122188255 -0.00051692926 0.012105857 0.012717988
000060 93 60 c5 ba f1 32 fd bb 00 00 00 00 37 59 3d bc
       -0.0015058689 -0.00772702 0.0 -0.011556915
000070 d1 42 e1 3b eb 6e 26 bc ec 85 64 3a b1 e8 06 bb
       0.00687442 -0.010158281 0.00087174657 -0.0020585472
000080 e3 e6 4d bb 00 00 00 00 6c 5a f7 38 00 00 00 00
       -0.0031418137 0.0 0.0001179472 0.0
000090 5f 91 ae bb 00 00 00 00 01 9e d1 bc 00 00 00 00
       -0.005327388 0.0 -0.025588037 0.0
0000a0 00 00 00 00 00 00 00 00 00 00 00 00 9c 1b a4 3c
       0.0 0.0 0.0 0.020032696
0000b0 16 35 cf 3a 00 00 00 00 00 00 00 00 9c 6c ae bb
       0.0015808668 0.0 0.0 -0.005323006
0000c0 d0 67 c6 3c 1c e2 ac bc 05 56 8a bc 89 75 3d 3b
       0.024219424 -0.021103911 -0.01688672 0.0028909168
0000d0 5c ee 91 bc e1 d6 5f 3a 62 a3 b1 bc b1 81 58 bc
       -0.017813854 0.00085387944 -0.021684352 -0.013214515
0000e0 4d 23 e3 3a e3 d3 04 3c 00 00 00 00 a3 07 06 ba
       0.0017329246 0.008107158 0.0 -0.00051128323
0000f0 71 b1 12 bc 6a dc 36 3c f3 83 f2 b8 e9 6e 0d 3c
       -0.008953438 0.011160949 -0.00011564037 0.0086324
000100 9d b1 0f bb 00 00 00 00 7c a5 a6 b9 00 00 00 00
       -0.0021925934 0.0 -0.00031785283 0.0
000110 30 82 f8 ba 00 00 00 00 de d0 e0 3a 00 00 00 00
       -0.0018959697 0.0 0.0017152091 0.0
000120 00 00 00 00 00 00 00 00 00 00 00 00 c7 7e 96 3c
       0.0 0.0 0.0 0.018370999
000130 ba b7 8b 3a 00 00 00 00 00 00 00 00 33 a1 fc ba
       0.0010659613 0.0 0.0 -0.0019274115
000140 00 b7 c6 3c 45 99 bd 3b 11 c7 12 3b ba e6 7a 3a
       0.024257183 0.0057860934 0.0022396485 0.0009571124
000150 64 b5 49 3b b5 4b aa ba c3 cf 61 3b 2d f4 93 ba
       0.0030778283 -0.0012992533 0.003445611 -0.001128798
000160 5c 7f 90 3a f6 10 08 3c 00 00 00 00 eb 2d 88 bb
       0.0011024284 0.008304825 0.0 -0.0041558645
000170 37 1f b4 ba 29 ca 24 3c 25 48 df ba f7 dc 5d bb
       -0.0013742213 0.010057964 -0.001703505 -0.003385363
000180 64 07 51 ba 00 00 00 00 a0 15 df ba 00 00 00 00
       -0.00079738186 0.0 -0.0017019995 0.0
000190 21 50 93 3b 00 00 00 00 38 20 53 3c 00 00 00 00
       0.004495636 0.0 0.0128860995 0.0
0001a0 00 00 00 00 00 00 00 00 00 00 00 00 49 ac 77 3c
       0.0 0.0 0.0 0.01511676
0001b0 a2 16 9c 3a 00 00 00 00 00 00 00 00 4c 54 c5 3b
       0.00119086 0.0 0.0 0.006022012
0001c0 22 90 e1 3c 63 19 99 3c 84 0a 3d 3c e8 fc 3f b8
       0.027534548 0.018688863 0.011538152 -4.5773486e-05
0001d0 9d 41 77 3c 44 35 4f bb e8 73 3b 3c a7 ab fd 3b
       0.015091327 -0.0031617442 0.011441208 0.00774141
0001e0 a4 6c 5e 3a 0d ee 09 3c 00 00 00 00 33 f0 8d bb
       0.00084848166 0.008418572 0.0 -0.0043316125
0001f0 fe 54 b4 ba 63 bb 30 3c e2 f0 46 bb a5 c6 da bb
       -0.001375824 0.010786864 -0.003035598 -0.0066765123
000200 d0 81 6d 3b 00 00 00 00 ee 2e 08 3a 00 00 00 00
       0.0036240704 0.0 0.00051949813 0.0
000210 c2 5d e8 ba 00 00 00 00 ee b0 2e bc 00 00 00 00
       -0.0017728137 0.0 -0.0106623005 0.0
000220 00 00 00 00 00 00 00 00 00 00 00 00 24 24 8b bc
       0.0 0.0 0.0 -0.016985007
000230 2e 2b e8 ba 00 00 00 00 00 00 00 00 45 96 1d ba
       -0.0017713064 0.0 0.0 -0.00060114666
000240 9b cf c4 bc 2e d8 19 bc d5 b4 f8 ba 53 dc 1a bb
       -0.024024775 -0.00938992 -0.0018974791 -0.0023629859
000250 22 1c 55 bb a0 25 37 3b e4 71 ca bb 7a 7e b6 bb
       -0.003251799 0.002794601 -0.0061781276 -0.0055692764
000260 1a ab dc ba 42 51 08 bc 00 00 00 00 03 d7 47 3b
       -0.001683566 -0.008320155 0.0 0.0030493147
000270 06 87 a6 3b e2 c7 35 bc 29 45 6b 3a 33 bf 7d 3f
       0.005082014 -0.011095019 0.0008974844 0.9911987
000280 a4 22 c1 3b 00 00 00 00 b4 26 2f ba 00 00 00 00
       0.005894022 0.0 -0.00066814874 0.0
000290 d3 f0 ea 3b 00 00 00 00 a1 4c bd 3c 00 00 00 00
       0.0071698218 0.0 0.023107829 0.0
0002a0 00 00 00 00 00 00 00 00 00 00 00 00 68 3e a3 bc
       0.0 0.0 0.0 -0.019927219
0002b0 c4 17 c2 ba 00 00 00 00 00 00 00 00 99 e1 53 3b
       -0.0014808108 0.0 0.0 0.0032330512
0002c0 7a b2 d5 bc 2d 3e 90 3c 7f 68 48 3c f5 4d 3e bb
       -0.02608608 0.017607773 0.012231945 -0.0029038165
0002d0 c4 e6 71 3c 23 23 00 ba 70 8d 83 3c c5 70 8e 3c
       0.0147644915 -0.0004888048 0.016058654 0.017387757
0002e0 a7 b0 05 bb 4d 56 0d bc 00 00 00 00 f4 f9 02 3c
       -0.0020399482 -0.008626533 0.0 0.007994164
0002f0 b7 fe fb 3b 35 2a 34 bc 99 e3 64 3a 04 b5 3b bc
       0.0076902765 -0.010996391 0.00087314245 -0.011456732
000300 e6 2f 2b ba 00 00 00 00 6c 2e 4c ba 00 00 00 00
       -0.000653027 0.0 -0.00077889 0.0
000310 27 85 42 bb 00 00 00 00 0c e1 a5 b9 00 00 00 00
       -0.0029681416 0.0 -0.00031638925 0.0
000320 00 00 00 00 00 00 00 00 00 00 00 00 b7 fb 97 3c
       0.0 0.0 0.0 0.018552644
000330 74 a6 8b 3a 00 00 00 00 00 00 00 00 a4 8f 1c 3b
       0.0010654465 0.0 0.0 0.0023889327
000340 77 4c ba 3c 32 54 4b 3b 59 6d 8e 3b c0 8c 8b 3a
       0.02274154 0.0031025526 0.0043465314 0.0010646805
000350 ff fa 81 ba 63 54 ea ba ef 0a 1d 3b df ec 2b ba
       -0.0009916722 -0.0017877932 0.0023962816 -0.0006558429
000360 16 bb af 3a b0 55 fa 3b 00 00 00 00 19 bc ac bb
       0.0013407196 0.0076396093 0.0 -0.0052714464
000370 e5 f2 b4 3a de ff 1e 3c 5b a1 9c ba 80 2b 2c 3b
       0.0013805298 0.009704558 -0.0011949943 0.0026271045
000380 0d 78 6a 3a 00 00 00 00 f1 ea 60 3a 00 00 00 00
       0.00089442806 0.0 0.0008579931 0.0
000390 8f c5 63 b9 00 00 00 00 e1 b5 67 bc 00 00 00 00
       -0.00021722003 0.0 -0.014142484 0.0
0003a0 00 00 00 00 00 00 00 00 00 00 00 00 1d 0a 89 bc
       0.0 0.0 0.0 -0.016728455
0003b0 fb d1 a0 ba 00 00 00 00 00 00 00 00 3b f7 8c bb
       -0.001226961 0.0 0.0 -0.004301933
0003c0 7f 07 94 bc 62 f9 83 bc 6b 3b 96 bc 13 18 7e ba
       -0.01806998 -0.016110126 -0.01833888 -0.00096929184
0003d0 7d 52 13 bc 20 71 1b 3b 86 1e 5f bc db a6 23 bc
       -0.008991835 0.002371855 -0.013618117 -0.009988512
0003e0 95 70 8d ba 4f 29 e6 bb 00 00 00 00 6f 14 62 3b
       -0.0010790998 -0.0070239673 0.0 0.0034497043
0003f0 d2 b9 bc 39 14 89 12 bc a4 db 9e 3a 07 3c 71 3c
       0.000359966 -0.008943815 0.0012119901 0.014723784

gc3.bias f4 [32]
000000 21 6f b3 3d 73 82 6b bc a2 37 20 3c f5 d2 b0 bd
       0.087614305 -0.014374363 0.009778889 -0.08633987
000010 05 38 db bd a3 b9 0b be 7c 22 06 3e 3b 72 86 bc
       -0.10704044 -0.13645034 0.13099092 -0.016411891
000020 7b b2 ef bc e6 c4 dd bd 27 af e1 bd 86 3c ab 3d
       -0.02925991 -0.10828571 -0.11019736 0.08361153
000030 22 73 b7 3d 12 f9 97 bc 65 19 58 bd 7c 38 53 3d
       0.08957507 -0.018551383 -0.052758593 0.05156754
000040 d6 97 ef 3d 90 54 da 3c 6f 7d 5e 3c a6 68 0d 3e
       0.11698882 0.02665165 0.01357971 0.13809451
000050 f7 24 e9 3d ab 00 db 3d a2 29 ab 3d 51 85 55 3d
       0.113840036 0.10693487 0.0835755 0.052129094
000060 73 95 30 3d d3 fa f7 3c a3 44 11 be 68 1c dd 3d
       0.043111276 0.03027097 -0.14186339 0.10796434
000070 7f 64 fe 3d 0c 16 2e 3e c2 75 fe 3d 70 31 42 3d
       0.12421512 0.17000598 0.12424804 0.04741043
