DyGCN/savedmodel/model.pt (torch, 46084 bytes, 14 tensors)

gc1.weight f4 [77, 32]
00000000: c172 853d 11a6 a0bc 1290 463d 28fb 3fbd
00000010: 939d ea3d 572f 273d d6ab 1cbd 46c0 0ebe
00000020: ec3a c93c 8fd5 22be 675f 513d 808b 653c
00000030: 46e5 0abd 8426 0f3e 9d7b 483c d7d3 073d
00000040: a228 a13d 6852 d0bd 3927 61bd 4146 003e
00000050: 504d 4cbe 46a5 84bc 6774 20bd ed3b ed3d
00000060: 5825 9abc 1b27 913c 8f5c f8bc b038 bebd
00000070: 2194 0ebe 5b69 d4bd f6b4 33be 4f12 18be
00000080: 654e 403d a619 b63d 6bc9 093c 93f6 f8bd
00000090: 2e9f 0c3e 22fd 8abd ef50 aebd 9762 3dbd
000000a0: cea7 dbbd 4ce5 27be 0b02 fd3d db67 723d
000000b0: e773 0ebc edb4 ff3d ab81 703d e6b0 84bc
000000c0: ced6 bebc adb3 ac3c ad90 263d dfd1 ae3d
000000d0: fdbe 9e3d dfd6 ca3d 82ee 1cbd d9a6 873c
000000e0: 0e57 11bd 7bde eb3d 0475 463c 056d 223e
000000f0: a635 0f3d 35d5 28be f2d5 c73c 2bfc e93d
00000100: 375a 3c3e 43fc bdbc 979f 6f3d fabf 46be
00000110: 42bd d2bc 926d ad3d fcbc 49be 5663 393e
00000120: f8a0 16be a876 5b3d d015 133a 4816 ae3c
00000130: 0b73 45bc d528 1dbe ff8f 0ebd 74e6 08be
00000140: 9397 003e fdb0 54bc 716f 56be 7400 843c
00000150: a348 133d 0bd2 9dbd 0798 19bd cfd2 a03d
00000160: 2557 dabd 5b14 d8bd c843 20bd 713f f9bd
00000170: 91f1 783d b514 f43c 929b aa3d b9c5 863d
00000180: fa52 fabd df74 ffbd c3a0 f7bd cfc3 c9bd
00000190: d56b 26bc d814 e9bc d5a8 4dbe 0c12 ce3d
000001a0: 3995 903d 62f0 623d 0cb0 0c3e 5e42 0a3e
000001b0: 78e4 4ebe 29c6 453d 5db0 263e e9cb 22be
000001c0: 7b9c debd 633e 2cbc 53f2 13be eb58 7bbd
000001d0: 86fd 26bd 2552 263e 3823 f0bc c965 c73d
000001e0: bc7e 023e ec5c 923d 67ad 31be 4667 0e3e
000001f0: b9c3 ab3d fed5 07be 4b09 a5bd 6fce a93d
00000200: 5090 26be 6f9b 22be ee5f f5bd 4046 533d
00000210: 644a 92bd bd70 21be edbf 583d b3c2 b03d
00000220: 3eb4 3d3d 21dd 1dbe be14 2c3e 3a51 34bc
00000230: 78b5 35be be05 efbc 3193 f73d 1d63 a23d
00000240: 28bc 16bc fc64 ff3d 95c8 27be 82d4 eb3d
00000250: 5666 193e 759f e1bd 2725 b83c 283c ebbc
00000260: 0bbe 1abe 1718 b1bb 794a a3bd de60 16be
00000270: b509 2dbe b382 ad3c c1ce 183e 04c6 813d
00000280: ccb3 fbbd b14d e93d 90bd 6d3c 62f4 49be
00000290: ba75 4b3d 5c68 e83d e109 fbbd 8ca2 503c
000002a0: 83d4 ddbd 2cbc 0ebe 569b adbd b113 9a3c
000002b0: 255d c63d 2cfc 7fbc 0dbf 26be e947 84bc
000002c0: a8fa 35be 3513 423c 430a dc3d 515a 853d
000002d0: 6fc9 eabd a4cc 03bd 865f 8f3d 9462 683d
000002e0: bb37 2bbe a4e4 c0bd 0ef7 8ebd 2323 8e3d
000002f0: 0c76 0b3e 822d 833d e5d6 693d bec1 33be
00000300: 513f 0e3e 718c 0d3d ebd5 68bd 3b4b ecbd
00000310: bf9c b73d e23d c4bd a943 433d 37c2 033e
00000320: 88a4 05be d4dc e6bd fa53 86bd cc80 19be
00000330: 363a dfbc 4363 e13d a0ca 923d 0d95 b1bd
00000340: b307 b8bc 0ff3 9bbd e62c 2cbe fa80 a7bd
00000350: 84ff 7dbc cdf5 bfbd 4d06 1abe 0fd4 173d
00000360: 1b24 c53c 5a1c a8bd bfe5 db3c 845c 2a3e
00000370: 06c2 d4bc 4077 d2bd 38a4 1b3e 4248 c83d
00000380: 305e 81bc 215d 60bd d7c2 98bd dceb f53d
00000390: a03f f83d 732d babd 89e8 203c 1ba0 0a3d
000003a0: d281 423d b82c 39bc 971f 86bd 832d b2bb
000003b0: ede9 21bd b2a7 88bd eb3b b5bd df1d f3bd
000003c0: 65da 8bbd 9677 8a3d ccef 02be fdc6 52be
000003d0: 44e2 163e 8b5d 723d d3a5 bb3d 4b2f 8a3d
000003e0: c223 8ebd 5790 02be 497a 11be 4fd2 44bc
000003f0: 4b8a 143d 48a0 47be 7c2a 0cbe 95f0 d13d
0.06516028 -0.019610437 0.04847724 -0.04687038 0.11455836 0.04081663 -0.038249813 -0.13940534
0.024564229 -0.15901779 0.051116373 0.01401031 -0.03391006 0.13979536 0.012236503 0.03316101
0.07869078 -0.10171968 -0.054969046 0.125268 -0.19951367 -0.01619209 -0.03917351 0.115836956
-0.018816635 0.017718842 -0.030317573 -0.09288156 -0.13923694 -0.103716575 -0.175495 -0.14850734
0.046949763 0.08891611 0.008409838 -0.12156405 0.13732597 -0.067865625 -0.085115306 -0.0462366
-0.107253656 -0.16396064 0.12353905 0.059181076 -0.008694625 0.12485681 0.05871741 -0.016197633
-0.023295786 0.02108177 0.040665317 0.085361235 0.07751272 0.09904265 -0.038313396 0.016559051
-0.035483412 0.11517044 0.01211286 0.158619 0.034963273 -0.16487582 0.02439401 0.1142505
0.18393789 -0.023191577 0.058501806 -0.19409171 -0.02572501 0.084681645 -0.19700998 0.181043
-0.14709842 0.053579956 0.00056108553 0.021250859 -0.012051354 -0.15347607 -0.034805294 -0.13369161
0.12557821 -0.01298165 -0.20940949 0.016113497 0.035957944 -0.07706078 -0.0374985 0.078527085
-0.10661153 -0.105507575 -0.03912714 -0.121703036 0.06077725 0.02979503 0.08330454 0.06580681
-0.12222858 -0.12473463 -0.1209121 -0.09851801 -0.010157545 -0.028452322 -0.20083936 0.10062036
0.07059712 0.05540503 0.13739032 0.1350188 -0.20204341 0.048284683 0.16278215 -0.15898098
-0.1086969 -0.010512921 -0.14447908 -0.061364096 -0.040769123 0.16242273 -0.029313669 0.09736211
0.12743658 0.0714663 -0.17351304 0.13906583 0.083869405 -0.13265225 -0.08058413 0.08291327
-0.16265988 -0.15879606 -0.11981188 0.051580667 -0.07143095 -0.15765662 0.05291741 0.08630886
0.04631447 -0.15416385 0.16804788 -0.011005694 -0.17745006 -0.029177543 0.120886214 0.079290606
-0.009200133 0.12470433 -0.1638511 0.11515142 0.14980444 -0.11016742 0.022478653 -0.028715208
-0.15111558 -0.005404483 -0.07973189 -0.1468539 -0.16898234 0.021180486 0.1492262 0.063365966
-0.12290153 0.113917716 0.014510527 -0.19722131 0.04967282 0.1134803 -0.122577436 0.012734067
-0.10831549 -0.1393897 -0.084768936 0.018808218 0.09685735 -0.015624087 -0.16283818 -0.01614757
-0.17771399 0.0118454 0.10744145 0.06511367 -0.11464202 -0.032177582 0.070006415 0.056734636
-0.16720478 -0.0941861 -0.06980716 0.069402955 0.1361925 0.06405164 0.057089705 -0.17554376
0.13891341 0.034557763 -0.056844633 -0.115377866 0.08965444 -0.09582116 0.047671948 0.12867056
-0.13051045 -0.11272588 -0.06558986 -0.14990538 -0.027249437 0.11005261 0.07167554 -0.08671007
-0.022464609 -0.07614719 -0.16814002 -0.08178897 -0.015502814 -0.09373055 -0.15041466 0.03706747
0.024065068 -0.08208533 0.02684295 0.16636854 -0.025971424 -0.102766514 0.15199363 0.09779407
-0.015791982 -0.054776315 -0.07459038 0.12007877 0.121215105 -0.090907 0.009821066 0.033844095
0.047487088 -0.011302166 -0.06548994 -0.0054375543 -0.03952973 -0.0667261 -0.08849319 -0.11870932
-0.06828765 0.067610905 -0.12786788 -0.2058372 0.14734751 0.05917124 0.09162488 0.06747302
-0.06940414 -0.12750374 -0.14206804 -0.012013032 0.0362647 -0.19494736 -0.13688082 0.102509655

gc1.bias f4 [32]
00000000: b927 13bd c920 303c d598 06be 271d 363c
00000010: 507a 773d e32a 16be 9fe6 87bd 6794 e4bc
00000020: bc6c e3bd 3182 daba 13fe 0d3e 34ba 2dbe
00000030: 648c 82bd 4de0 e43d b996 0abe b27a 993d
00000040: 8440 19be b2a6 e7bd 7529 9e3d 60f6 cf3d
00000050: c06a 7cbd 8ffe e5bd bad4 07bc 6b57 9b3d
00000060: 9eac 89ba a184 fa3d cdc7 523d 01eb 65bd
00000070: e013 e33d 5574 013e 5d91 cfbd e3b3 cb3d
-0.035926554 0.010750004 -0.13144238 0.011115349 0.06041938 -0.14664797 -0.06635784 -0.027902795
-0.11104724 -0.001667088 0.13866453 -0.16965562 -0.06374434 0.111755945 -0.13534059 0.074941054
-0.14966017 -0.113110915 0.07722751 0.10154414 -0.061625242 -0.11230194 -0.008290464 0.07585033
-0.0010503714 0.12232328 0.051460076 -0.05613232 0.11087775 0.12642033 -0.10135148 0.0994642

gc2.weight f4 [77, 32]
00000000: dbf6 9ebd 0603 1fbe 4d25 b4bd 089b c03c
00000010: dc12 1e3e eed4 86bd 7168 5c3e 779b 183d
00000020: b361 febd 6631 cdbd a90c b73d fa89 56be
00000030: 90fd 183e 6d2e ccbd 2189 a6bd 2000 c3bd
00000040: 00f3 3abd 2dc1 15be d57d a03d 15b3 4cbe
00000050: f333 033d 9491 1a3e 4b06 e5bd 8b49 9fbd
00000060: 95b6 b8bd 40c8 753d 4ea8 053c be79 56bd
00000070: 2767 863c 3854 e3bd b8a7 3d3e 8e1a d5bd
00000080: f1f2 693d 0f74 283e 05f6 a83d 77e5 033e
00000090: 9a2b dd3b 3a59 823d 5938 b9bd ae27 25bd
000000a0: 6349 0fbe 1d7d a4bb cbe5 003e 5e28 28be
000000b0: c7ef 263d 4329 a23c 7036 2ebe ee7f 98bd
000000c0: a3c3 e6bd 4867 4dbe e077 21be 75b1 64bd
000000d0: da52 a13b 4054 3d3e 3c2a 35be 6b84 1abe
000000e0: 1edb 71bd 707a 793d f9e3 663c 8bd3 8cbb
000000f0: f607 edbd 2fcf f4bd fc06 12bc 99c0 90bd
00000100: 8201 31be 0366 35be cba4 43be 6ca5 7bbd
00000110: db3a c8bd 128c 1b3e 6c60 f53d 6a8d 1d3e
00000120: 1a24 0cbc 9884 403d e410 4bbd 4712 febd
00000130: 984a f4bd f8ff 2ebe c1bc d8bd d44b bfbd
00000140: 838f 88bd 2f00 03be 744e 4c3d 27ba bebd
00000150: bf1b 08be f044 eb3c 947d 9cbd 6798 c6bd
00000160: b96a 2abe 76aa 36bd 4b7f f7bd 38dc 253e
00000170: a467 8ebd 2128 d83d 8c38 9dbd bdab b43d
00000180: cff2 023e a8cd cbbd 2c4b f1bd f927 9dbc
00000190: fe47 67bc 6abe 84bd a393 1b3e d72d 3b3d
000001a0: e400 bbbd 5acc 7f3d f15d c53d bb0d 563d
000001b0: 0f75 c73d 7577 81bd e5e6 163d 7b05 1d3e
000001c0: 2580 bfbd 2423 0cbe 46ca c5bd a370 3abe
000001d0: 7adf 42be 8d8b 073e cfd1 d13d 11b5 6c3d
000001e0: 1673 a9bd f301 1abe 5fdc cabd 0b09 f3bd
000001f0: 041a a43d a387 0dbe 792e 143c f395 afbd
00000200: 154d 823d 619f 1dbe ab47 0fbe 31fe a83d
00000210: 1f5c 18be 7c11 88bd 8029 bf3d f142 f83d
00000220: b6f8 fa3c 108d a43d a941 a73d d1cf 0d3e
00000230: 4c0d b13d 730c 28be f7fe 403d 50a4 29be
00000240: bd09 e23d e229 30be 7da1 51be bd9f fd3d
00000250: 21cc ec3d 5b31 57bd ccf9 0e3e 8a87 e53b
00000260: e9db 21be 83f2 1bbb 2b8c 5f3d 05e3 11be
00000270: a58d 01be 37a9 52be 7837 c4bc c697 d2bc
00000280: 5e5c 24be b9a1 0abd 2e7a e13c bd6f 97bc
00000290: 2ad5 1a3e d36a 3d3d 52b8 0abe 6ba2 c83d
000002a0: 75c5 49bd 5237 1fbd 8ce4 a33c 89e0 5e3d
000002b0: a836 fdbd 1146 6ebd cbac 05be 6908 633d
000002c0: 457d 0bbe 1986 05be ca63 af3c ac71 073e
000002d0: cec9 d6bc df1b 28be f435 5abd 6141 06be
000002e0: e604 db3c 71c1 32be 97b6 b03d 035c 5c3d
000002f0: 1448 c9bc 2064 eabd c97f 263e c0a9 493d
00000300: 4b1a af3d 2b0b ebbc 3c10 0bbe edc7 fbbc
00000310: 1e40 fb3d 3b25 4e3d 147d 3a3e fb18 66bd
00000320: ade2 f7bd bd72 b5bd 29c9 cfbd 9806 153e
00000330: 701e 3d3e c7b8 50bc c7bf 84bd 1278 eebd
00000340: ed32 173d f799 42be f471 5cbd 40d2 3dbe
00000350: 821b 933c 4275 cabd 6086 6cbd 2467 6fbd
00000360: 0077 15be 24b9 ac3d b547 2abe 832f 35bd
00000370: ad2d 0fbe f3e8 aebc 51b1 b8bd 395f d53d
00000380: 0aca c23d 8bb0 28be 7305 ac3d 14b8 a93c
00000390: dd51 2bbe 3423 3ebc 3588 b6bc 4cb2 babd
000003a0: d4a9 103e f6b8 273b bea9 1bbd eb32 e13d
000003b0: ec4b f43d e389 37be b704 bebd a0d7 073c
000003c0: 04f5 98bd b34a 1ebe 1bf6 8b3d a2a7 2dbe
000003d0: 59ef 92bd b19d 0a3e e50e ba3d a7bf 06be
000003e0: 3a84 a33c 7684 15be 0a23 9f3d fb11 983d
000003f0: 0b6c e7bd 056d bdbc 717b 263e 3d16 5dbb
-0.07761928 -0.15528497 -0.08796177 0.023511425 0.15436882 -0.06583582 0.21524216 0.037257638
-0.124209784 -0.10019188 0.089379616 -0.20951071 0.14940476 -0.099697925 -0.08131624 -0.09521508
-0.0456419 -0.14624472 0.078365006 -0.1999019 0.032031965 0.15094596 -0.11182841 -0.07777699
-0.090192 0.060005426 0.008157803 -0.052362196 0.016406609 -0.11100048 0.18521011 -0.104054555
0.057116453 0.16450523 0.082500495 0.12880503 0.0067495825 0.06364675 -0.090439506 -0.040321045
-0.13992839 -0.0050197975 0.12587659 -0.16421649 0.040756013 0.019795066 -0.17012954 -0.07446276
-0.112677835 -0.2005893 -0.15768385 -0.0558333 0.0049232068 0.1848917 -0.17691892 -0.15089576
-0.059046857 0.06090778 0.014092439 -0.004297679 -0.11573784 -0.1195358 -0.008912798 -0.07067985
-0.17285731 -0.17714696 -0.19105832 -0.061437055 -0.09776851 0.15190151 0.11981282 0.15385976
-0.008553529 0.04700145 -0.049576655 -0.1240583 -0.1192829 -0.17089832 -0.10582877 -0.09340635
-0.06667998 -0.12793039 0.049879506 -0.093128495 -0.13291834 0.028719395 -0.076411396 -0.09697037
-0.16642274 -0.044596158 -0.12084826 0.16197288 -0.06953362 0.10554529 -0.07676801 0.08821819
0.12787937 -0.09951335 -0.11781916 -0.0191841 -0.014116285 -0.06481631 0.15193038 0.045698013
-0.09131029 0.062450744 0.096370585 0.05225919 0.09739124 -0.06321613 0.036841292 0.15334122
-0.093506135 -0.1368528 -0.09657721 -0.1820703 -0.19030562 0.13236828 0.10245096 0.057789866
-0.08273904 -0.15039806 -0.09905314 -0.11866959 0.080127746 -0.13821273 0.009044283 -0.085735224
0.063623585 -0.1539283 -0.13992183 0.08251608 -0.14878891 -0.0664396 0.09334087 0.12122143
0.030636173 0.08034718 0.081668206 0.13848807 0.08645114 -0.16410999 0.047118153 -0.16566586
0.11037014 -0.17203477 -0.20471759 0.12383983 0.11562372 -0.052537303 0.13962477 0.007004683
-0.15806545 -0.0023795671 0.054577034 -0.14246757 -0.1265169 -0.20572363 -0.02395223 -0.025707137
-0.1605086 -0.033845637 0.02752408 -0.018485898 0.15120378 0.046244454 -0.13546875 0.09796604
-0.049260575 -0.038871117 0.02000644 0.054413352 -0.123639405 -0.05817229 -0.13054197 0.055427942
-0.13622005 -0.13039435 0.021409888 0.13226956 -0.026219275 -0.16416882 -0.05327411 -0.13110878
0.026735734 -0.17456605 0.08628576 0.053798687 -0.024570502 -0.114448786 0.16259684 0.04923415
0.08549937 -0.028691849 -0.13580412 -0.03073498 0.12268089 0.050328474 0.18211776 -0.056176167
-0.12103782 -0.08859775 -0.1014579 0.14553297 0.18468642 -0.012739367 -0.06481891 -0.11643995
0.0369138 -0.19004045 -0.05381961 -0.18537235 0.017957453 -0.098856464 -0.057745337 -0.058447972
-0.14596176 0.0843375 -0.16628917 -0.044234764 -0.13982268 -0.021351313 -0.090181954 0.10418553
0.09511192 -0.16473596 0.08399477 0.020717658 -0.16730447 -0.011605073 -0.022281745 -0.09116039
0.14127284 0.0025592423 -0.038003676 0.1099604 0.119285434 -0.17923693 -0.09278243 0.008291155
-0.07468608 -0.15458183 0.0683405 -0.16958478 -0.07174558 0.13536717 0.09084872 -0.13159047
0.019960511 -0.14601311 0.07770355 0.074253045 -0.112999044 -0.023123274 0.16258027 -0.003373518

gc2.bias f4 [32]
00000000: a580 d93d 5df0 923d 36b8 423e 5d57 ed3d
00000010: dbc6 31bd 40cf 2dbe 01b6 5139 3901 743d
00000020: 9fc3 02be f384 c93d 80bb 48be 56f7 513e
00000030: 1be3 1dbd 8143 863c cc08 37be 28da cc3d
00000040: d042 8d3d 199f c23d 04a0 223d 39ac 963d
00000050: e44e fa3d 8d3b b13d 0cce a53d f09f 67bd
00000060: e09b babd be48 1cbe 7515 373d 40cc 093e
00000070: 2c72 da3d 5cd0 fb3d 8644 ad3d 57f2 12be
0.1062024 0.07174752 0.19015583 0.11588929 -0.043402534 -0.16973591 0.00019999595 0.05957148
-0.12769936 0.09839811 -0.19602776 0.20504507 -0.038546663 0.01638961 -0.1787445 0.100025475
0.06897509 0.09503002 0.039703384 0.073570676 0.122220784 0.086539365 0.08095941 -0.056549013
-0.09111762 -0.15262124 0.044698197 0.13456821 0.10666308 0.12295601 0.084603354 -0.14350258

lstm.weight_ih_l0 f4 [64, 64]
00000000: f3dd 31be 3175 243e 87b8 94bd bc84 7bbe
00000010: f7c3 84bc 799d 6dbe dd63 3f3e 9f54 76bd
00000020: 17a5 8bbe d521 423d a965 a83d d4ca c23d
00000030: ad32 3cbe e16a 3a3e 6436 58be d0cf 1f3d
00000040: 26e3 033e b5b4 04bc 403c 20be cb77 45be
00000050: a5cc 243e 5d07 453e 5df4 d7bd b792 ba3d
00000060: c935 ab3d ebce 33be 0ad1 1a3d 20c3 61be
00000070: 333f 29be ef1b 003e 8952 443e 2ffd 233e
00000080: 05c7 92bd ee54 3b3e c94b 94bd aa7b 103e
00000090: 8a3f a03b 5344 28be 4d28 44be 5fc5 6c3e
000000a0: 6ce3 03be a011 21be ae04 febc c99e 47bd
000000b0: 5167 c4bc dbeb 643d fcb0 0d3e e3dc 89be
000000c0: 2cac da3d 8a4b 3abe 362d e5bc db44 343d
000000d0: f4bb 07be 055a 40be 3781 fabd 704a 6c3d
000000e0: f42b 92be 1e9f 27bd c699 c1bd 8abf 65bd
000000f0: bc45 123e 1c4b 583e 741e 28be e57e 08be
00000100: 7ae5 243e c623 7c3d f254 98be 3176 88bd
00000110: c95a 84be 16eb f83d cdb0 823d 8faf 033e
00000120: 881e bbbd 9a5b 133c a7c1 14be c1c4 82be
00000130: f2c2 683e 2e3b d33d 8380 3abe ed06 e5bc
00000140: 9aca 4dbd 2909 5ebd e4ad c8bd 8b4b 38bd
00000150: 2ade 26be 0f03 40be 83cd 8abe 7b4b 373e
00000160: d3da cbbd 7aaf 263e bfc9 853c f87e ca3d
00000170: ff76 6f3e dcfa 063d b1f7 1dbe ef01 e33d
00000180: cad2 76be 45f8 3fbe 0dcb c6bd 1f62 23be
00000190: e202 d6bd 7194 d13c 5d73 8d3c 13e7 d33d
000001a0: 425d 76be fa16 903d afcd 5bbe e186 1e3c
000001b0: 53d4 033e 6a8f 043e 6223 f63d 615b 0c3e
000001c0: 623d e33d 0321 48bc ec52 43be 1ee4 4d3b
000001d0: e89b 56be 8a37 083e 2861 b8bd d579 4fbe
000001e0: 6e74 2abd b6be 4bbe 8da5 343e 03b4 14be
000001f0: d8a1 a7bd 23f8 1e3b 956f e7bc f719 8d3d
00000200: ff2e 8c3d 7c17 db3d e124 1ebd e8a4 80be
00000210: d0df 27be 4054 5bbe d0c3 413e 240d b6bd
00000220: 489c 1cbb 63a2 36be 65f0 ddbd c584 093e
00000230: 37c2 26bd 5f75 b63d 047b 3d3e 9c32 0d3d
00000240: be2a a3bd d82e 303e d7ee 2b3d 55e3 6e3e
00000250: b8fc d8bd 6aba ffbd 4fb0 973d eb6e 35be
00000260: e906 963d dd56 f5bd 78cf f5bd 334a 18bd
00000270: 4d5c 14bd c424 813e 762d 54be 7815 f43d
00000280: fd01 81bd 9a2e a33d 9162 eebc 9332 5b3e
00000290: 7860 46be 8109 d2bd e728 0d3e 1e55 333e
000002a0: b3d8 63be ea85 813c 0e7b d43d af33 8fbd
000002b0: 5338 eebc 95e3 173e 4454 1b3c 9323 93bd
000002c0: d71b 1d3d 75b1 72be 6ee7 343e 283a 59be
000002d0: 5ae3 063e a8e3 6abd 4d3d 3ebe 4e92 073e
000002e0: ea71 b83c f3e1 ac3b 520e 0bbd 2e22 5ebe
000002f0: 6eba eb3d adeb 0abe ee2e 09be ecbe 9a3d
00000300: d9e0 fd3c 5d3a 30be 0d8a 1cbe 0b83 b53d
00000310: b738 e5bd 11cb 74be 20fa 393c 51f6 1abc
00000320: 6a98 34be 1c0d 65be 3920 c1bd 84e3 b0bb
00000330: 472e ef3d b073 e8bd 5b14 22be 823d 49be
00000340: e94e 053e d8ed 0cbe 7efd 873e c63a 293d
00000350: 9c32 26be 39fe 8fbe 25a7 46be 73c8 4abe
00000360: 4379 74be 7ac7 0dbe b3ae 34bc e822 4dbd
00000370: ab69 ffbc ed9e 473d 6c5b 943d a0cd e53d
00000380: f103 393e 2764 07be b49b 873e 3711 ff3d
00000390: 0013 44bd 8981 98be 1fef 0bbd 192f 20bd
000003a0: 76af 933d 3536 f0bc 43ae 9bbe 2190 d93d
000003b0: 8e84 03be 50c4 93be 4d69 973d 7e0a 153d
000003c0: 2e59 043e 5c67 2b3e 7102 51be c627 b3bd
000003d0: f978 363e ed3f d93d b7a9 97be 63da 163e
000003e0: 4ea5 3cbc 30ca 92bc 40fd bbbd 311f 83bd
000003f0: a12a 883d 9e83 44be 4601 66bd 9f5c e0bd
-0.17369823 0.1606033 -0.07261758 -0.24562353 -0.016206725 -0.23204602 0.18690439 -0.060139295
-0.2727439 0.047395546 0.08222515 0.09511343 -0.18378706 0.18204834 -0.21114498 0.039016545
0.12879619 -0.008099725 -0.15647984 -0.19283979 0.1609369 0.1924109 -0.105446555 0.09110015
0.08359868 -0.17559402 0.03779701 -0.2204709 -0.16528015 0.12510656 0.1917211 0.1601455
-0.07166866 0.18294117 -0.07241017 0.14109674 0.004890387 -0.16432314 -0.19155999 0.23122166
-0.12879723 -0.1572938 -0.03100809 -0.048735414 -0.023975046 0.05588899 0.13837045 -0.26926336
0.106773704 -0.18192878 -0.02797566 0.04401098 -0.13255292 -0.1878434 -0.12231677 0.057688177
-0.2854916 -0.04092323 -0.09453158 -0.05609087 0.14284414 0.21122402 -0.16417867 -0.13329656
0.16103163 0.061557554 -0.29752308 -0.06663168 -0.25850514 0.12154214 0.06381378 0.12859939
-0.09136683 0.0089940075 -0.14526998 -0.25540736 0.22730616 0.10314022 -0.18213086 -0.027957404
-0.050242044 -0.054207955 -0.09798792 -0.04499392 -0.16295686 -0.18751167 -0.27109918 0.17899887
-0.09953847 0.16277876 0.016331552 0.098874986 0.23385237 0.032954082 -0.15426518 0.11084353
-0.24103847 -0.18747051 -0.097066976 -0.15955399 -0.104497686 0.025583478 0.017266924 0.10346808
-0.24059013 0.070356324 -0.21465181 0.009675712 0.12873964 0.12945333 0.120184675 0.13706733
0.11095692 -0.012214902 -0.19074601 0.0031416486 -0.20957911 0.13302436 -0.09002906 -0.20261319
-0.041614942 -0.19896969 0.17641278 -0.14521794 -0.08185166 0.0024256788 -0.028251449 0.06889718
0.06844901 0.10697839 -0.03860939 -0.25125813 -0.16393971 -0.21418858 0.18922353 -0.08889225
-0.0023896862 -0.17835383 -0.10836867 0.13429554 -0.04071256 0.089091055 0.18503958 0.034472093
-0.07967137 0.1720537 0.041975822 0.23328908 -0.10595077 -0.124867275 0.07406675 -0.17718093
0.07325537 -0.119794585 -0.12002462 -0.037180137 -0.036220837 0.25223362 -0.20720467 0.11918157
-0.06299207 0.07967873 -0.029099735 0.21406011 -0.19372737 -0.10255719 0.13785134 0.17512938
-0.22250633 0.015810926 0.10375033 -0.0699228 -0.029079592 0.1483291 0.00948054 -0.071845196
0.03835663 -0.23700507 0.17666408 -0.21213591 0.13172665 -0.057346016 -0.18578072 0.13239405
0.022515256 0.0052759587 -0.033949204 -0.21692726 0.11510168 -0.13566466 -0.13396809 0.07555947
0.030991005 -0.17209764 -0.15287037 0.08862885 -0.11192458 -0.23905589 0.011351138 -0.0094581405
-0.17636266 -0.22368282 -0.09429974 -0.0053982157 0.116787486 -0.11350191 -0.15828077 -0.1965237
0.13018383 -0.13762605 0.26560587 0.041315816 -0.16230243 -0.28123644 -0.19399698 -0.19803028
-0.23874383 -0.13845626 -0.01102798 -0.050082117 -0.031178316 0.048735548 0.07244 0.112208605
0.1806791 -0.13221799 0.2648598 0.12454455 -0.047869682 -0.29786327 -0.03416359 -0.039107416
0.07211201 -0.029322723 -0.3040639 0.106231935 -0.12843534 -0.28860712 0.073931314 0.03638696
0.12924644 0.16738647 -0.20411088 -0.087478206 0.17819585 0.10607896 -0.2962167 0.14731745
-0.011514021 -0.017918676 -0.09179163 -0.06402434 0.06648756 -0.19190833 -0.05615356 -0.10955166

lstm.weight_hh_l0 f4 [64, 16]
00000000: ff55 1dbe bd53 943e c2d5 3f3e 848f 87bd
00000010: 4810 86be b546 b93c ec99 48bc c97a 97bd
00000020: 1d93 d2bd b061 eb3c 9577 9d3b c67e 8b3d
00000030: 55af 5abe f643 22be 06c2 64bb 03e6 223e
00000040: c3dd 36be dec5 78bc 5704 573e 3d6f c4bd
00000050: 48a6 81be 4574 d0bc ee7b ffbd eec9 843d
00000060: 4acf f93d f4c5 a0bc f6e4 71be e98d 643e
00000070: 42fd ba3d ce19 fc3d a0d3 14be 3ac6 95bd
00000080: f11c ef3c 345c 4cbe 9527 65be d3b4 6a3e
00000090: 7441 373e 7b85 653e 03cc 093b 2255 503e
000000a0: 1756 163e 4b72 363e 0a9b c3bd ab14 813e
000000b0: 978a 713e 1883 733e c752 283e 25a8 ca3c
000000c0: a5eb c13d 849f 6e3d 88fe 1abe fff3 d0bc
000000d0: af2b 1e3e 5884 48be bdeb 24be 5eff b93b
000000e0: 3c5d 34be 9531 8fbe f342 bcbd 0b50 153e
000000f0: cbf5 47be 146e e83d a7b7 24be 7e16 52bd
00000100: 152e 04be 90ec 4d3e 6758 1cbd 5be9 56be
00000110: 2e4c c5bb d9f0 9dbd c509 6abc d1aa 90be
00000120: 5ede 39be cf06 81be 65e4 0a3e a3a3 e13c
00000130: f7a2 343b aa1d cbbd 821b 863d 53a6 4c3e
00000140: 38e2 bcbc 7d21 da3d 1cf6 31bd 1001 6a3d
00000150: 6e9a 0b3c a103 1d3e e6f3 38be 83e6 05be
00000160: bfc6 44be 60bd 06bd a3b5 713e 8bbd 2ebe
00000170: 9a54 093d eaee 55bd 9c61 a63c d51c dbbd
00000180: e38e 00be 587c 91bd a0b1 39be fac2 f93c
00000190: 2136 4ebe 509d 3b3e cd35 aa3d 753d fc3d
000001a0: 457f cc3d d07d e3bd 379d 7bbd da69 4bbe
000001b0: e7bc 15bd c858 4c3e 0f7b 8dbe 0edd 23be
000001c0: 90a9 933e f8f6 42be 5ffb deba dcc1 58bd
000001d0: 70f9 38be 0430 df3b 0750 6cbe fc79 b83c
000001e0: b064 11be c298 7bbe eee1 a8bd 1663 803e
000001f0: 45c7 89bc 4403 403e 1957 ff3c 81d4 ea3d
00000200: 9f6f 5dbb 3a14 303e ebfb e13d f138 923c
00000210: f9e5 953d 8623 c63d ad76 25be 831e 50be
00000220: d5d9 5f3c 882c 973c a5a9 603e 93aa 9ebd
00000230: 8848 193e 5111 24be 1b30 903e 2807 40bd
00000240: 97ae 7f3e c23b cd3d 260e 103c 604f 47bd
00000250: 4c48 d6bc ae27 943d a24c 09bd 913a 28be
00000260: c7f9 15be 7e1a 64be bbb1 86bc 05f5 25bd
00000270: 9ab1 833e b591 56be 72c3 80bd 94c7 443e
00000280: 0ef1 003e d35b 193c bb31 82b9 b5dd 36be
00000290: 1596 163e d88f 4c3e b3c0 383d 9598 313d
000002a0: 5996 483c d192 85be 5e95 7b3d 6af4 073e
000002b0: a5fb b83d 4674 c8bd cc5d 623e f360 53be
000002c0: fbc1 1d3e 2211 153e 223c 52bd 53e4 1a3e
000002d0: 2af9 87be 54f8 05be 850f a33d 4dd0 f5bd
000002e0: 1353 a03d 53bc cd3b 2f1e 07be 5854 f2bd
000002f0: 274b 3b3e 22ef 91bd 20a6 c4bd f7a8 9abd
00000300: 2dfc 51be 958e 79be ddd5 0e3d c9b5 19be
00000310: 41aa 6d3e 1616 473e 5084 533e 2a6e 6f3d
00000320: 397b 11be 4c50 c53c 1d0d 60be dc10 c3bd
00000330: 915c 223e ef89 5a3d 5248 163d 743f 883c
00000340: 61da 50bd 0896 103e 5dc7 80be 5192 313e
00000350: c79e 80bd 0941 fa3d c312 7cbd 89de 953d
00000360: a97b 2fbe 36ab e33d 8a42 4bbe 13cd eebd
00000370: e861 d83d 9fd5 1e3e 5da8 2abe e6a6 073e
00000380: 8dbf 523d 7d49 7e3e b8bd 8d3d ac70 9dbb
00000390: 0deb 473e ad23 8dbe 0e2e 1e3e 64bb 5bbe
000003a0: 5afc febd 5a09 653d 8955 26be 2b52 0d3e
000003b0: 0fdc 43be bba6 f3bd c073 8c3d 1f40 0bbe
000003c0: a01f babc 7b7b e4bd 9c33 ba3c 562a a1bd
000003d0: 5cab ed3d 3ff4 a6bd 9351 f63c 10c4 6dbd
000003e0: 0278 10be fe96 71be 5a34 7c3d 7dba a8bc
000003f0: cff8 863d e483 c2bd e44c 413e 0a30 eabd
-0.15364836 0.28970137 0.18733886 -0.0661917 -0.26184297 0.022616724 -0.012243729 -0.07396466
-0.10281966 0.028733104 0.004805515 0.068112895 -0.21355946 -0.15846238 -0.0034905686 0.15908055
-0.17858033 -0.015183894 0.2099775 -0.095915295 -0.25322175 -0.025446067 -0.124748096 0.064838275
0.121977404 -0.019625641 -0.23622498 0.2231976 0.09130336 0.12309609 -0.14533854 -0.07313199
0.029188605 -0.19957048 -0.2237838 0.22920541 0.17896062 0.224142 0.0021026141 0.20344976
0.14681278 0.17817037 -0.09551056 0.2521108 0.23588024 0.23780477 0.16437827 0.02473838
0.09468774 0.058257595 -0.15136158 -0.025506971 0.15446351 -0.19581735 -0.16105552 0.005676194
-0.17613691 -0.27967516 -0.09192457 0.14581315 -0.19527356 0.11349121 -0.16085683 -0.05129098
-0.12908204 0.20109773 -0.038170245 -0.20987456 -0.006021044 -0.07711954 -0.014284556 -0.28255323
-0.18151233 -0.25200507 0.13563688 0.027543848 0.0027562955 -0.09917767 0.065482154 0.19985323
-0.023057088 0.10650919 -0.0434476 0.05712992 0.008520706 0.15333416 -0.1806179 -0.13076214
-0.1921644 -0.032895446 0.23604445 -0.17064492 0.033527948 -0.0522298 0.020310216 -0.10698859
-0.12554507 -0.07103795 -0.18134165 0.03048848 -0.20137836 0.18321729 0.08311043 0.123164095
0.09985212 -0.11107981 -0.06142923 -0.19864598 -0.036557104 0.19955742 -0.2763295 -0.16002294
0.28840303 -0.19039524 -0.001701217 -0.052919254 -0.18063903 0.006811144 -0.23077403 0.022519104
-0.14198565 -0.24569991 -0.08246218 0.25075597 -0.016818652 0.18751246 0.031169461 0.11466313
-0.0033788455 0.17195216 0.11034378 0.017849417 0.073192544 0.09674744 -0.16158552 -0.2032414
0.013662775 0.018453851 0.21939714 -0.07747378 0.14969075 -0.1602223 0.28161702 -0.046881825
0.24968944 0.100211635 0.008792436 -0.048659682 -0.02615752 0.07234131 -0.03352035 -0.16428591
-0.14646064 -0.22275731 -0.01644217 -0.040516872 0.25721437 -0.2095402 -0.06287278 0.19216758
0.12591955 0.0093602715 -0.00024832584 -0.17858012 0.14705689 0.19976747 0.045105647 0.043358404
0.012242877 -0.26088575 0.061421745 0.1327683 0.090323724 -0.097878024 0.22106093 -0.20642452
0.15406029 0.14557317 -0.05132688 0.15126161 -0.26557285 -0.13083011 0.079619445 -0.12002621
0.07828345 0.0062785535 -0.13195108 -0.118324935 0.18290387 -0.07125689 -0.09601998 -0.07551759
-0.20506354 -0.24370797 0.034871925 -0.15010752 0.23209478 0.19442019 0.20655942 0.05845467
-0.14207162 0.02408614 -0.21880002 -0.095247 0.15855624 0.0533542 0.036690064 0.01663182
-0.050989512 0.14119732 -0.25152102 0.17340972 -0.062802844 0.12219436 -0.06154133 0.07317836
-0.17137016 0.1111664 -0.19849601 -0.116602086 0.10565549 0.15511177 -0.16665788 0.1324726
0.05145221 0.24832721 0.069209516 -0.0048046913 0.19523259 -0.2756628 0.15447256 -0.21458203
-0.12450476 0.05591712 -0.16243567 0.13800876 -0.19126914 -0.11897036 0.06858015 -0.13598679
-0.022720158 -0.111563645 0.022729687 -0.07869403 0.1160495 -0.08152055 0.030068194 -0.058048308
-0.1410828 -0.23592755 0.061573364 -0.020596737 0.06590425 -0.094978124 0.18876988 -0.11434944

lstm.bias_ih_l0 f4 [64]
00000000: 93e4 0f3d 6c1c e9bd c845 403d 31a8 20bd
00000010: 7479 7a3e c32e 943d 7322 193d 5035 183e
00000020: bdbb d8bb 9799 3fbe 1604 863e 1bdf 563c
00000030: 8c7e 19bb 3348 55bd 5feb 6a3e fca8 683b
00000040: 5397 8cbc 64c1 cf3d 5856 8ebc b256 11bd
00000050: b04d b53d 189d 133e fad7 07be 50ef 833e
00000060: bf56 2d3e 96d2 5d3e dece 1e3d d1a7 fb3c
00000070: 52f9 27bc 6f3d 8e3c 2c20 11be 61b4 03bc
00000080: 0462 e23d 6841 b8bd 3ed3 133e 1cf9 193e
00000090: 0017 fcbd 81ac b0bd 7a72 a4bd 4584 9ebc
000000a0: 7cbe 893e 19d7 523d 3c9c 103e 963d 9d39
000000b0: 7f40 15bc d963 4bbe d62f 89bc e61b 213e
000000c0: b21a e7bd bbe8 f43d 0a27 423e baac 733d
000000d0: 5f49 9abd 640a 4f3e fb47 4b3e 2946 3cbe
000000e0: 8ae8 16be 99ee 553e 0555 31be 7ce5 d83c
000000f0: 8097 943e aad3 adbd 8c3e 393e 1d7b 503e
0.035130095 -0.11382374 0.04694155 -0.0392229 0.24460393 0.072354816 0.03738637 0.14864087
-0.006614177 -0.18710934 0.26174992 0.013114716 -0.0023421375 -0.052070808 0.2294135 0.0035501113
-0.017162 0.10144308 -0.017375156 -0.03548307 0.08852708 0.14415395 -0.13265982 0.25768518
0.16927622 0.21662363 0.038771503 0.03071967 -0.010252314 0.017363278 -0.14172429 -0.008038611
0.11053851 -0.0899685 0.14436051 0.15036434 -0.123090744 -0.086266525 -0.08029647 -0.01935018
0.2690314 0.051474664 0.14122099 0.0002999126 -0.009109615 -0.19862308 -0.016746443 0.15733299
-0.112843886 0.11958452 0.18960205 0.059490897 -0.07533526 0.20218807 0.19851677 -0.18386139
-0.14737144 0.20891799 -0.17317589 0.026476614 0.29021835 -0.08487637 0.18090266 0.20359464

lstm.bias_hh_l0 f4 [64]
00000000: 5115 553e c2bd cfbd 83c1 a7bc 2a2f 513e
00000010: 4690 09bd 3ad3 6f3e 1717 04be 0015 0bbd
00000020: 626a 8d3d 28dd b8bd 1b4c 1cbd d39c 1d3e
00000030: 3645 dabd eff6 3ebe 498a 063b 09f4 02be
00000040: 38e5 5a3e 7a88 92bd 5612 5b3e 806a 343e
00000050: 20c8 893d 43dd fb3c 25df bebd 0ca6 353e
00000060: 8fd6 703e d259 c8bd 3012 91bd 8481 413d
00000070: 945f 1c3e 32d6 7d3e 0958 023e 1426 643d
00000080: 6152 783d 307b 693e 7047 183e 7c2a 66be
00000090: 9960 09be 45f7 43be fff7 77be 6a69 8cbd
000000a0: d4ea 753e a6e5 6ebe 52ca 89be d600 c73d
000000b0: b61d 67bd b512 733d a4d9 22bd 4329 0f3e
000000c0: 51bb 33be e5e5 3abe be9a 9abd 527b 9f3d
000000d0: ada7 c23d b0f9 32bc 0b5c bd3d 35d2 163e
000000e0: fa54 4a3e e3fa 553e b426 153e a1c3 16bd
000000f0: b86e 073e 2fb3 80bc 8134 f5bd 4370 76bc
0.20808913 -0.10143615 -0.020478016 0.20428148 -0.033584855 0.2342042 -0.12899433 -0.033955574
0.069050565 -0.09026557 -0.038158517 0.15391855 -0.10657732 -0.18648885 0.0020529202 -0.12788405
0.21376503 -0.07154937 0.21393713 0.17618752 0.06727624 0.030745154 -0.09319905 0.17739123
0.23519348 -0.09782757 -0.07083547 0.047242656 0.15270835 0.2478874 0.12728895 0.055700377
0.060625438 0.22800899 0.14871001 -0.22477144 -0.13415755 -0.19137295 -0.24215697 -0.06856044
0.24015361 -0.23329791 -0.2691217 0.09716956 -0.05642482 0.059344012 -0.03975834 0.13980584
-0.17551924 -0.1825176 -0.07549046 0.07787193 0.09504638 -0.010923788 0.092460714 0.14728625
0.19758978 0.20896487 0.14565545 -0.03680766 0.1322583 -0.015710441 -0.11972905 -0.015041414

ln.weight f4 [64]
00000000: 47ca 793f aba0 783f 816d 873f f443 813f
00000010: 00d1 823f 9129 833f 42c2 7e3f 8489 843f
00000020: 3a70 853f f730 883f 0f9a 7d3f fe7e 843f
00000030: 4645 7f3f f9b0 7a3f 1b3f 873f d4af 793f
00000040: 3f41 7e3f 5f7f 853f 8bfd 793f e904 773f
00000050: ccc9 823f 4464 833f 8751 863f bf44 7b3f
00000060: 62c2 873f 3bed 763f 61fb 853f 4387 7b3f
00000070: f7b1 873f e790 873f 703a 843f 9d45 853f
00000080: 376c 7c3f da29 843f 6ff1 863f a5f8 7c3f
00000090: a217 793f b5ee 853f 5241 883f c1ab 763f
000000a0: 41fa 803f 04a9 763f 2c38 873f b46e 873f
000000b0: 5764 873f ebf0 873f 193d 823f 4860 853f
000000c0: be9b 743f 9814 873f a8fe 743f be16 853f
000000d0: fe94 783f d7f6 863f 0d3e 863f 90ad 853f
000000e0: 3649 793f f3d8 853f 8524 763f 7008 793f
000000f0: 009a 783f 443f 7a3f 5183 823f e3ae 813f
0.97574276 0.9712016 1.0580293 1.0098863 1.0220032 1.024706 0.99515164 1.0354466
1.0424874 1.0639943 0.990632 1.0351255 0.9971508 0.9792629 1.0566133 0.9753392
0.9931831 1.0429496 0.976525 0.9649187 1.0217834 1.0264974 1.049363 0.98151773
1.0606196 0.96455735 1.046734 0.9825327 1.0601186 1.0591096 1.0330334 1.0411869
0.9860262 1.0325272 1.054243 0.988169 0.97301686 1.0463473 1.0644934 0.96355826
1.0076371 0.9635165 1.0564017 1.0580659 1.0577496 1.0620397 1.0174896 1.0420008
0.95550144 1.055316 0.95701075 1.0397565 0.97102344 1.054408 1.0487686 1.0443592
0.97377336 1.0456833 0.96149474 0.972785 0.97109985 0.97752786 1.0196325 1.0131496

ln.bias f4 [64]
00000000: fc67 0e3d fc39 28bd c91d 6cbd 6ae7 1ebd
00000010: 4f7c 893c 1eb5 e3bc cffc 25bc 18f1 0fbd
00000020: 40d3 2ebd 9e69 82bd 0110 b33c 968f 06bd
00000030: 331c bb3c 253f ff3c acbc 56bd 0712 7ebc
00000040: dc30 ea3b a564 34bd ddf4 143d 50e2 453c
00000050: ddfd d9bc 877a 0fbd 3443 6bbd 851a 093d
00000060: 39e7 80bd ba49 cdbb a97f 0bbd a730 583c
00000070: dee2 17bd 9f7c 293d 5f9c 0abd 1672 b4ba
00000080: a8bf d8bc 04d6 c6bc 31de 1a3c be7d 373d
00000090: 23e7 bd3c 0d8c 57bd d2c5 213d c6d3 353d
000000a0: 8d52 13bb 8c74 9eb9 5ede 6cbd 3597 c73b
000000b0: ccfc 0e3d 83bc 7bbd fc08 afbc 1924 3ebd
000000c0: fd09 debb 57a7 51bd d9e1 3cbd d524 6dbc
000000d0: 4405 273c e046 6a3d 2df9 2fbd 62f0 2fbd
000000e0: 4e65 cc3c 01d3 4bbd c2ef 433c 33aa 183d
000000f0: e26b ec3c 57fa 30bd f5cc b63b f7b1 83bc
0.034767136 -0.041070923 -0.057645593 -0.038794912 0.016782908 -0.027796324 -0.010131075 -0.035142034
-0.042681932 -0.06367801 0.021858217 -0.032851778 0.022840595 0.03115804 -0.052426025 -0.015507228
0.007146938 -0.044041295 0.036366332 0.012077883 -0.02661031 -0.03502896 -0.057437137 0.033472557
-0.06294102 -0.0062648924 -0.034057293 0.013195193 -0.03708159 0.041378614 -0.033840533 -0.001376691
-0.026458576 -0.024271972 0.009452389 0.04479765 0.023181504 -0.052623797 0.039495297 0.044391416
-0.0022479624 -0.00030222943 -0.057829253 0.0060910233 0.034909055 -0.061459076 -0.021366589 -0.046421144
-0.006776093 -0.05118498 -0.046113823 -0.0144741135 0.0101941265 0.057196498 -0.042962242 -0.042953856
0.02495065 -0.049761776 0.011959018 0.03727169 0.028860036 -0.043207493 0.005578632 -0.016076071

mlp.0.weight f4 [8, 32]
00000000: 2bac 0e3e 8c1b a43d 67af 3dbe 5030 2abd
00000010: f2ce d8bd 7ed9 2fbe a0b8 95bd bf65 5abd
00000020: ca2b 3a3e befc 5cbe 79a3 c1bc 4c22 5b3e
00000030: cc79 4bbc 469d c23b 5a08 c33d c20d 153e
00000040: 0fbd b0bd 08f6 e4bd 4743 8abd 7d58 3dbe
00000050: 1e93 87bc 67bd 703c d23c 4cbd 313d db3c
00000060: dd78 123e db76 02be 5271 163e 9f0c 85bd
00000070: 02c0 1bbd 2c7a babd a59e 703e 3813 3ebe
00000080: e1d5 763d aef0 2d3e de08 29be a376 9d3d
00000090: c05a a73d 0e66 4a3d 6767 93bc 6063 e3bd
000000a0: 78a8 423e bb45 62be 4e18 2dbd 5521 95bd
000000b0: 9158 fe3d 22f2 e83d 4d4f 033d 9d94 a33d
000000c0: 4302 7a3d eb39 0fbc 1820 0cbe 3451 06be
000000d0: 8e1d 6d3e becc 243d de09 0f3e a0b0 fb3d
000000e0: 762a 223e 535c debd 135e 4a3c 3a38 36be
000000f0: 66a1 523e 9699 16be 5e22 783a ff27 32be
00000100: 4d72 5d3e 264e 053e efa3 403d 25f6 98bd
00000110: ff08 d4bd 11e3 0d3e 3bb2 3ebd 8be9 47be
00000120: 1ec3 87bd 2521 11be 8be5 45bd d4a9 0abd
00000130: 53fa a33c 3fd3 e73d 8970 593d 2919 9d3c
00000140: 4d27 233e fd96 053e fa45 32be 4b2b d93d
00000150: ff4d 40be 6911 c0bd 19b8 89bd 870a 813d
00000160: c34c 16be 6766 5c3d 24b9 3a3d 1806 fb3d
00000170: 7c3b a13d 9dc7 433e 9328 cdbd e8bc 733d
00000180: 9179 383e 3000 6b3d cc0a 46be e725 8dbd
00000190: d3cc e73c eb95 843c 010e 9b3d 1e0f 803d
000001a0: f53e 623e d239 ce3d 4aeb 2e3e fb24 d0bd
000001b0: afb8 173e 2012 cbbd e64c ed3c 9fbe 0a3d
000001c0: e6a9 ac3d a414 443c 81de 15bd ca81 bebd
000001d0: 5399 603b 480f 8e3d d230 d5bd a97c 01be
000001e0: fd4d 3bbd 86a9 f5bd f22d eebd ec0e 973d
000001f0: 70fb 183d 1a6d b0bd 4eb1 633e b67c e3bd
00000200: e892 113e 3572 e9bd 2e01 683d 136f ce3d
00000210: 0bd2 8c3d ebf0 143c 95b3 7e3c e649 8a3d
00000220: d521 ab3d 0c78 50be bdd2 acbd f344 22bd
00000230: c1a0 0ebd b4d2 a5bc 60b3 17be 24e7 bf3c
00000240: 0d66 a23d 9022 2f3c 66b9 adbd 694e 6dbd
00000250: 1ce8 113d ac38 bb3a 9e3e 67bd 07a7 abbd
00000260: 5350 1fbe 9987 3dbe 8df2 b7bd cfcc 303e
00000270: 2bd9 1d3b f825 043e fb81 23be 9ca8 43bd
00000280: 4b8a c93d 4ccb 9e3d b9cb d73c d63e 03be
00000290: 973a 093e 27f1 06bd bdbf 10bc c8ee debc
000002a0: b061 48be b01a 0ebd 8d26 92bd d9e3 abbd
000002b0: cde9 ff3b af7f 1fbd ca1c 213e 0594 cdbd
000002c0: 3b45 e9bd 1a8a c83b 8f27 14be 30f1 1e3e
000002d0: 82f2 493d 49a6 75bd 4848 853d 8578 9b3d
000002e0: bcea c23d b8b1 14bd 7aee d73d 0fa8 e83d
000002f0: d896 0d3e c4a0 de3d 22b9 073e 9104 a9bd
00000300: ef14 bdbd 5836 2b3e 6fff fbbc 24a7 343e
00000310: 87ca 9dbc 2785 06bd 988f 02bd 9953 91bd
00000320: d925 003e f9b7 6fbd 2a95 b03d f72e 3b3e
00000330: ff7a 313e b0d7 97bd 9fcf 90bd 1c24 273d
00000340: 15d9 013e a4b6 ec3d f6b3 07be 49ea 5a3e
00000350: 2a86 1f3d 2d47 0d3d 5280 b8bd 5cd9 4cbe
00000360: 360c cebd 711e dcbd f5d9 43be 8330 6a3e
00000370: 51fe f6bd e795 2f3d 713d 62be f636 173e
00000380: 7015 0e3e 4b10 463e 565e 40be 3a8a 95bc
00000390: 1a98 143d cc89 81bd 27e2 26be 23c8 3fbe
000003a0: 51ea 853d a7a3 fe3c b797 4e3d 260d 3a3d
000003b0: cef2 9abd 4e02 1abe e0f7 2dbe 8ce2 203e
000003c0: 7aa4 dc3b c9d8 1f3e e1fb 1dbd c448 7e3e
000003d0: 9e7e 31be f9ba 103d a821 8fbd 0a2a 2cbe
000003e0: 8a9a 91bb 31e5 51be 52a4 78bc da31 713e
000003f0: 3e41 bf3d 0176 273e 12e9 52be e702 863b
0.13932864 0.08013067 -0.18523942 -0.04154998 -0.10586347 -0.1717281 -0.07310605 -0.05331969
0.18180767 -0.21580788 -0.02363752 0.21399802 -0.012419175 0.0059391586 0.09523077 0.1455603
-0.0862981 -0.11179739 -0.067511134 -0.18490787 -0.016549643 0.014693595 -0.04986269 0.026762577
0.14303918 -0.12740652 0.14691666 -0.06496548 -0.03802491 -0.09105334 0.23498018 -0.18562019
0.060262565 0.16986343 -0.16507289 0.07688644 0.08171606 0.049413733 -0.017993642 -0.11102939
0.19009578 -0.22096913 -0.042259507 -0.07281748 0.124192365 0.11374308 0.03205805 0.0798733
0.061037313 -0.008741836 -0.13684118 -0.13116914 0.23155805 0.04023432 0.13968608 0.12289548
0.1583651 -0.10857453 0.012351531 -0.17794886 0.20569381 -0.14707026 0.00094655703 -0.1739807
0.21625634 0.13018093 0.04703134 -0.07468823 -0.10353278 0.1385615 -0.046556693 -0.19522683
-0.066290125 -0.141728 -0.048314612 -0.033853367 0.020016825 0.11319589 0.053085838 0.019177036
0.15932961 0.13045879 -0.17409506 0.106039606 -0.18779753 -0.09378321 -0.06724567 0.06300836
-0.1467772 0.053808596 0.04558672 0.12257022 0.07872674 0.19119115 -0.100175045 0.059506327
0.18015124 0.057373226 -0.19340056 -0.06891995 0.02829591 0.016184768 0.075710304 0.062528834
0.22094329 0.10069622 0.17081943 -0.101633035 0.14816545 -0.099155664 0.028967332 0.033873197
0.08430843 0.011967812 -0.03658915 -0.09302099 0.0034271076 0.069365084 -0.10409702 -0.1264521
-0.045728672 -0.11995225 -0.11629857 0.07375893 0.037349164 -0.086145595 0.22235605 -0.11107771
0.14216197 -0.113987364 0.05664175 0.100797795 0.06876 0.009090642 0.015545745 0.06752376
0.08356062 -0.20358294 -0.08438633 -0.039616536 -0.034821276 -0.020242073 -0.1481452 0.023425646
0.07929621 0.010689393 -0.084826276 -0.057936106 0.035621747 0.0014283857 -0.0564562 -0.08381467
-0.15557985 -0.18508758 -0.0898181 0.17265628 0.002408574 0.12905109 -0.15967552 -0.04776822
0.098408304 0.077536196 0.02634226 -0.12816939 0.13401257 -0.032944825 -0.0088347765 -0.02721347
-0.19568515 -0.03469342 -0.07136259 -0.08393068 0.0078098536 -0.038940128 0.15733638 -0.10037998
-0.11390158 0.0061199786 -0.14468215 0.15521693 0.04930354 -0.059973035 0.06507927 0.07591347
0.09517428 -0.0363023 0.10543533 0.1136018 0.13827074 0.10870507 0.13254216 -0.08252824
-0.092325084 0.16719949 -0.030761449 0.17641884 -0.019261612 -0.032841828 -0.031875223 -0.07096023
0.12514438 -0.05852506 0.08622201 0.18279634 0.17332076 -0.07414186 -0.070708506 0.04080592
0.12680466 0.115582734 -0.13252243 0.21378435 0.03894631 0.034491707 -0.0900885 -0.20004791
-0.10060923 -0.10747994 -0.19126113 0.22870068 -0.12060226 0.042867567 -0.2209375 0.1476706
0.13875365 0.19342153 -0.18785986 -0.018254388 0.036277868 -0.06325111 -0.16297208 -0.1872869
0.06538833 0.031083895 0.050437655 0.045422696 -0.075658426 -0.15039942 -0.16989088 0.15711421
0.0067334743 0.1561004 -0.03857029 0.24832445 -0.17333457 0.03533456 -0.06988841 -0.16812912
-0.0044434713 -0.20497586 -0.015175896 0.23554173 0.09338616 0.16353609 -0.20596722 0.0040897015

mlp.0.bias f4 [8]
00000000: 68d6 a93d 92da 313e 48df 833c 29d1 d8bd
00000010: 043d 803d baf9 0cbe 71f3 c83d da40 0bbe
0.08292848 0.17368534 0.01609768 -0.10586769 0.06261638 -0.13767138 0.09812058 -0.13598958

mlp.2.weight f4 [2, 8]
00000000: 1348 cebd 84a9 86be dac3 efbd 5803 aabe
00000010: e7de 903e 336c 8bbc e3f7 c23e c061 543e
00000020: fe56 153e f6e5 a93e b27d b0be 59fe 46be
00000030: fc9b 4abc 3f4e 98be 758a 92bb df6f 0fbe
-0.10072341 -0.26301205 -0.117072776 -0.33205676 0.2829506 -0.017019367 0.38079748 0.20740414
0.14583966 0.3318326 -0.34470898 -0.19432963 -0.012366291 -0.29747197 -0.004472072 -0.14007519

mlp.2.bias f4 [2]
00000000: fd48 c83c 9442 453e
0.024448866 0.19263679
