DyGCN/savedmodel/model.pt (torch, 46084 bytes, 14 tensors)

gc1.weight f4 [77, 32]
0	0x3d510077	0.051025834
1	0xbc3a1255	-0.01135691
2	0x3d469012	0.04847724
3	0xbc8f1eb3	-0.017470693
4	0x3dd7d753	0.10539117
5	0x3daa31b0	0.083102584
6	0xbd1e1191	-0.03859097
7	0xbe0f8867	-0.14016877
8	0x3ce01bdf	0.02735704
9	0xbe22b318	-0.15888631
10	0x3c21d288	0.009876855
11	0x3c366d15	0.011134406
12	0xbd292716	-0.04129704
13	0x3e2ce4c8	0.16884148
14	0xb93a2cfc	-0.000177551
15	0x3d243bb8	0.040096015
16	0x3d21c9bf	0.03949904
17	0xbdd593fb	-0.10428616
18	0xbdae0830	-0.084976554
19	0x3e3272d0	0.1742661
20	0xbe37f5db	-0.1796488
21	0xbc819326	-0.015817236
22	0xbc86dedc	-0.01646369
23	0x3dfd7d22	0.12377383
24	0xbc89ace6	-0.016806077
25	0x3c47a335	0.012184908
26	0x3d094115	0.033509333
27	0xbd755c03	-0.059902202
28	0xbdeecbb5	-0.11659948
29	0xbdffba1f	-0.12486672
30	0xbe3376b0	-0.17525744
31	0xbdce8c71	-0.10085381
32	0x3c2d5ba5	0.010580932
33	0x3e1d20be	0.15344521
34	0x3c0eadc7	0.008708424
35	0xbdaaef59	-0.08346433
36	0x3e020961	0.1269889
37	0xbc8c69fc	-0.017140381
38	0xbd9c57c2	-0.07633926
39	0xbdc1d290	-0.0946399
40	0xbd8f5377	-0.069983415
41	0xbe2992f7	-0.16559969
42	0x3dd311e8	0.1030615
43	0x3d7f295e	0.06229531
44	0x3d072502	0.032994278
45	0x3dc8bd99	0.09801788
46	0x3d84dac7	0.06487041
47	0xbcb9afd9	-0.022666859
48	0xbcc05573	-0.023478245
49	0x3c5d2a64	0.013498876
50	0x3d740892	0.059578486
51	0x3dd4c905	0.10389904
52	0x3df96476	0.121773645
53	0x3e02cb85	0.12772949
54	0xbc8b7429	-0.017023163
55	0xbcbc4086	-0.022979986
56	0xbd132613	-0.035924982
57	0x3df5bde1	0.11999107
58	0x3d9aa742	0.07551433
59	0x3e5e0c29	0.21684326
60	0x3d91a823	0.07112148
61	0xbe48b7d8	-0.19601381
62	0x3c00427d	0.007828352
63	0x3dfa1838	0.122116506
64	0x3e28db19	0.16489829
65	0x3b3b027f	0.0028535423
66	0x3d703727	0.058646347
67	0xbe2bca62	-0.16776422
68	0xbd5008e7	-0.05078974
69	0x3de4e11f	0.11175751
70	0xbe2a292f	-0.16617273
71	0x3e1e745b	0.15474074
72	0xbdfc9a83	-0.12334158
73	0x3d60d1cb	0.054887574
74	0xbba3f1fc	-0.005003212
75	0x3cf74742	0.030185346
76	0x3c8b24c8	0.016985312
77	0xbe287873	-0.16452198
78	0xbd30b3d9	-0.043140266
79	0xbdebf631	-0.11521567
80	0x3e107635	0.14107592
81	0xbcb1c2a7	-0.021699263
82	0xbe3859c6	-0.18002996
83	0x3d2ba137	0.041901793
84	0x3d9d08af	0.07667672
85	0xbd9bf8b9	-0.076157995
86	0xbc87a4b3	-0.016558027
87	0x3d9df90e	0.07713519
88	0xbde1434c	-0.10999164
89	0xbdc02405	-0.0938187
90	0x3c70b80d	0.014692319
91	0xbdeb5b0c	-0.11491975
92	0x3dd7f0a8	0.105439484
93	0xbc5ec444	-0.013596598
94	0x3dcef99e	0.101062045
95	0x3dbca762	0.09211613
96	0xbe0668ac	-0.13125867
97	0xbdd26b20	-0.10274339
98	0xbdf7a0c3	-0.1209121
99	0xbd70888b	-0.058723968
100	0xbd7000ea	-0.05859462
101	0x3b86233b	0.0040935553
102	0xbe345a1c	-0.17612499
103	0x3d9a6364	0.075384885
104	0x3dc03177	0.09384435
105	0x3d620025	0.05517592
106	0x3deb4808	0.11488348
107	0x3e075a41	0.13218023
108	0xbe32eb23	-0.1747251
109	0x3ce41734	0.027843095
110	0x3e22bd44	0.15892512
111	0xbe073b6d	-0.13206263
112	0xbdb4318f	-0.08798515
113	0xbc188659	-0.009309375
114	0xbde97825	-0.11399869
115	0xbd0a4030	-0.03375262
116	0xbcd687c4	-0.026187785
117	0x3e24882a	0.16067567
118	0xbc3831ee	-0.011242373
119	0x3dc5951b	0.0964758
120	0x3e048e57	0.12944923
121	0x3da0cebc	0.078519315
122	0xbdf41d86	-0.11919694
123	0x3e11ac94	0.1422599
124	0x3de84d19	0.1134283
125	0xbe1f5bdb	-0.15562384
126	0xbd8abcd9	-0.06774301
127	0x3df09779	0.11747641
128	0xbe2b85cc	-0.16750258
129	0xbe1897fd	-0.14901729
130	0xbdf55fee	-0.11981188
131	0x3d54b8c0	0.051934004
132	0xbd6d7d2a	-0.057980694
133	0xbe17d7ec	-0.14828461
134	0x3d491d43	0.04910017
135	0x3db89010	0.09011853
136	0x3d7ae3e0	0.061252475
137	0xbe1d836d	-0.15382166
138	0x3e3132f9	0.17304601
139	0xbc64215a	-0.013923967
140	0xbe2c867f	-0.16848181
141	0xbca6ba62	-0.020352546
142	0x3de347a2	0.11097647
143	0x3d954e58	0.072903335
144	0xbca01a10	-0.019543678
145	0x3dff38f4	0.12462035
146	0xbe33d4f2	-0.17561701
147	0x3de93b42	0.11388256
148	0x3e339cd3	0.17540292
149	0xbdd75783	-0.105147384
150	0x3d14ee6e	0.036360197
151	0xbcccd02a	-0.025001604
152	0xbe18d08f	-0.14923309
153	0xbbf29e2a	-0.0074041085
154	0xbd2df795	-0.04247244
155	0xbe06cba3	-0.13163619
156	0xbe0a67b5	-0.13516124
157	0xbc8fc3e0	-0.017549455
158	0x3e1ab3e2	0.15107682
159	0x3d731841	0.059349302
160	0xbdf18f66	-0.11794929
161	0x3e010409	0.12599196
162	0x3c6dbd90	0.014510527
163	0xbe30f920	-0.17282534
164	0x3c42b348	0.011883564
165	0x3e05117d	0.12994952
166	0xbdd9d1a1	-0.10635687
167	0xbbf2a5f0	-0.007405035
168	0xbdbc60bb	-0.091981374
169	0xbe0ec89a	-0.13943711
170	0xbdca35d1	-0.09873546
171	0x3c8c5837	0.017131908
172	0x3dea0439	0.11426587
173	0xbd04eb9d	-0.03245126
174	0xbe269f56	-0.1627172
175	0xbb7383aa	-0.0037157335
176	0xbe227258	-0.15863931
177	0x3c2a2282	0.010384204
178	0x3e037185	0.12836273
179	0x3d9ba777	0.07600301
180	0xbddd8747	-0.10816818
181	0xbd15d254	-0.036577538
182	0x3d91f635	0.071270384
183	0x3d474d60	0.048657775
184	0xbe2a093d	-0.16605087
185	0xbdd13b6a	-0.102164105
186	0xbd336778	-0.043799847
187	0x3d8d2f0f	0.06893741
188	0x3e1eb0ed	0.1549718
189	0x3d8178db	0.063218795
190	0x3d81e37b	0.063422166
191	0xbe1ba9b0	-0.1520145
192	0x3dfe6125	0.124208726
193	0x3d9ba527	0.0759986
194	0xbd68d5eb	-0.056844633
195	0xbdb721bc	-0.08941981
196	0x3da3224f	0.07965528
197	0xbdad20c9	-0.08453519
198	0x3d32dd9a	0.043668367
199	0x3e0b2e2c	0.13591832
200	0xbe04e6c4	-0.12978655
201	0xbde75d07	-0.112970404
202	0xbd92d056	-0.07168643
203	0xbe1b97dd	-0.1519465
204	0xbcb6435e	-0.02224892
205	0x3dfb256c	0.12262997
206	0x3d63cb52	0.055613823
207	0xbd86c5ff	-0.065807335
208	0xbd3a0b20	-0.045420766
209	0xbd9d6fe7	-0.07687359
210	0xbe2579b6	-0.1615971
211	0xbd80641d	-0.06269095
212	0x3c242919	0.010019564
213	0xbda84e74	-0.08218089
214	0xbe0c8527	-0.13722669
215	0x3d808e78	0.06277174
216	0x3cd550aa	0.02603944
217	0xbd89fd22	-0.067377344
218	0x3da16f9f	0.07882618
219	0x3e586488	0.211321
220	0xbb9ec30e	-0.0048450297
221	0xbe214176	-0.15747628
222	0x3e085a52	0.13315704
223	0x3df90323	0.121588014
224	0xbc375fb0	-0.011192247
225	0xbd642fb5	-0.05570956
226	0xbd98c2d7	-0.07459038
227	0x3e1b74f2	0.1518133
228	0x3dde8e39	0.108669706
229	0xbd5b921c	-0.053606138
230	0x3a298367	0.0006466419
231	0x3d1658a0	0.036705613
232	0x3d3b78cc	0.045769498
233	0xbc267e82	-0.010161998
234	0xbdcd0d90	-0.100123525
235	0xbbb22d83	-0.0054375543
236	0xbd51b0a4	-0.05119385
237	0xbd19e5a3	-0.037572514
238	0xbdc3fbe9	-0.095695324
239	0xbdf4a246	-0.11945014
240	0xbde99962	-0.114062086
241	0x3d8ea8c0	0.0696578
242	0xbe260749	-0.16213717
243	0xbe26c28f	-0.16285156
244	0x3e1a708d	0.15081997
245	0x3d91d0bc	0.07119891
246	0x3dc115e7	0.09428006
247	0x3d93f939	0.0722527
248	0xbd8a1798	-0.067427814
249	0xbe0a2fd7	-0.13494812
250	0xbda83ba6	-0.08214502
251	0x3cb42c97	0.021993918
252	0x3d2d849d	0.042362798
253	0xbe4e590d	-0.20151158
254	0xbe1a1e9c	-0.15050739
255	0x3dd5587c	0.10417268

gc1.bias f4 [32]
0	0xbd5fb041	-0.05461145
1	0x3ce262c8	0.027634993
2	0xbe064a84	-0.13114363
3	0x3d95c894	0.07313648
4	0x3d80ec39	0.06295056
5	0xbdfd0fbb	-0.12356516
6	0xbd96d696	-0.07365148
7	0xbd0330db	-0.032029014
8	0xbddd2c22	-0.10799433
9	0xba425449	-0.0007413072
10	0x3e1f5338	0.15559089
11	0xbe2a7439	-0.16645898
12	0xbd906dbe	-0.07052182
13	0x3e2aea75	0.16691001
14	0xbe17489b	-0.1477379
15	0x3dae7f56	0.08520381
16	0xbe2d9101	-0.16949846
17	0xbdf20a24	-0.118183404
18	0x3d4be721	0.04978097
19	0x3e0e6160	0.13904333
20	0xbc9f15d4	-0.019419588
21	0xbe03d96b	-0.12875907
22	0xbb4bef55	-0.0031117995
23	0x3da4b0d8	0.08041543
24	0x3cbbd132	0.0229269
25	0x3e09a418	0.13441503
26	0x3d9d0e39	0.076687284
27	0xbcf8942c	-0.030344091
28	0x3dfd636d	0.123724796
29	0x3d9f6629	0.077831574
30	0xbda9cff4	-0.08291617
31	0x3dbb04fb	0.09131809

gc2.weight f4 [77, 32]
0	0xbdcc513b	-0.09976431
1	0xbe0088ef	-0.12552236
2	0xbd2fa4a7	-0.042881634
3	0x3c3c0623	0.0114760725
4	0x3e2d757e	0.16939351
5	0xbd2462a4	-0.040133134
6	0x3e285f31	0.16442563
7	0x3d870911	0.06593526
8	0xbe23b554	-0.1598714
9	0xbde7e0b8	-0.113221586
10	0x3de272fa	0.11057086
11	0xbe2b77a0	-0.16744852
12	0x3de38d1d	0.111108996
13	0xbdb542f3	-0.0885066
14	0xbda310aa	-0.07962163
15	0xbd9316c3	-0.07182076
16	0xbdc56185	-0.09637741
17	0xbdbf8467	-0.093514256
18	0x3dbd3657	0.0923888
19	0xbe31fed9	-0.17382373
20	0x3cfbca9b	0.030736258
21	0x3deb305c	0.11483833
22	0xbdb153f0	-0.08658588
23	0xbdb20104	-0.086916
24	0xbdbcfc73	-0.09227838
25	0x3d75f7b4	0.06005068
26	0x3d2765c7	0.040868547
27	0xbdaec368	-0.085333645
28	0x3cf667d6	0.03007881
29	0xbddbf5b9	-0.10740227
30	0x3e325ce1	0.17418243
31	0xbda5473a	-0.08070226
32	0x3d4a439a	0.049380876
33	0x3e30789e	0.17233512
34	0x3de67ec4	0.112546474
35	0x3ddb0717	0.10694712
36	0xbb4a84e7	-0.003090197
37	0x3da842ab	0.08215841
38	0xbe11dc31	-0.14244153
39	0xbd4b0513	-0.049565386
40	0xbe218020	-0.15771532
41	0xbcb353ab	-0.021890482
42	0x3e0889e9	0.13333859
43	0xbe129729	-0.14315476
44	0x3ceb7537	0.028742416
45	0x3d827eee	0.06371866
46	0xbe229435	-0.15876849
47	0xbd4d8d5a	-0.05018363
48	0xbe017284	-0.1264134
49	0xbe302597	-0.1720184
50	0xbe1d49ca	-0.1536018
51	0xbd44d6aa	-0.048056282
52	0xb9248e52	-0.00015693277
53	0x3e190c95	0.14946206
54	0xbe32492e	-0.17410728
55	0xbe0a894d	-0.13528939
56	0xbd122364	-0.035678282
57	0x3da148e3	0.0787523
58	0x3d47bc16	0.048763357
59	0xbceb1d93	-0.028700626
60	0xbdfa2985	-0.122149505
61	0xbdfea180	-0.124331474
62	0xbc8f1e0a	-0.017470378
63	0xbd43d621	-0.04781163
64	0xbe30964f	-0.17244838
65	0xbe1e77e2	-0.15475419
66	0xbe258f1d	-0.16167875
67	0xbd7893f9	-0.060687993
68	0xbdbddeb7	-0.09270995
69	0x3e2dec47	0.16984664
70	0x3d8d854d	0.06910191
71	0x3dedf751	0.116194375
72	0xbd1f5fa4	-0.03890957
73	0x3d438523	0.04773439
74	0xbd14bd26	-0.0363132
75	0xbdc7317d	-0.09726236
76	0xbe1fdfa9	-0.15612663
77	0xbe12f070	-0.14349532
78	0xbdc508d2	-0.09620823
79	0xbd97aaea	-0.07405646
80	0xbda08cee	-0.0783938
81	0xbda521d3	-0.08063092
82	0x3dad0d15	0.08449761
83	0xbd72c95a	-0.059274055
84	0xbdea1e93	-0.11431613
85	0x3bba206f	0.005680136
86	0xbd6ac788	-0.057319194
87	0xbdc257a5	-0.09489373
88	0xbe267bff	-0.16258238
89	0xbd2411a6	-0.040055893
90	0xbdb05f67	-0.086119466
91	0x3e0a9548	0.13533509
92	0xbd6ec630	-0.058294475
93	0x3e05f5d4	0.13082057
94	0xbdc99d63	-0.09844472
95	0x3dcde3fe	0.10053252
96	0x3dee682a	0.116409615
97	0xbdb0e9c4	-0.08638337
98	0xbdb9fd4d	-0.090815164
99	0xbc8cbc10	-0.017179519
100	0xbc1efaac	-0.0097033195
101	0xbd5ca810	-0.053871214
102	0x3de003ff	0.10938262
103	0x3cb77ca1	0.022398295
104	0xbdf12732	-0.11775054
105	0x3d81fe98	0.06347388
106	0x3dd3109a	0.10305901
107	0x3da04bb2	0.07826938
108	0x3d81136d	0.06302533
109	0xbd4cb306	-0.049975418
110	0x3d2102d6	0.039309345
111	0x3e292f7b	0.16522019
112	0xbddd0d05	-0.10793499
113	0xbdb4be53	-0.08825364
114	0xbd8c94e7	-0.06864338
115	0xbe19a4e5	-0.15004309
116	0xbe30d991	-0.17270495
117	0x3de80625	0.11329297
118	0x3dfe9d88	0.124323905
119	0x3d76eddc	0.060285434
120	0xbda5b6c7	-0.08091503
121	0xbe0f43b3	-0.13990669
122	0xbd914d3f	-0.07094812
123	0xbe148613	-0.1450427
124	0x3db483a4	0.08814171
125	0xbdf0e7ac	-0.11762938
126	0xbc096d52	-0.00838788
127	0xbd998fd8	-0.07498139
128	0x3d80e3d5	0.062934555
129	0xbe0e0df6	-0.13872513
130	0xbdd33a14	-0.10313812
131	0x3da8f72d	0.0825027
132	0xbe1c1b55	-0.15244801
133	0xbd2a6e4d	-0.041609097
134	0x3d24f147	0.040269163
135	0x3dc1a2de	0.094548926
136	0x3c2336c3	0.009961787
137	0x3d9581c6	0.07300143
138	0x3dc48cd0	0.0959717
139	0x3e15e581	0.1463833
140	0x3d79019f	0.06079256
141	0xbe10768c	-0.14107722
142	0x3d51de5e	0.051237457
143	0xbe0d586b	-0.1380326
144	0x3dd534e5	0.104104795
145	0xbdf413ad	-0.11917815
146	0xbe3a755d	-0.18208833
147	0x3e1dc9cd	0.15409012
148	0x3dfc36c3	0.123151325
149	0xbdabd149	-0.08389527
150	0x3e0fa17d	0.14026447
151	0x3c79a0b1	0.015236066
152	0xbe11abba	-0.14225665
153	0x3c09b8d1	0.00840588
154	0x3dce572d	0.10075221
155	0xbe30843c	-0.17237943
156	0xbde163db	-0.11005374
157	0xbe307e05	-0.17235573
158	0xbd170f05	-0.036879558
159	0xbca84724	-0.020541735
160	0xbe2d5929	-0.16928543
161	0xbce8e60d	-0.02843001
162	0x3d36ba84	0.04461147
163	0xbc917039	-0.017753707
164	0x3e1c0e7c	0.152399
165	0x3d4cba7d	0.049982537
166	0xbe2716fe	-0.16317365
167	0x3d90e4e7	0.0707491
168	0xbd95d48b	-0.0731593
169	0xbd1f15ac	-0.038839027
170	0x3cad38be	0.02114522
171	0x3d8b0777	0.06788533
172	0xbe15ef44	-0.14642054
173	0xbd4b66ab	-0.04965846
174	0xbe04d666	-0.12972412
175	0x3d7205bb	0.059087496
176	0xbe158c1d	-0.1460423
177	0xbdce5704	-0.10075191
178	0x3d1868db	0.037209373
179	0x3e0e4f1e	0.13897368
180	0xbc85b62b	-0.016322216
181	0xbe334196	-0.17505488
182	0xbd4e3c2e	-0.05035036
183	0xbe038399	-0.1284317
184	0x3ce1973f	0.02753794
185	0xbe2e9064	-0.17047268
186	0x3dd24287	0.10266595
187	0x3d1d96df	0.03847396
188	0xbcb81bda	-0.022474218
189	0xbdd6ed63	-0.10494497
190	0x3e1b1780	0.15145683
191	0x3d74372e	0.059622936
192	0x3da37090	0.07980454
193	0xbbc54964	-0.0060207117
194	0xbdc62cb9	-0.09676499
195	0xbd1e9366	-0.03871479
196	0x3de17744	0.11009076
197	0x3d9a775b	0.075422965
198	0x3e017b89	0.12644781
199	0xbd92beb2	-0.071652785
200	0xbe1e03e3	-0.1543117
201	0xbdce9388	-0.10086733
202	0xbdade1dd	-0.084903456
203	0x3e353752	0.17696884
204	0x3e30c188	0.17261326
205	0x3ce2c336	0.027680974
206	0xbd78c830	-0.06073779
207	0xbdaa3313	-0.08310523
208	0x3cf91dc5	0.030409703
209	0xbe0bec66	-0.13664398
210	0xbd43eb78	-0.047831982
211	0xbe239d42	-0.15977958
212	0x3c1b801f	0.009490996
213	0xbe1169f4	-0.14200574
214	0xbcd2a00d	-0.025711084
215	0xbd09000c	-0.03344731
216	0xbdf12ca9	-0.117760964
217	0x3dc5b1fe	0.0965309
218	0xbdf6cc8e	-0.120507345
219	0xbd9475f4	-0.0724906
220	0xbe02dddf	-0.1277995
221	0xbb9c0d0e	-0.0047622984
222	0xbdce5d84	-0.100764304
223	0x3dda6a31	0.10664786
224	0x3d9b5618	0.075847805
225	0xbe17ed9a	-0.14836732
226	0x3e01683a	0.12637416
227	0x3c625714	0.013814706
228	0xbe13024d	-0.14356346
229	0xbc265779	-0.010152691
230	0xbd893508	-0.06699568
231	0xbd6c8b00	-0.05774975
232	0x3e149fda	0.14514104
233	0xbc013b3f	-0.0078876605
234	0xbd122121	-0.035676125
235	0x3e092bcc	0.13395613
236	0x3d81ed0a	0.0634404
237	0xbe3d6239	-0.184945
238	0xbddc2a8d	-0.107503034
239	0x3c752a5e	0.014963714
240	0xbe0bbab7	-0.13645445
241	0xbe17bec4	-0.14818865
242	0x3dcb5595	0.09928433
243	0xbe3060fa	-0.17224494
244	0xbd842b75	-0.06453601
245	0x3ddd69d4	0.10811201
246	0x3dd6a619	0.10480899
247	0xbe1a63fd	-0.15077205
248	0x3c7eac7d	0.015544054
249	0xbe11ec22	-0.14250234
250	0x3dd6b84f	0.10484373
251	0x3d1b728d	0.03795104
252	0xbdc3d2bd	-0.095616795
253	0xbc35ff50	-0.0111082345
254	0x3e1c31ab	0.15253322
255	0x3c383518	0.011243127

gc2.bias f4 [32]
0	0x3dc2aa4a	0.09505136
1	0x3d5f6d43	0.05454756
2	0x3e604428	0.21901
3	0x3de2f5cf	0.110820405
4	0xbd168895	-0.03675135
5	0xbe136da0	-0.14397287
6	0xbd47714f	-0.048692044
7	0x3d8d9867	0.06913834
8	0xbe2757ec	-0.16342133
9	0x3dc0e1c2	0.0941806
10	0xbe32ca38	-0.17459953
11	0x3e4a4897	0.19754253
12	0xbd87721a	-0.0661356
13	0x3cab56b7	0.020915372
14	0xbe31e928	-0.17374098
15	0x3ddba3f1	0.10724629
16	0x3d649d15	0.055813868
17	0x3dc67c89	0.09691722
18	0x3d370b62	0.04468859
19	0x3d81de2a	0.063412026
20	0x3de2a1ff	0.110660546
21	0x3d86675e	0.065626845
22	0x3d14d911	0.036339823
23	0xbd5c8fd1	-0.05384809
24	0xbdac3123	-0.084078096
25	0xbe1c13e2	-0.1524196
26	0x3d5ccd22	0.053906567
27	0x3e1b5770	0.15170074
28	0x3dcee3d9	0.10102052
29	0x3def9114	0.11697593
30	0x3df5e52d	0.120066024
31	0xbdfd0746	-0.12354903

lstm.weight_ih_l0 f4 [64, 64]
0	0xbe48a5a8	-0.19594443
1	0x3e404da3	0.18779616
2	0xbd95b2a3	-0.07309463
3	0xbe7f193d	-0.24911971
4	0x3cc9c863	0.024631685
5	0xbe483e53	-0.19555025
6	0x3e09149e	0.13386771
7	0xbd7af53d	-0.061269034
8	0xbe8f9dfa	-0.28050214
9	0x3d3c14aa	0.045918144
10	0x3dc4e7b9	0.0961451
11	0x3dc21f64	0.094786435
12	0xbe7170e3	-0.23578219
13	0x3e29ba11	0.16574885
14	0xbe656ea3	-0.22405486
15	0x3d1fa98e	0.03898006
16	0x3e0f793c	0.14011091
17	0xbc11ecdf	-0.008906572
18	0xbe1c8566	-0.15285262
19	0xbe4c7920	-0.1996808
20	0x3e24d25a	0.16095868
21	0x3e85bfb8	0.26122832
22	0xbdd6e8c9	-0.10493619
23	0x3c65e9c5	0.014032786
24	0x3daa873d	0.08326576
25	0xbe31179f	-0.17294167
26	0x3dc9cdd1	0.098537095
27	0xbe43df58	-0.19128168
28	0xbe640702	-0.22268298
29	0x3ddaac4d	0.10677395
30	0x3e845dbb	0.2585276
31	0x3e170750	0.14748883
32	0xbd9aa683	-0.07551291
33	0x3e334039	0.17504968
34	0xbdb9e0fe	-0.09076117
35	0x3d402fd0	0.046920598
36	0xbcd42dd1	-0.025900753
37	0xbe29c76a	-0.16579977
38	0xbe985b30	-0.2975707
39	0x3e351038	0.17681968
40	0xbe09bfcd	-0.13452072
41	0xbdc7af44	-0.09750226
42	0xbd017007	-0.03160098
43	0xbd6c5105	-0.057694454
44	0xbd24e58f	-0.040257987
45	0x3e0af8e6	0.1357151
46	0x3e3e6644	0.18593699
47	0xbe8670c1	-0.262579
48	0x3e010d61	0.1260276
49	0xbe35f1c3	-0.17768006
50	0xbd07e243	-0.033174764
51	0x3d4bff26	0.049803875
52	0xbe2d6bb5	-0.16935618
53	0xbe5519a5	-0.20810564
54	0xbdf4497a	-0.11928077
55	0x3e05d3a9	0.13069023
56	0xbe696b4e	-0.2279484
57	0xbd2ecd2f	-0.042676147
58	0xbda1760f	-0.07883846
59	0xbe041ceb	-0.12901656
60	0x3e1eddc9	0.15514292
61	0x3e8e7274	0.27821696
62	0xbe397b3e	-0.1811342
63	0xbdf94e41	-0.12173129
64	0x3e427038	0.1898812
65	0x3dbd4af2	0.0924281
66	0xbe83c847	-0.25738737
67	0xbd0ad62e	-0.033895664
68	0xbe7251e8	-0.23664057
69	0x3e358bdc	0.17729133
70	0x3d7c1fd8	0.061553806
71	0x3e2db4dc	0.16963524
72	0xbd63715a	-0.055528022
73	0x3d46763b	0.048452597
74	0xbe314995	-0.17313226
75	0xbe5c69a8	-0.2152468
76	0x3e61ba5f	0.22043751
77	0x3d99d00f	0.07510387
78	0xbe145826	-0.14486751
79	0xbd64c242	-0.05584932
80	0xbc875401	-0.016519548
81	0xbc6e16cd	-0.014531803
82	0xbdfed69d	-0.12443278
83	0xbd07edae	-0.033185653
84	0xbdf79d7f	-0.12090587
85	0xbe02bc5e	-0.12767169
86	0xbe729598	-0.23689878
87	0x3e270e17	0.16313969
88	0xbd7bbacc	-0.06145744
89	0x3e09a8ec	0.13443345
90	0x3d98f8cb	0.074693285
91	0x3e1bafdc	0.15203804
92	0x3e6d33e3	0.23164324
93	0xbc18970c	-0.009313356
94	0xbdd7b082	-0.10531713
95	0x3dbe963c	0.09305999
96	0xbe4b2eea	-0.19842115
97	0xbe126767	-0.14297257
98	0xbd1c80f3	-0.038208913
99	0xbe607ffd	-0.21923824
100	0xbe16da4a	-0.14731708
101	0x3d8404c8	0.064462245
102	0xbd29ecd4	-0.041485623
103	0x3dc73525	0.097269334
104	0xbe54e7a7	-0.20791493
105	0x3dd21445	0.10257772
106	0xbe32f9fe	-0.17478177
107	0x3d43e648	0.047827035
108	0x3db75703	0.08952143
109	0x3e3b3496	0.18281779
110	0x3e25b780	0.16183281
111	0x3e4001fb	0.18750755
112	0x3dd5078d	0.10401831
113	0x3cdb458e	0.026766565
114	0xbe598d57	-0.21245323
115	0x3d44462c	0.047918484
116	0xbe811a37	-0.25215313
117	0x3da3c9a8	0.07997447
118	0xbd407c60	-0.046993613
119	0xbe1a2b47	-0.15055571
120	0x3c9f5393	0.019449031
121	0xbe236368	-0.15955889
122	0x3e125435	0.14289935
123	0xbe3fc2fa	-0.18726721
124	0xbdc12c8b	-0.09432324
125	0x3cdc9c1d	0.02692991
126	0xbd8e642a	-0.069526985
127	0x3ddaebe7	0.10689526
128	0x3d542ca5	0.05180039
129	0x3de7ddb1	0.11321581
130	0xbd48b351	-0.048999134
131	0xbe83d066	-0.25744933
132	0xbe291c0b	-0.16514604
133	0xbe48808f	-0.19580291
134	0x3e330bac	0.17484921
135	0xbdc9eb1e	-0.09859298
136	0xbc23b590	-0.009992018
137	0xbe3ff92c	-0.18747395
138	0xbdcc3bf5	-0.099723734
139	0x3dfe96e0	0.12431121
140	0xbd7d0c8a	-0.061779536
141	0x3dcb7756	0.09934871
142	0x3e341f46	0.17590055
143	0x3d36d77e	0.044639103
144	0xbda3114f	-0.07962286
145	0x3e24ca33	0.16092758
146	0x3d394f7f	0.04524183
147	0x3e640c3d	0.22270294
148	0xbdec55c7	-0.11539798
149	0xbdd76ac2	-0.10518409
150	0x3d896f75	0.06710712
151	0xbe58e05a	-0.21179333
152	0x3d87c7a9	0.06629879
153	0xbde61f53	-0.11236443
154	0xbdec779a	-0.1154625
155	0xbd27e75f	-0.040992137
156	0xbd60030a	-0.0546904
157	0x3e854e6b	0.2603639
158	0xbe3d09a5	-0.1846071
159	0x3e049c1e	0.12950179
160	0xbd848c9f	-0.06472134
161	0x3d85ea49	0.06538827
162	0xbd1199f1	-0.0355472
163	0x3e4213c2	0.1895285
164	0xbe3a293d	-0.18179794
165	0xbde7af31	-0.11312712
166	0x3da5e5cf	0.08100473
167	0x3e288a2d	0.1645896
168	0xbe74fe1d	-0.23925062
169	0x3c7f55cd	0.015584421
170	0x3dbfc611	0.0936395
171	0xbd9cb8bb	-0.07652422
172	0xbd0ff72d	-0.035147835
173	0x3e2f3882	0.171114
174	0x3c03d66d	0.008046729
175	0xbd9b0621	-0.07569528
176	0x3d228e2a	0.03968636
177	0xbe7835b1	-0.24239232
178	0x3e36f8fa	0.17868415
179	0xbe61a76a	-0.2203652
180	0x3e0eba8f	0.13938354
181	0xbd4286dc	-0.047491893
182	0xbe4fe9f7	-0.20304094
183	0x3e190fc0	0.14947414
184	0x3cde51dd	0.027138645
185	0xbc48b900	-0.012251139
186	0xbb82c64a	-0.003990923
187	0xbe70b454	-0.2350629
188	0x3df71708	0.1206494
189	0xbe023526	-0.12715587
190	0xbde8dedf	-0.11370634
191	0x3d8bb036	0.06820719
192	0x3d914c2b	0.07094606
193	0xbdecffb4	-0.11572209
194	0xbddcbd9a	-0.10778351
195	0x3df47394	0.11936107
196	0xbdf4a7b1	-0.11946047
197	0xbe4946b9	-0.19655885
198	0x3d41ab2f	0.047282394
199	0x3cead5e9	0.028666453
200	0xbe06fd94	-0.1318267
201	0xbe3692de	-0.17829463
202	0xbe0ce987	-0.13760959
203	0x3d21b192	0.039475985
204	0x3e1be65b	0.15224592
205	0xbe14fd54	-0.14549762
206	0xbde6cce9	-0.11269552
207	0xbe726cf2	-0.23674372
208	0x3e3cc46f	0.18434308
209	0xbdbebf96	-0.09313886
210	0x3e7d3c2b	0.24729984
211	0x3b9fae40	0.004873067
212	0xbdf3b145	-0.11899046
213	0xbe621fcf	-0.22082447
214	0xbe16425a	-0.14673749
215	0xbe81d5ca	-0.2535842
216	0xbe4523d2	-0.19251946
217	0xbe342c22	-0.1759496
218	0x3d4e8ad0	0.05042535
219	0x3c6dbda8	0.01451055
220	0xbc2d407a	-0.010574454
221	0x3d13861c	0.03601657
222	0x3e145d2d	0.14488669
223	0x3dcc7869	0.09983904
224	0x3e4ff1ba	0.20307055
225	0xbdae1c72	-0.08501519
226	0x3e89b1ae	0.2689337
227	0x3da305c5	0.07960085
228	0xbd951d9f	-0.072810404
229	0xbe81bcb1	-0.25339273
230	0xbda439fe	-0.08018874
231	0xbcfc315b	-0.030785253
232	0x3debcb03	0.11513331
233	0xbd30fc30	-0.043209255
234	0xbe84a3e4	-0.2590629
235	0x3dedea54	0.1161696
236	0xbe297e60	-0.16552114
237	0xbe6ca036	-0.2310799
238	0x3def3303	0.116796516
239	0x3da56b46	0.080771014
240	0x3e04f9b5	0.1298588
241	0x3e5a5a38	0.21323478
242	0xbe73b310	-0.23798776
243	0xbd21488e	-0.039375834
244	0x3e0eee9c	0.1395821
245	0x3d60c9b5	0.054879863
246	0xbe80f6b9	-0.25188234
247	0x3e4c0c51	0.19926573
248	0x3cf66146	0.03007568
249	0x3cdbac5a	0.026815582
250	0xbdd5246e	-0.10407339
251	0xbdcf972c	-0.101362556
252	0x3ce01767	0.02735491
253	0xbe6a5b44	-0.22886378
254	0xbdd5fc34	-0.104484946
255	0xbd86f85f	-0.06590342

lstm.weight_hh_l0 f4 [64, 16]
0	0xbe314c7a	-0.1731433
1	0x3e823bb0	0.25436163
2	0x3e2d4e78	0.16924465
3	0xbde33705	-0.110944785
4	0xbe601e49	-0.21886553
5	0x3c66f74d	0.014097047
6	0x3d3671c7	0.0445421
7	0xbcea4927	-0.028599335
8	0xbe3130ca	-0.17303768
9	0x3d31854e	0.04334002
10	0xbd42e622	-0.047582753
11	0x3d497991	0.0491882
12	0xbe8ec2f6	-0.27883118
13	0xbe306f39	-0.17229928
14	0x3ba1f879	0.0049429503
15	0x3e046aaf	0.12931322
16	0xbe5b831a	-0.2143673
17	0xbd36904b	-0.044571202
18	0x3e59fb9f	0.21287392
19	0xbe0a1796	-0.1348556
20	0xbe522222	-0.20520833
21	0xbb9243cd	-0.004463649
22	0xbd93124c	-0.07181224
23	0x3dddbe19	0.10827274
24	0x3d7feb1b	0.062480073
25	0x3bc37dab	0.0059659085
26	0xbe7bade3	-0.24578051
27	0x3e3b0f6c	0.18267602
28	0x3d81b83d	0.06333969
29	0x3e028d01	0.12749101
30	0xbdd83ce5	-0.1055849
31	0xbdd17bf0	-0.10228717
32	0x3cd76003	0.0262909
33	0xbe516eeb	-0.20452468
34	0xbe73f09d	-0.23822255
35	0x3e71293a	0.23550883
36	0x3e47c008	0.19506848
37	0x3e4dbbeb	0.20091216
38	0x3d0a133b	0.033709746
39	0x3e621f25	0.22082193
40	0x3e05797c	0.13034624
41	0x3e2e89fd	0.17044826
42	0xbe02605e	-0.12732074
43	0x3e8506ff	0.259819
44	0x3e4de7c6	0.20107946
45	0x3e76707f	0.24066351
46	0x3e13b8c0	0.14425945
47	0x3d26fbb6	0.040767394
48	0x3d26fc6e	0.04076808
49	0x3cb8f1c8	0.022576228
50	0xbdfe2925	-0.124101914
51	0xbc026174	-0.007957805
52	0x3e4baf04	0.19890982
53	0xbe20a99d	-0.15689702
54	0xbdd61f46	-0.10455184
55	0x3d811802	0.06303407
56	0xbe6b4145	-0.22974117
57	0xbe676327	-0.22596417
58	0xbdd42642	-0.103588596
59	0x3df3810e	0.118898496
60	0xbe8243f4	-0.2544247
61	0x3e25c646	0.16188917
62	0xbe17b48c	-0.14814967
63	0xbd8a9e37	-0.06768458
64	0xbe433a9b	-0.19065325
65	0x3e1ed02f	0.15509103
66	0xbcc06afd	-0.023488516
67	0xbe786710	-0.24258065
68	0x3d2c812e	0.042115383
69	0xbd5f04d2	-0.054447956
70	0x3d3feec1	0.046858553
71	0xbe5512a7	-0.20807897
72	0xbe5ec01b	-0.2175297
73	0xbe5409ed	-0.20706911
74	0x3df58166	0.119875714
75	0xbcb1d66b	-0.021708688
76	0xbd16c219	-0.0368062
77	0xbdc81d17	-0.097711734
78	0x3dc598ee	0.0964831
79	0x3e2ba580	0.16762352
80	0x3cfe653c	0.031054132
81	0x3df5af0f	0.119962804
82	0xbd9c63e8	-0.07636243
83	0x3d81daf1	0.06340588
84	0xbc7b9645	-0.015355651
85	0x3e173ca5	0.14769228
86	0xbe6000b4	-0.21875268
87	0xbe2af063	-0.16693263
88	0xbe685b9d	-0.22691198
89	0xbd76ea51	-0.060282055
90	0x3e64b9a5	0.22336443
91	0xbdff1eb0	-0.12457025
92	0x3cf486bc	0.029849403
93	0xbcc0039d	-0.023439223
94	0x3be38620	0.006943479
95	0xbddd6047	-0.10809379
96	0xbe091a45	-0.13388927
97	0xbdc9d874	-0.09855738
98	0xbe48b712	-0.19601086
99	0xbd3f4463	-0.046696078
100	0xbdffdd3a	-0.124933675
101	0x3e197091	0.14984347
102	0x3df21e56	0.11822192
103	0x3e4a0abe	0.1973066
104	0x3e1bb2f1	0.1520498
105	0xbe0f5dc6	-0.14000615
106	0xbdadb10e	-0.08481036
107	0xbe74a170	-0.23889709
108	0xbce0f81a	-0.027462054
109	0x3e1005e2	0.14064744
110	0xbe775f7a	-0.24157515
111	0xbe4571c8	-0.19281685
112	0x3e800840	0.25006294
113	0xbe5e10ab	-0.21686046
114	0xbc40953b	-0.011754329
115	0xbd98eada	-0.074666694
116	0xbe1127cd	-0.14175339
117	0x3c9092e9	0.017648177
118	0xbe33d366	-0.17561111
119	0x3d943444	0.072365314
120	0xbe3a5b7e	-0.18198964
121	0xbe67aafb	-0.22623818
122	0xbdef26db	-0.11677333
123	0x3e6d4c99	0.23173751
124	0xbdad0562	-0.08448292
125	0x3e674a69	0.22586979
126	0x3d1669cf	0.036722
127	0x3de1f4e8	0.1103304
128	0xbce6df6e	-0.028182711
129	0x3e4e7297	0.201609
130	0x3db2c5b3	0.087291144
131	0x3d69ab92	0.057048388
132	0x3d2d65a9	0.04233328
133	0x3db6c697	0.08924597
134	0xbe044aed	-0.12919207
135	0xbe5ac238	-0.21363151
136	0x3cb8afd3	0.022544777
137	0x3ccb9f69	0.024856286
138	0x3e3456cb	0.17611234
139	0xbd496720	-0.049170613
140	0x3dc3a890	0.09553635
141	0xbe0640ff	-0.13110732
142	0x3e55ca7e	0.20878026
143	0x3c815495	0.015787402
144	0x3e7328b9	0.23746003
145	0x3d958d5e	0.07302354
146	0xbc7256f7	-0.014791242
147	0xbd553fd1	-0.052062813
148	0xbce76ca7	-0.028250052
149	0x3d8fe1b5	0.07025472
150	0xbb7241df	-0.0036965532
151	0xbe1878fd	-0.14889903
152	0xbe7338b9	-0.23752107
153	0xbe47e2eb	-0.19520156
154	0xbd6a6e9b	-0.057234388
155	0xbd065720	-0.032797933
156	0x3e4306ec	0.19045609
157	0xbe2b2b1e	-0.16715667
158	0xbd88ff2e	-0.06689297
159	0x3e3aa498	0.1822685
160	0x3e0f7a67	0.14011537
161	0xbb4c4877	-0.0031171122
162	0xbd020d5b	-0.031751018
163	0xbe2701a8	-0.16309226
164	0x3e07fa2f	0.13279031
165	0x3e51477b	0.20437424
166	0x3d38cb85	0.045115966
167	0x3cac0022	0.020996157
168	0xbd819682	-0.06327535
169	0xbe7fb707	-0.24972163
170	0x3c95869a	0.01825266
171	0x3e30f8ab	0.1728236
172	0x3d10cf4f	0.035353955
173	0xbd295932	-0.04134483
174	0x3e46ad81	0.19402124
175	0xbe589cf4	-0.21153623
176	0x3e05e3fd	0.13075252
177	0x3ddc1928	0.10746986
178	0xbd9f1f8b	-0.07769688
179	0x3e0b8473	0.13624744
180	0xbe7b3fe2	-0.24536088
181	0xbe0ffc69	-0.1406113
182	0x3dee8863	0.116471075
183	0xbd905b0b	-0.07048615
184	0x3d3df895	0.046379644
185	0x3ca410a5	0.020027468
186	0xbe417398	-0.18891752
187	0xbdf1ef14	-0.11813179
188	0x3e072527	0.13197766
189	0xbd64c42e	-0.055851154
190	0xbdd6d6c6	-0.104901835
191	0xbd958d79	-0.073023744
192	0xbe3fb2a6	-0.18720493
193	0xbe579db8	-0.21056259
194	0x3c6bbe6c	0.014388662
195	0xbdd06b0e	-0.10176669
196	0x3e3dc362	0.18531564
197	0x3e426f5e	0.18987796
198	0x3e38aa28	0.1803366
199	0x3c3c45b5	0.011491229
200	0xbe252d04	-0.16130453
201	0x3cb76b67	0.02239008
202	0xbe736eda	-0.23772755
203	0xbd49124b	-0.04908971
204	0x3e0c9fe5	0.1373287
205	0x3db37bd1	0.087638505
206	0xbc7b035e	-0.015320627
207	0x3d786ebd	0.060652483
208	0xbdc8c1ae	-0.098025665
209	0x3df4c999	0.11952514
210	0xbe8721c5	-0.26392952
211	0x3e3a4a54	0.18192416
212	0xbce9bdaf	-0.028532831
213	0x3e012c0e	0.12614462
214	0x3c6dea61	0.014521212
215	0x3e12325f	0.14277028
216	0xbe5216c7	-0.20516501
217	0x3e0ed775	0.13949378
218	0xbe803b1a	-0.2504509
219	0xbe181e04	-0.148552
220	0x3c948b7c	0.018132918
221	0x3e336765	0.1751991
222	0xbe4d0ad2	-0.20023659
223	0x3e197225	0.14984949
224	0x3d01d3f5	0.03169628
225	0x3e4ced27	0.20012341
226	0x3d725aff	0.059168812
227	0x3cd1e1ed	0.025620425
228	0x3e3df615	0.18550904
229	0xbe819cb1	-0.2531486
230	0x3e391cde	0.18077418
231	0xbe49a891	-0.19693209
232	0xbe56d788	-0.20980656
233	0x3dc5a4ac	0.09650549
234	0xbe3ede6f	-0.18639539
235	0x3e19eeb4	0.15032464
236	0xbe8538bd	-0.2601985
237	0xbd685c38	-0.05672857
238	0x3d0a523c	0.03376983
239	0xbdfeda3b	-0.12443968
240	0xbd532f91	-0.051559035
241	0xbe0c67d2	-0.1371148
242	0x3cc9d837	0.024639232
243	0xbd3e9fab	-0.04653899
244	0x3de6d2e2	0.112706915
245	0xbd5ce1f2	-0.053926416
246	0x3d89c527	0.06727057
247	0xbd36ac03	-0.044597637
248	0xbe5a1329	-0.21296372
249	0xbe4527c3	-0.19253449
250	0x3d36005f	0.044433948
251	0xbcb69975	-0.02228997
252	0x3c777baf	0.015105172
253	0xbd4e45c5	-0.050359506
254	0x3e30faa5	0.17283113
255	0xbdeb5b10	-0.11491978

lstm.bias_ih_l0 f4 [64]
0	0x3cff3ec4	0.031157859
1	0xbe1fc664	-0.15603024
2	0x3d632631	0.055456344
3	0xbda786c3	-0.08180001
4	0x3e5aa414	0.21351653
5	0x3daeac88	0.085290015
6	0x3d848892	0.06471361
7	0x3e06d635	0.13167651
8	0x3c060b96	0.008181473
9	0xbe55083a	-0.2080392
10	0x3e8190b0	0.253057
11	0x3c2511dd	0.01007506
12	0x3c8eef2f	0.017448036
13	0xbd82294b	-0.06355532
14	0x3e4fd3a8	0.20295584
15	0xbd2e10e0	-0.042496562
16	0xbcaae430	-0.020860761
17	0x3d8606ce	0.06544267
18	0xbc97754f	-0.018488554
19	0xbd80d834	-0.062912375
20	0x3d97430c	0.07385835
21	0x3e21fb3b	0.15818493
22	0xbe02af82	-0.12762263
23	0x3e8353ea	0.2564996
24	0x3e36f5ae	0.17867157
25	0x3e45f918	0.19333303
26	0x3d7358a1	0.059410695
27	0x3d25e144	0.040498033
28	0xbcd5c981	-0.026097061
29	0x3cf112d3	0.029427921
30	0xbe1a9473	-0.15095691
31	0xbd2abdf3	-0.041685056
32	0x3d53800d	0.05163579
33	0xbdd4fae4	-0.10399416
34	0x3e0ebb5d	0.13938661
35	0x3e02cb16	0.12772784
36	0xbdac97db	-0.08427402
37	0xbd7ce999	-0.061746214
38	0xbcf6b286	-0.030114423
39	0x3cf8421c	0.03030496
40	0x3e65f157	0.22455345
41	0x3da1245a	0.07868262
42	0x3e166de1	0.14690353
43	0xbc097efd	-0.008392093
44	0x3b907240	0.004408151
45	0xbe622c46	-0.22087201
46	0x3c362f70	0.011119708
47	0x3e09f762	0.13473275
48	0xbdd0966f	-0.10184943
49	0x3daed19e	0.08536075
50	0x3e4bc698	0.19899976
51	0x3c9eb595	0.019373694
52	0xbdc15a14	-0.09441009
53	0x3e85ff5a	0.2617138
54	0x3e587f67	0.2114235
55	0xbe4948c6	-0.19656667
56	0xbdd919b5	-0.10600606
57	0x3e3ff82c	0.18747014
58	0xbe327799	-0.17428435
59	0x3cc5ba04	0.02413655
60	0x3e6a19f5	0.22861464
61	0xbdc89c38	-0.09795421
62	0x3e24ea14	0.16104919
63	0x3e249cba	0.16075411

lstm.bias_hh_l0 f4 [64]
0	0x3e51040c	0.204117
1	0xbe13170e	-0.14364263
2	0xbc44017a	-0.011963243
3	0x3e2595cf	0.16170429
4	0xbd847313	-0.06467261
5	0x3e7d1211	0.24713923
6	0xbdd036c5	-0.101666965
7	0xbd50917c	-0.050919995
8	0x3dabb78f	0.083846204
9	0xbde3ba71	-0.11119545
10	0xbd3fe758	-0.046851486
11	0x3e1a7ff9	0.1508788
12	0xbdb1bd6a	-0.08678706
13	0xbe4ab97c	-0.19797319
14	0xbcc7ec38	-0.02440463
15	0xbe321aec	-0.17393082
16	0x3e571b93	0.21006612
17	0xbddc4323	-0.10754993
18	0x3e59ee7e	0.21282384
19	0x3e18541a	0.14875832
20	0x3d577b07	0.052607562
21	0x3d376744	0.044776216
22	0xbdb48e30	-0.088161826
23	0x3e346f43	0.17620568
24	0x3e7a757e	0.24458882
25	0xbdf80cd1	-0.121118195
26	0xbd4d9aa2	-0.050196297
27	0x3d698ee4	0.057021037
28	0x3e0c25ec	0.13686341
29	0x3e851866	0.25995177
30	0x3df1c786	0.11805634
31	0x3cb4aa80	0.022053957
32	0x3ae1ce71	0.0017227662
33	0x3e5b1e7b	0.21398346
34	0x3e132f8f	0.14373611
35	0xbe7d5882	-0.24740794
36	0xbdc34207	-0.09534078
37	0xbe2adb77	-0.16685282
38	0xbe449517	-0.19197498
39	0xbc9adf52	-0.018905316
40	0x3e485f33	0.19567566
41	0xbe530949	-0.20609011
42	0xbe86e181	-0.2634392
43	0x3db533a7	0.088477425
44	0xbd2fbf46	-0.042907022
45	0x3d17f0d7	0.037094917
46	0xbc42d755	-0.0118921595
47	0x3df00974	0.11720553
48	0xbe287930	-0.1645248
49	0xbe5df175	-0.2167414
50	0xbd875b93	-0.06609263
51	0x3d1aa4ad	0.037754703
52	0x3d9b9706	0.07597165
53	0x3d4712e4	0.048602
54	0x3dd7cacc	0.10536727
55	0x3e09cf7e	0.13458058
56	0x3e74b0ab	0.23895518
57	0x3e400476	0.18751702
58	0x3e140424	0.14454705
59	0xbd205953	-0.039147686
60	0x3d90b368	0.07065469
61	0xbcebd580	-0.028788328
62	0xbe0eeeb6	-0.13958248
63	0xbd6d15a6	-0.057881974

ln.weight f4 [64]
0	0x3f835369	1.025983
1	0x3f861da1	1.0477792
2	0x3f832dc2	1.0248339
3	0x3f84fcc4	1.0389638
4	0x3f843916	1.0329921
5	0x3f86c461	1.052868
6	0x3f81e766	1.0148742
7	0x3f807ca2	1.0038035
8	0x3f818aa9	1.0120441
9	0x3f873ccc	1.0565429
10	0x3f7d5c99	0.9896942
11	0x3f7feb4d	0.99968415
12	0x3f7b4e78	0.9816661
13	0x3f803e95	1.0019099
14	0x3f823533	1.0172485
15	0x3f7fd678	0.9993663
16	0x3f779701	0.9671479
17	0x3f84b558	1.0367842
18	0x3f7aebb8	0.9801593
19	0x3f7bb535	0.98323375
20	0x3f808572	1.0040724
21	0x3f7a1c3c	0.9769933
22	0x3f84cbf0	1.0374737
23	0x3f82464a	1.01777
24	0x3f841538	1.0318975
25	0x3f7b048a	0.980538
26	0x3f85af59	1.0444137
27	0x3f807eb5	1.0038668
28	0x3f84eda1	1.0385019
29	0x3f81030f	1.0079058
30	0x3f84beaf	1.0370692
31	0x3f84bc2d	1.0369927
32	0x3f7d5c62	0.9896909
33	0x3f7fddfb	0.9994809
34	0x3f85a63f	1.0441359
35	0x3f80f5e3	1.0075039
36	0x3f7c7fa2	0.9863225
37	0x3f852a19	1.0403472
38	0x3f7a1b16	0.9769758
39	0x3f846da9	1.0345966
40	0x3f81ced1	1.014124
41	0x3f79734b	0.9744155
42	0x3f82551d	1.0182225
43	0x3f8523f4	1.0401597
44	0x3f83806c	1.0273566
45	0x3f81b86f	1.013441
46	0x3f8042f5	1.0020434
47	0x3f8236ee	1.0173013
48	0x3f8016ba	1.0006936
49	0x3f87262d	1.0558525
50	0x3f7b07c3	0.9805872
51	0x3f8298c2	1.0202868
52	0x3f7cbc14	0.98724484
53	0x3f7e3ae3	0.99308604
54	0x3f851039	1.0395576
55	0x3f82812f	1.0195674
56	0x3f7f2b61	0.99675566
57	0x3f856648	1.0421839
58	0x3f7e142a	0.9924952
59	0x3f793660	0.97348595
60	0x3f7ceb41	0.9879647
61	0x3f773a19	0.96573025
62	0x3f7f89a4	0.998194
63	0x3f7bc331	0.98344713

ln.bias f4 [64]
0	0xbcc1f2cc	-0.023675345
1	0xbcdbe5cf	-0.02684298
2	0xbcc93695	-0.02456216
3	0xbcef5efc	-0.029220097
4	0x3c9fcbe6	0.019506406
5	0xbcacc008	-0.021087661
6	0xbcf5dd6a	-0.030012805
7	0xbbab22f7	-0.005222674
8	0xbc0f41b6	-0.008743694
9	0xbd66c475	-0.0563397
10	0x3cda3b1d	0.026639516
11	0x3b4f753b	0.0031655568
12	0x3ca6b883	0.020351654
13	0x3d386535	0.045018394
14	0xbc82c58e	-0.015963342
15	0xbbde2183	-0.0067788973
16	0x3b895cc9	0.004191969
17	0xbd16a0b3	-0.03677435
18	0x3c26fc43	0.01019198
19	0x3c20b44d	0.009808612
20	0xb9fd1a2c	-0.0004827542
21	0xbace2cfb	-0.0015729958
22	0xbd1a7fc2	-0.037719496
23	0xbc8bb5cd	-0.017054463
24	0xbd062ea8	-0.03275934
25	0x3cab22f9	0.0208907
26	0x3cd8b993	0.026455676
27	0x3c91f5ed	0.017817462
28	0xbcb05f54	-0.021529831
29	0x3d29824e	0.041384034
30	0xbb9b31e5	-0.0047361725
31	0x3c37e550	0.011224106
32	0xbc95951e	-0.018259581
33	0xbb87745a	-0.0041337432
34	0xb9908352	-0.00027563662
35	0x3be1e316	0.006893526
36	0x3be2aa63	0.0069172843
37	0xbd240a5b	-0.04004894
38	0x3cbde317	0.023179574
39	0x3c5a2d86	0.013316518
40	0xbc32ccb2	-0.010913061
41	0xbcc84ff4	-0.024452187
42	0xbc9e1585	-0.01929737
43	0x3c85c129	0.016327458
44	0x3d0d9897	0.03456935
45	0x3ba1e0f8	0.0049401484
46	0x3b9eb8a6	0.004843789
47	0xbc57fcfb	-0.013182874
48	0xbcb56016	-0.022140544
49	0xbd539bec	-0.05166237
50	0xbd38b50f	-0.045094546
51	0xbc67e6bc	-0.014154132
52	0xbd2636c2	-0.040579565
53	0x3c0664f1	0.008202777
54	0xbd32235e	-0.04349076
55	0xbc649cb3	-0.013953376
56	0x3cdd8567	0.02704115
57	0xbd2ccf97	-0.04219016
58	0x3d173319	0.036913965
59	0x3c6216c0	0.013799369
60	0x3ca64b2f	0.020299522
61	0xbcc38578	-0.023867354
62	0x3c52746c	0.01284514
63	0x3c786042	0.015159668

mlp.0.weight f4 [8, 32]
0	0x3dd3933e	0.103308186
1	0x3d684bb5	0.056712825
2	0xbe35df5e	-0.17760989
3	0xbd85e14b	-0.06537112
4	0xbd1d10fb	-0.038346272
5	0xbe3b5556	-0.18294272
6	0xbbcce07c	-0.0062523466
7	0xbb8e429d	-0.004341437
8	0x3de586e3	0.11207368
9	0xbe49231e	-0.19642302
10	0xbd580809	-0.052742038
11	0x3e3d3f30	0.18481135
12	0xbd9fe467	-0.07807236
13	0xbd1bec7d	-0.03806733
14	0x3de7855c	0.11304733
15	0x3df530ee	0.11972223
16	0xbe125363	-0.14289622
17	0xbd23839e	-0.03992044
18	0xbd9bd857	-0.07609623
19	0xbe1764cf	-0.14784549
20	0xbccb2767	-0.024799062
21	0x3d724d17	0.05915555
22	0xbca6e646	-0.020373475
23	0x3c9eee5a	0.019400764
24	0x3e1f02d4	0.15528423
25	0xbda9c7f0	-0.08290088
26	0x3df1e160	0.11810565
27	0xbd88d128	-0.066805184
28	0xbd835167	-0.06412011
29	0xbd9b917a	-0.07596107
30	0x3e4f3988	0.2023679
31	0xbdfe11b7	-0.124057226
32	0x3d785851	0.0606311
33	0x3e188c47	0.14897262
34	0xbe2e9d0f	-0.170521
35	0x3d834e79	0.06411452
36	0x3dc16a1d	0.094440676
37	0x3cfbd66d	0.030741895
38	0x3c747bd4	0.014922101
39	0xbddba12c	-0.107241005
40	0x3df5592c	0.11979899
41	0xbe5bd700	-0.21468735
42	0xbd89c28c	-0.0672656
43	0xbd6e6b4e	-0.058207802
44	0x3d9cb02c	0.076507896
45	0x3de10adf	0.109884016
46	0x3d16aec3	0.03678776
47	0x3d51c80d	0.051216174
48	0x3c906e12	0.01763061
49	0x3d6ca31f	0.057772752
50	0xbe1684d0	-0.14699101
51	0xbdc3aee8	-0.09554845
52	0x3e615c79	0.22007932
53	0x3d905a5b	0.07048484
54	0x3e24d8df	0.16098355
55	0x3de6da46	0.11272101
56	0x3e30f669	0.17281498
57	0xbda3aa3f	-0.07991456
58	0xbc90d076	-0.017677527
59	0xbe308641	-0.17238714
60	0x3e35344a	0.17695728
61	0xbe0732e6	-0.1320301
62	0xbcde5770	-0.027141303
63	0xbdef5b1d	-0.116873
64	0x3e64459a	0.22292176
65	0x3daefd7b	0.08544441
66	0x3d47cead	0.048781086
67	0xbddea7eb	-0.108718716
68	0xbda35175	-0.07974521
69	0x3e0f53c7	0.13996802
70	0x3bed7bcb	0.0072474233
71	0xbe352c7c	-0.1769275
72	0xbe1cb89a	-0.15304795
73	0xbe02a267	-0.12757264
74	0xbda33ab2	-0.079701796
75	0xbd18ddb2	-0.0373208
76	0xbd73becc	-0.05950813
77	0x3df5854b	0.11988314
78	0x3d6d86fb	0.057990056
79	0xbbfebe5a	-0.0077741565
80	0x3e268f87	0.16265689
81	0x3d7c90e8	0.06166163
82	0xbe1d8a76	-0.1538485
83	0x3d199ec4	0.037504926
84	0xbe265230	-0.1624229
85	0xbe1f8777	-0.1557902
86	0xbcb19009	-0.021675127
87	0x3dc8a63e	0.09797333
88	0xbe4dd204	-0.20099646
89	0x3d902f48	0.07040268
90	0x3d880a04	0.06642535
91	0x3de5fc02	0.11229707
92	0x3d363dfd	0.04449271
93	0x3e38959b	0.1802582
94	0xbd90ba4a	-0.07066782
95	0xba0b875f	-0.0005322601
96	0x3e07db2b	0.132672
97	0xbc0cd2bb	-0.008595164
98	0xbe02ea9d	-0.1278481
99	0xbdde5a3f	-0.10857057
100	0x3d8361b9	0.064151235
101	0x3d9834dd	0.07431958
102	0x3df0ad44	0.11751798
103	0x3def995f	0.11699175
104	0x3e1ea170	0.15491271
105	0x3e31f383	0.17378049
106	0x3e2356f3	0.15951137
107	0xbdff3e59	-0.12463064
108	0x3dca915b	0.098910056
109	0xbd8fdf15	-0.070249714
110	0x3dbd2e43	0.09237339
111	0xbc9a9ba1	-0.018873038
112	0x3cdac93f	0.02670729
113	0x3b065ba0	0.002050139
114	0xb989abde	-0.00026258727
115	0xbd1d95d0	-0.03847295
116	0xbc10a00f	-0.008827223
117	0x3df587af	0.1198877
118	0xbd9b968d	-0.07597075
119	0xbe0dc633	-0.13845138
120	0xbda83179	-0.08212561
121	0xbd5c7fe7	-0.053832915
122	0xbde585d2	-0.11207165
123	0x3d98e6f8	0.07465929
124	0xbb867283	-0.0041030063
125	0xbd426ef4	-0.047469094
126	0x3e3f1913	0.18661909
127	0xbd9be174	-0.07611361
128	0x3de43932	0.11143722
129	0xbe1db9ab	-0.15402858
130	0x3d8293a6	0.06375818
131	0x3d6b84c2	0.057499655
132	0x3dc65184	0.096835166
133	0x3bb5d92b	0.00554957
134	0x3d95c31e	0.07312606
135	0x3dbe8aed	0.09303842
136	0x3d46b2d3	0.048510384
137	0xbe364201	-0.17798616
138	0xbddf2b5b	-0.10896941
139	0xbd8541b2	-0.06506671
140	0xbdb9fef9	-0.09081835
141	0xbd2c42a2	-0.042055734
142	0xbe0e0ecc	-0.13872832
143	0xbc419629	-0.011815586
144	0x3dc05054	0.093903214
145	0xbd809324	-0.06278065
146	0xbd942b7d	-0.07234857
147	0xbdd200d9	-0.10254068
148	0x3d56eaf8	0.052470177
149	0xbd48adf7	-0.04899403
150	0xbd40a023	-0.04702772
151	0xbd7d9f30	-0.06191939
152	0xbe3b5901	-0.18295671
153	0xbe360c21	-0.17778064
154	0xbdad07f7	-0.08448785
155	0x3e26bab8	0.16282165
156	0xbc0da452	-0.008645134
157	0x3dddae36	0.10824244
158	0xbe10233a	-0.14075938
159	0xbdccea8a	-0.10005672
160	0x3ddf1fec	0.108947605
161	0x3dc7aa78	0.09749311
162	0x3d03e109	0.032197032
163	0xbdf350ff	-0.11880683
164	0x3df3e57b	0.11909004
165	0xbd0abe12	-0.03387267
166	0xbd03acf4	-0.032147363
167	0xbd526ff3	-0.051376294
168	0xbe2e18e8	-0.17001688
169	0xbd49c25d	-0.049257625
170	0xbd47da6e	-0.048792295
171	0xbd8842e9	-0.06653387
172	0x3d050d39	0.032483313
173	0xbd2f65be	-0.04282164
174	0x3e2c2bd6	0.16813597
175	0xbdc42404	-0.09577182
176	0xbd8d2d0c	-0.06893358
177	0x3ad663f0	0.0016356688
178	0xbe09af83	-0.13445859
179	0x3e0a1767	0.1348549
180	0x3d2a898f	0.041635092
181	0xbd6b8776	-0.057502232
182	0x3d0c08fb	0.034188252
183	0x3d8b8d70	0.068140864
184	0x3dbde06b	0.0927132
185	0xbd256b02	-0.040385254
186	0x3e0a77e8	0.13522303
187	0x3dea86eb	0.11451515
188	0x3e274ecf	0.16338657
189	0x3dd1ba4c	0.102406114
190	0x3e11d854	0.14242679
191	0xbdb6f3bc	-0.089332074
192	0xbde357dc	-0.11100742
193	0x3e12e03a	0.14343348
194	0xbd364b57	-0.044505443
195	0x3e206e80	0.15667152
196	0x3c503111	0.012707011
197	0xbd3e1212	-0.046403952
198	0x3bcc9aa4	0.0062440205
199	0xbd3a6c9d	-0.045513738
200	0x3dff86b3	0.12476864
201	0xbd8de1ef	-0.06927859
202	0x3d908fe3	0.07058694
203	0x3e1896d1	0.14901282
204	0x3e0b76fc	0.13619608
205	0xbdae75ee	-0.08518587
206	0xbdb50890	-0.08839524
207	0x3d3f0a7b	0.046640854
208	0x3e195ac7	0.14976035
209	0x3d55a4a2	0.05215896
210	0xbe042ee4	-0.12908512
211	0x3e2a7faf	0.1665027
212	0x3d639846	0.05556514
213	0xbcd030ff	-0.025413988
214	0xbda98490	-0.082772374
215	0xbe3597f2	-0.17733744
216	0xbdf68d51	-0.12038673
217	0xbdfe3862	-0.12413098
218	0xbe43eab3	-0.191325
219	0x3e685576	0.22688851
220	0xbdff7f6d	-0.124754764
221	0x3ce5ccad	0.028051699
222	0xbe541d7f	-0.20714377
223	0x3dc29527	0.09501105
224	0x3de2a806	0.11067204
225	0x3e15d8c0	0.14633465
226	0xbe495f41	-0.19665243
227	0xbd2e65a9	-0.04257742
228	0x3daa5d56	0.08318584
229	0xbd954df2	-0.072902575
230	0xbdd6ed67	-0.104945
231	0xbe1aa288	-0.15101063
232	0x3d2bcaff	0.04194164
233	0x3d16d6e5	0.036826033
234	0x3cd8430f	0.026399164
235	0x3caf506b	0.021400651
236	0xbe0c6975	-0.13712104
237	0xbe322259	-0.17395915
238	0xbe30c239	-0.1726159
239	0x3e0b255f	0.13588475
240	0x3b6774cc	0.003531742
241	0x3db3b6e8	0.08775121
242	0xbcf00161	-0.029297533
243	0x3e4733c9	0.19453348
244	0xbe1b3131	-0.15155484
245	0xbcbb8525	-0.022890637
246	0xbcfeaa23	-0.031086987
247	0xbe0909d6	-0.13382658
248	0xbd4171b9	-0.047227595
249	0xbe4f2f7d	-0.20232959
250	0xbbdf793b	-0.0068198717
251	0x3e6de0a6	0.23230228
252	0x3d72ec0d	0.059307147
253	0x3e1e9693	0.15487127
254	0xbe3cf7bc	-0.18453878
255	0xbd50213a	-0.050812937

mlp.0.bias f4 [8]
0	0x3d8808f4	0.06642333
1	0x3e319e6a	0.17345586
2	0x3bbb937f	0.00572437
3	0xbe2b4e0b	-0.1672899
4	0x3d4b347f	0.04961061
5	0xbe0e3e30	-0.1389091
6	0x3dec1dcb	0.1152912
7	0xbe0a8205	-0.13526161

mlp.2.weight f4 [2, 8]
0	0xbda20e89	-0.079129286
1	0xbe888f63	-0.26671895
2	0xbe040ba8	-0.12895072
3	0xbe8a2c62	-0.26986986
4	0x3e89f4b4	0.26944506
5	0xbc4087f6	-0.011751166
6	0x3ec08946	0.3760473
7	0x3e4cef1a	0.20013085
8	0x3dfe748b	0.124245726
9	0x3eabcbd7	0.33553955
10	0xbeaa68c2	-0.3328305
11	0xbe835626	-0.25651664
12	0x3a955cec	0.0011395491
13	0xbe9b00c9	-0.30274037
14	0x3991d51a	0.00027815328
15	0xbe07fd28	-0.13280165

mlp.2.bias f4 [2]
0	0x3d19cc6b	0.037548464
1	0x3e37d88a	0.17953697
