compare_models/GCN/model.pt (torch, 141399 bytes, 6 tensors)

w_list.0 f4 [200, 128]
0	0xbcf9cf33	-0.030494308
1	0x3cd7e9f8	0.026356682
2	0xbdcd4095	-0.10022084
3	0x3d2b737a	0.041858174
4	0x3e06fce5	0.13182409
5	0xbde1c5b3	-0.11024036
6	0x3d46cf90	0.04853779
7	0x3def24b9	0.11676926
8	0xbe08e089	-0.13366903
9	0xbd97676d	-0.07392774
10	0x3bf3233f	0.007419973
11	0x3ab93aff	0.0014131962
12	0xbe051b9e	-0.12998816
13	0x3c854ab1	0.016270967
14	0xbc63aeb8	-0.013896637
15	0xbdcb34b6	-0.09922163
16	0xbd3eab10	-0.046549857
17	0x3dbcdca5	0.09221772
18	0xbd748df6	-0.059705697
19	0xbd827ce4	-0.06371477
20	0xbe0368fd	-0.12833019
21	0xbd869d1f	-0.06572937
22	0x3e05928e	0.13044187
23	0xbdbdc3ab	-0.09265836
24	0xbc80dbf6	-0.015729886
25	0x3daa4095	0.08313099
26	0x3e079fd6	0.13244566
27	0x3df5148e	0.11966811
28	0xbe06fa85	-0.13181503
29	0xbd5a2ab9	-0.0532634
30	0x3c5f462f	0.013627573
31	0xbd3e9cb5	-0.046536166
32	0x3e1602a7	0.1464945
33	0xbd71b381	-0.05900908
34	0xbcccf085	-0.025017032
35	0xbbce61ba	-0.006298271
36	0x3da03e09	0.07824332
37	0x3d92a267	0.07159882
38	0xbd486648	-0.048925668
39	0x3da00e6a	0.07815249
40	0x3d4a7d89	0.049436126
41	0xbdc72a98	-0.09724921
42	0x3bd2b7d9	0.0064306078
43	0xbd09447c	-0.033512577
44	0xbdf5ab51	-0.11995567
45	0x3d0618a7	0.032738354
46	0x3dfa2bba	0.122153714
47	0xbde3cf6d	-0.11123548
48	0x3d25b107	0.04045203
49	0xbda3f482	-0.080056205
50	0x3dee2602	0.11628343
51	0x3d3bf075	0.045883615
52	0x3d4887f4	0.04895778
53	0xbd9d26e2	-0.07673432
54	0xbdcf06d9	-0.10108728
55	0x3dcdce10	0.10049069
56	0x3ddade48	0.10686928
57	0xbd014202	-0.03155709
58	0xbdf9a990	-0.121905446
59	0x3e0550fe	0.13019177
60	0xbd984ed2	-0.07436909
61	0xbdbc336b	-0.09189495
62	0x3bb25642	0.0054424116
63	0xbdba0971	-0.09083832
64	0x3c31e8fd	0.010858771
65	0xbdfc845d	-0.12329934
66	0xbd55e3e6	-0.052219294
67	0x3da0d03b	0.07852217
68	0xbd05ce81	-0.03266764
69	0xbe0f7959	-0.14011134
70	0xbc9880e0	-0.01861614
71	0x3dafc9af	0.0858339
72	0x3dac0100	0.08398628
73	0xbd938430	-0.07202947
74	0xbcc0c654	-0.02353207
75	0xbcf460a2	-0.029831234
76	0x3c7b58ee	0.015341027
77	0x3ca13674	0.019679286
78	0xbcd34e81	-0.02579427
79	0xbde56f95	-0.11202923
80	0x3d273a96	0.040827356
81	0xbd3b7b96	-0.045772158
82	0xbe0b451a	-0.13600579
83	0x3d59f097	0.05320796
84	0x3cbe6b34	0.023244478
85	0x3db92c86	0.09041695
86	0xbded8925	-0.11598424
87	0x3d70bc8e	0.05877357
88	0x3e0806c3	0.1328383
89	0xbce53699	-0.027980136
90	0xbe2ce619	-0.1688465
91	0xbc913710	-0.017726451
92	0xbc8c8d95	-0.017157355
93	0x3d614c13	0.05500419
94	0x3dab930b	0.083776556
95	0xbd2f15eb	-0.042745512
96	0x3d15e10b	0.03659157
97	0xbdbf5f6a	-0.09344371
98	0x3d56639a	0.05234108
99	0xbdca198e	-0.098681554
100	0x3e169295	0.14704354
101	0x3d5e7891	0.0543142
102	0x3c3cedd3	0.011531311
103	0x3dd2982a	0.10282929
104	0x3dcb7230	0.09933889
105	0x3de00e73	0.10940256
106	0xbc16c48c	-0.009202134
107	0x3dafc75c	0.08582947
108	0x3dcce990	0.10005486
109	0x3cd216b1	0.025645586
110	0x3d5cb5fb	0.053884488
111	0xbd758770	-0.059943616
112	0x3c93d17f	0.018044231
113	0xbdb45afd	-0.08806417
114	0xbde5e015	-0.11224381
115	0xbdcbe972	-0.099566355
116	0xbddcd92b	-0.10783609
117	0x3d855724	0.065107614
118	0x3c439ec3	0.011939707
119	0x3dd81bb2	0.105521575
120	0x3cda9230	0.026681036
121	0x3dcfeda7	0.101527505
122	0xbd3f261c	-0.046667203
123	0xbdf26729	-0.118360825
124	0xbd8d96c8	-0.06913525
125	0x3d64d10f	0.055863436
126	0xbdbcf2bf	-0.09225988
127	0x39b5fcda	0.000347114
128	0x3b45eca9	0.0030200875
129	0x3aa98a4c	0.0012934892
130	0xbcdd52ba	-0.027016986
131	0xbdd5f987	-0.10447984
132	0xbd8cc8db	-0.06874248
133	0x3e01c7e7	0.12673913
134	0xbd8a683d	-0.06758163
135	0x3e1c428e	0.15259764
136	0xbd92392d	-0.07139812
137	0xbd1f1fa5	-0.038848538
138	0xbdd48ea4	-0.10378769
139	0x3daa237d	0.0830755
140	0x3d29352c	0.041310474
141	0x3df1c34a	0.118048266
142	0x3ce90aae	0.028447475
143	0x3daef7ec	0.08543381
144	0x3d3387c7	0.04383066
145	0xbdce2e34	-0.10067406
146	0xbdb5e5a0	-0.08881688
147	0x3d65ba67	0.05608597
148	0x3ca41a5e	0.020032104
149	0x3cbc9b59	0.023023294
150	0xbd421976	-0.047387563
151	0xbdb46f54	-0.08810297
152	0x3da95ef1	0.08270062
153	0xbd88c0d0	-0.06677401
154	0xbd2c7618	-0.04210481
155	0x3da52c59	0.08065099
156	0x3e05d31a	0.1306881
157	0xbdce3add	-0.10069821
158	0xbd3fd540	-0.04683423
159	0xbd96e489	-0.07367808
160	0xbe1079ff	-0.14109038
161	0x3dddd713	0.10832038
162	0xbdef0020	-0.11669946
163	0xbe12a1e5	-0.1431957
164	0xbdec11fc	-0.11526868
165	0x3d0f1e13	0.03494079
166	0xbdefbfeb	-0.11706527
167	0x3df849ab	0.12123426
168	0x3dd39c9e	0.10332607
169	0x3dcb8e87	0.09939294
170	0xbdac74db	-0.08420726
171	0x3e07cb50	0.13261151
172	0xbdf66a71	-0.12032021
173	0x3da3d710	0.08000004
174	0x3c59c16e	0.013290746
175	0x3cc4e50a	0.024034996
176	0x3ca9cbc8	0.020727053
177	0xbd9721e6	-0.073795125
178	0xbe09c064	-0.13452297
179	0xbca5c1c1	-0.02023399
180	0xbd90fe7f	-0.07079791
181	0x3ddac054	0.10681215
182	0x3d1ce5c9	0.038305078
183	0xbe082b86	-0.13297853
184	0x3bfbd6ab	0.0076855025
185	0x3d87812c	0.066164345
186	0x3d254338	0.040347308
187	0x3db10298	0.08643073
188	0x3d96890b	0.073503576
189	0xbd09621a	-0.033540823
190	0x3dcc1708	0.0996533
191	0x3d1354f3	0.035969686
192	0x3d8288fe	0.063737854
193	0x3e1e10d4	0.15436107
194	0x3d8925be	0.06696652
195	0x3de5f582	0.112284675
196	0x3bae405e	0.0053177318
197	0x3d1e6318	0.038668722
198	0xbdd7e81d	-0.10542319
199	0x3e0d2d08	0.1378671
200	0x3d9f3a2a	0.07774766
201	0xbdcc9a21	-0.09990335
202	0x3d9671fa	0.07345958
203	0xbd90050b	-0.07032212
204	0xbe0d04de	-0.13771388
205	0x3d59ef0c	0.05320649
206	0xbd948e37	-0.07253688
207	0x3dc6de35	0.097103514
208	0x3cb6d7c6	0.022319686
209	0x3db84330	0.0899719
210	0xbdb906a6	-0.09034471
211	0xbdf92f96	-0.121672794
212	0x3deb5c08	0.11492163
213	0x3d4c2cb1	0.04984731
214	0x3c5b6ea7	0.013393081
215	0xbbbc85fe	-0.005753278
216	0x3de53fea	0.11193831
217	0xbdc52ed6	-0.09628074
218	0x3e19e74e	0.15029642
219	0x3e0376fc	0.12838358
220	0xbd411f1b	-0.047148805
221	0xbd1707ee	-0.036872797
222	0xbe055912	-0.13022259
223	0x3dc7fe9c	0.0976536
224	0x3d8cc03b	0.068726026
225	0x3d269f6c	0.04067938
226	0xbdbbf1bd	-0.09176967
227	0x3c8d4105	0.017242918
228	0xbd888f58	-0.06667966
229	0xbc92f925	-0.017941067
230	0x3e04baa0	0.12961817
231	0x3de32c85	0.11092476
232	0xbd791afd	-0.060816754
233	0x3d9176cc	0.07102737
234	0xbdd0419b	-0.10168763
235	0x3d3445a6	0.044011734
236	0x3e19ad77	0.15007578
237	0xbc55f99f	-0.013060003
238	0xbc7fde2c	-0.015616935
239	0x3d51c49b	0.05121289
240	0xbc2aff87	-0.010436899
241	0xb9f33115	-0.0004638514
242	0xbd1d59c7	-0.038415696
243	0x3d9efeb5	0.07763425
244	0x3da63ad9	0.08116693
245	0x3d8eebfe	0.06978606
246	0xbdc69e58	-0.096981704
247	0x3ce618bf	0.028087972
248	0xbde3f829	-0.11131317
249	0x3dad244f	0.08454191
250	0x3dbe0c3b	0.092796765
251	0xbd6eeb05	-0.0583296
252	0xbdc3db1e	-0.09563278
253	0x3bcb8ff5	0.0062122294
254	0x3da78aa4	0.081807405
255	0x3d97d727	0.07414084

w_list.1 f4 [128, 64]
0	0x3d4d3edd	0.05010878
1	0xbcb7149f	-0.0223487
2	0xbcf2ddad	-0.029646719
3	0xbcd3ba25	-0.025845597
4	0x3d1f76d0	0.038931668
5	0x3d89cd5d	0.06728623
6	0x3cffde09	0.031233804
7	0x3e269dbb	0.16271107
8	0xbe440c06	-0.19145212
9	0xbe819f5b	-0.2531689
10	0xbbf493ab	-0.0074638925
11	0x3dc85770	0.097823024
12	0xbe92a2e9	-0.28639916
13	0xbd921883	-0.071335815
14	0xbd0542b2	-0.03253431
15	0xbe0979a3	-0.13425307
16	0xbe2769f9	-0.16349019
17	0xbcb6c171	-0.022309037
18	0xbe4e0b41	-0.2012148
19	0x3d065325	0.032794137
20	0x3c05716a	0.008144716
21	0x3d613726	0.054984234
22	0xbc8720aa	-0.016495068
23	0xbdbc1e80	-0.09185505
24	0x3d7b5b24	0.061366215
25	0xbde479e6	-0.11156063
26	0x3b7086e7	0.0036701502
27	0xbd2ec314	-0.04266651
28	0xbdcac676	-0.09901135
29	0xbda84071	-0.08215416
30	0xbe1950f7	-0.14972292
31	0xbdb7dfad	-0.0897821
32	0xbd9ad59b	-0.07560273
33	0x3e05b681	0.13057901
34	0xbd81c490	-0.063363194
35	0xbb0811ef	-0.0020762642
36	0x3d9b8211	0.075931676
37	0x3de3221b	0.110904895
38	0xbdbd4985	-0.09242538
39	0xbe097c1b	-0.13426249
40	0xbd4731ce	-0.04863148
41	0x3dbc9694	0.09208408
42	0xbdbfc9b1	-0.093646415
43	0xbe11e53f	-0.14247607
44	0xbe6a0cb8	-0.22856414
45	0xbc083e95	-0.008315702
46	0x3c545417	0.012959502
47	0xbe64011d	-0.2226605
48	0x3be2a507	0.0069166454
49	0xbc8f3c4e	-0.01748481
50	0x3e0d76f8	0.13814914
51	0x3df5dd70	0.120051265
52	0xbd60361f	-0.054739114
53	0x3bddd5cc	0.0067698713
54	0x3d88eb29	0.06685478
55	0x3dd48b68	0.10378152
56	0xbdd12fe8	-0.102142155
57	0xbd9cc67e	-0.07655047
58	0xbc941a0d	-0.018078828
59	0xbe6ebfe1	-0.23315383
60	0x3e1e5a22	0.1546407
61	0x3d9b1347	0.07572036
62	0x3c67a560	0.01413855
63	0x3d98d4cc	0.07462463
64	0xbcb2ccc2	-0.021826152
65	0x3e0d83ce	0.13819811
66	0x3e2f8d08	0.17143643
67	0xbe1cea29	-0.153237
68	0x3d2b0be3	0.041759383
69	0x3de9ab93	0.11409678
70	0x3d966881	0.07344151
71	0xbd9c8572	-0.0764264
72	0x3ee04653	0.43803653
73	0x3e4cbf75	0.1999491
74	0x3e76e132	0.24109343
75	0xbe2d3e6e	-0.16918346
76	0x3d95bb2f	0.07311093
77	0x3effd5f5	0.49967924
78	0x3e556f2d	0.20843191
79	0xbdea665b	-0.11445304
80	0xbe985fd1	-0.29760602
81	0x3dba8823	0.09107997
82	0x3eae0fad	0.33996335
83	0xbe8fa4fb	-0.28055558
84	0x3eb9451a	0.36185533
85	0xbe3c68bd	-0.1839933
86	0x3e89becc	0.2690338
87	0x3eb5057c	0.35355747
88	0xbe61a7d2	-0.22036675
89	0x3e14c772	0.14529207
90	0x3e3da001	0.18518068
91	0x3ee6885e	0.45025915
92	0xbe057b44	-0.13035303
93	0x3eb481c8	0.35255265
94	0x3e4ad122	0.1980634
95	0x3eb4f135	0.35340276
96	0x3de2e280	0.11078358
97	0xbe4b8710	-0.19875741
98	0x3ec25c91	0.37961248
99	0x3ed7a179	0.4211538
100	0x3e64ed59	0.22356166
101	0xbc19ffaa	-0.009399334
102	0x3dfb3bb0	0.12267244
103	0xbe5b4034	-0.2141121
104	0x3b47562a	0.0030416348
105	0xbe076ebf	-0.1322584
106	0x3d72ff9e	0.059325807
107	0x3c815bb3	0.015790796
108	0x3da330b8	0.07968277
109	0x3e6f92ce	0.23395845
110	0x3e432749	0.19057955
111	0x3e58b7b1	0.21163823
112	0xbe17c56e	-0.14821407
113	0x3e083081	0.13299753
114	0x3b5850ee	0.0033007222
115	0xbd5425a4	-0.05179371
116	0x3eb8405d	0.35986605
117	0x3e60eff2	0.21966532
118	0x3e46b652	0.19405487
119	0xbe47d0af	-0.195132
120	0xbe120ab1	-0.14261891
121	0x3ec3d035	0.38244787
122	0x3e394fb7	0.18096815
123	0x3ecd1ab0	0.40059423
124	0xbe01a7d9	-0.12661685
125	0x3e62875d	0.2212195
126	0xbdc58c6d	-0.09645925
127	0x3d90d921	0.07072664
128	0x3de35850	0.11100829
129	0x3c8fc4f4	0.01754997
130	0xbe1cce1a	-0.15312997
131	0xbda0d273	-0.0785264
132	0x3df4f748	0.11961228
133	0x3d7a9617	0.061178293
134	0x3e63f0e1	0.22259857
135	0x3e0a03a3	0.1347795
136	0x3dab74c8	0.08371884
137	0xbe089652	-0.13338593
138	0x3cba13ba	0.022714484
139	0x3d94cba1	0.07265402
140	0xbe4ad7f5	-0.19808944
141	0x3e0ca617	0.13735233
142	0x3d8db2a7	0.06918841
143	0x3d5223ac	0.05130355
144	0x3e09f3cf	0.13471912
145	0xbe12758e	-0.14302656
146	0x3e1b47d3	0.15164118
147	0xbc410857	-0.0117817735
148	0xbded579f	-0.11588978
149	0xbd733254	-0.05937417
150	0xbd4283d1	-0.04748899
151	0xbc02e3b5	-0.00798886
152	0xbe03392d	-0.1281478
153	0xbe150a2f	-0.14554666
154	0x3debe783	0.11518767
155	0x3e60940d	0.21931477
156	0xbe2d6f2f	-0.16936944
157	0x3c00d801	0.007863999
158	0x3b8f22f0	0.0043681785
159	0x3e15eafe	0.14640424
160	0xbe0391b0	-0.12848544
161	0xbe04e19d	-0.1297669
162	0xbd8ad075	-0.06778041
163	0x3bba15cc	0.005678868
164	0xbca0f3db	-0.01964753
165	0x3d635e32	0.055509754
166	0x3cf5492f	0.029942123
167	0xbcc040f2	-0.023468468
168	0x3d66acba	0.05631707
169	0x3d574e63	0.05256499
170	0xbe10177d	-0.1407146
171	0xbdffa79d	-0.124831416
172	0x3dd3dd9f	0.10345005
173	0x3e58c324	0.2116819
174	0x3db30eb6	0.0874304
175	0xbd269250	-0.04066688
176	0xbdc8b642	-0.09800388
177	0xbdc1b691	-0.0945865
178	0xbe32f201	-0.1747513
179	0x3d9b2b66	0.07576637
180	0x3e096d0d	0.13420506
181	0x3e237e0b	0.1596605
182	0x3d6bf4ae	0.05760639
183	0x3ded6de6	0.11593227
184	0x3da319c0	0.07963896
185	0xbdfe9ed5	-0.124326386
186	0x3c9484e7	0.018129779
187	0x3d60f8f6	0.054924928
188	0x3dd1473d	0.10218666
189	0xbdd60159	-0.10449476
190	0xbe60b43f	-0.21943758
191	0x3e8873d7	0.2665088
192	0xbdf34dfb	-0.11880108
193	0x3db932ff	0.0904293
194	0xbe31abf1	-0.17350747
195	0xbc27fd5c	-0.010253277
196	0x3cf0d892	0.029400144
197	0xbbcc436a	-0.0062336223
198	0xbd8fff21	-0.07031084
199	0x3a98286a	0.0011608724
200	0xbe12e0b6	-0.14343533
201	0xbc919f28	-0.017776087
202	0xbe09cffb	-0.13458245
203	0xbdfa9583	-0.12235548
204	0xbdfa3b75	-0.12218372
205	0xbe0cddc1	-0.13756467
206	0xbdc613fb	-0.0967178
207	0x3d8d56fd	0.06901357
208	0xbdf3b496	-0.118996784
209	0xbd7a7a8e	-0.061152034
210	0xbd217913	-0.039422106
211	0xbe17677c	-0.1478557
212	0xbdd6b483	-0.10483649
213	0xbc3671b2	-0.0111355055
214	0x3e04f9f4	0.12985975
215	0xbcef6bc3	-0.02922619
216	0x3e26441c	0.16236919
217	0xbde458e6	-0.111497685
218	0xbe1c3e32	-0.152581
219	0x3ce99220	0.02851206
220	0x3d301b61	0.04299486
221	0x3e2aec39	0.16691674
222	0xbd9a4520	-0.07532716
223	0xbd3a352a	-0.045460857
224	0x3c4623ee	0.012093527
225	0xbdec2aaf	-0.11531579
226	0x3ded635e	0.115912184
227	0xbd679ecb	-0.05654792
228	0x3d558f8e	0.052138858
229	0xbd285e88	-0.041105777
230	0xbd0887c5	-0.033332605
231	0x3d8c930d	0.06863985
232	0xbde69cf1	-0.11260403
233	0xbd878268	-0.0661667
234	0x3cb4cc90	0.0220702
235	0x3de21c4d	0.11040554
236	0x3d82b78e	0.063826665
237	0xbc9f306f	-0.019432275
238	0xbe34b2f4	-0.1764639
239	0x3d20abca	0.03922633
240	0x3dd53a4a	0.104115084
241	0xbe1a8b8f	-0.150923
242	0xbd806822	-0.06269862
243	0xbe00e1ec	-0.12586182
244	0xbd0fbe87	-0.03509381
245	0xbc45c80c	-0.012071621
246	0xbe05ee15	-0.13079102
247	0xbdf2e11b	-0.11859342
248	0x3c2d70f3	0.010586011
249	0x3dd1f785	0.10252289
250	0xbe1ab504	-0.15108114
251	0x3dbe24df	0.09284376
252	0xbd874a20	-0.06605935
253	0x3d8d9ddb	0.06914874
254	0x3d4c0613	0.04981048
255	0xbe45c9ca	-0.19315258

mlp.0.weight f4 [8, 128]
0	0x3d8d4f3b	0.06899878
1	0xbc56ce02	-0.0131106395
2	0xbd3165a7	-0.043309834
3	0x3ca3a098	0.019974038
4	0x3cd56c90	0.026052743
5	0x3cfbde7a	0.030745734
6	0xbd834a1a	-0.06410618
7	0xbd9c8dfc	-0.07644269
8	0xbe353891	-0.1769736
9	0xbdd1bbb5	-0.102408804
10	0x3d6e2a1f	0.05814564
11	0x3d70fa4b	0.058832448
12	0xbcaf49c7	-0.021397484
13	0xbdae26b0	-0.08503473
14	0xbd3f34e8	-0.046681315
15	0x3ce55704	0.027995594
16	0x3d7ac4ce	0.061222844
17	0x3d9a8f43	0.07546856
18	0xbe6660bd	-0.2249784
19	0x3d1a2dcf	0.037641343
20	0xbe1832b9	-0.14863099
21	0xbc69b463	-0.014264199
22	0xbe36b3b2	-0.17841986
23	0xbe50660c	-0.20351428
24	0x3ba1ffd1	0.004943826
25	0xbe449ec3	-0.19201188
26	0xbdc673ce	-0.09690057
27	0xbe071561	-0.13191749
28	0xbd37ae28	-0.044843823
29	0xbe1473a5	-0.1449724
30	0xbe07d95e	-0.13266513
31	0xbe058244	-0.13037974
32	0x3da89587	0.08231645
33	0x3d6fc0cb	0.05853347
34	0xbe12eed4	-0.14348918
35	0xbe0b3eef	-0.13598226
36	0xbe617dbc	-0.2202062
37	0x3d0b9888	0.034081012
38	0xbc04c298	-0.008103035
39	0x3c88f1ec	0.01671692
40	0xbdac2bc0	-0.08406782
41	0x3cd701e7	0.026246024
42	0x3d5be7e7	0.053687956
43	0x3d851870	0.06498802
44	0x3d506a09	0.050882373
45	0xbd896467	-0.06708603
46	0xbdf30153	-0.11865487
47	0x3cd1b045	0.025596747
48	0xbbfd9e25	-0.0077397996
49	0x3caf8bfd	0.021429056
50	0x3d4c387c	0.049858555
51	0xbd534002	-0.051574714
52	0xbdd2ace7	-0.10286885
53	0xbe13ecb2	-0.14445761
54	0xbd8a3f0d	-0.06750307
55	0x3d84c88c	0.06483564
56	0x3b5a8e14	0.0033348845
57	0xbe2391cc	-0.15973586
58	0x3b2f5f0a	0.0026759529
59	0xbe7e4846	-0.24832258
60	0x3c887b04	0.01666022
61	0xbe459fb2	-0.192992
62	0xbc466acf	-0.012110426
63	0x3c82ddf7	0.015974982
64	0x3dc596b8	0.09647888
65	0xbd7d513d	-0.061845053
66	0x3d8f41e2	0.06994988
67	0x3cbf6462	0.023363296
68	0x3d30c6e9	0.043158446
69	0xbcefbe87	-0.029265655
70	0xbe6e3508	-0.23262417
71	0xbc28ab8d	-0.010294807
72	0x3ded449f	0.11585354
73	0xbc85ebcb	-0.016347786
74	0xbe7aee9c	-0.24505085
75	0x3b468519	0.0030291735
76	0x3de6829d	0.11255381
77	0xbd159f0b	-0.03652863
78	0xbd961243	-0.07327702
79	0xbaf3305d	-0.0018553842
80	0xbc3e1108	-0.01160074
81	0x3b39061f	0.0028232408
82	0x3d932739	0.071852155
83	0x3c3038ce	0.010755731
84	0xbd90f445	-0.07077841
85	0x3ce56d17	0.02800612
86	0x3d616363	0.055026423
87	0x3970bc6c	0.00022958376
88	0x3e0a6896	0.13516459
89	0x3d6e4c3e	0.05817818
90	0xbc83ff65	-0.016112993
91	0xbe69dcbb	-0.22838108
92	0xbd8a0f44	-0.06741193
93	0x3dc90e93	0.09817233
94	0xbdf6fcd4	-0.12059942
95	0xbe22d509	-0.15901579
96	0x3dbc7900	0.092027664
97	0x3da1b7d6	0.07896392
98	0xbca65195	-0.020302573
99	0xbd36a00f	-0.044586238
100	0x3e3067a1	0.17227031
101	0x3d66e37a	0.056369282
102	0x3d51c094	0.051209047
103	0xbd5ffc6b	-0.054684084
104	0x3dc47d83	0.09594252
105	0xbcfb0464	-0.030641742
106	0x3dd091ca	0.10184057
107	0x3c50dd8e	0.012748135
108	0xbd328607	-0.04358485
109	0xbdf4363f	-0.11924409
110	0x3d916ee1	0.071012266
111	0xbd46572f	-0.04842299
112	0xbd6280bc	-0.055298552
113	0xbda4b58f	-0.08042442
114	0x3e4218ae	0.18954727
115	0xbe3b3bf3	-0.18284588
116	0x3daf235b	0.085516654
117	0x3d8a1805	0.067428626
118	0x3bf18839	0.0073709753
119	0x3b74e053	0.0037365153
120	0x3ce23c01	0.027616503
121	0xbcf25421	-0.029581131
122	0x3c95cbfc	0.018285744
123	0xbdfd9fce	-0.12383996
124	0xbd00b69e	-0.031424157
125	0x3da878c7	0.082261615
126	0x3d1587b7	0.03650638
127	0xbc8506b6	-0.016238552
128	0x3d9e1421	0.07718683
129	0xbd164b21	-0.036692742
130	0x3b5ef854	0.0034022527
131	0x3d4b59b8	0.04964611
132	0xbd0e282a	-0.034706272
133	0x3d6f39fe	0.058404915
134	0xbd820a57	-0.063496284
135	0x3ceed2ca	0.029153246
136	0xbe8f4052	-0.2797876
137	0xbd8e46ca	-0.06947096
138	0xbd80b419	-0.06284351
139	0x3d4e4377	0.05035731
140	0xbd1d8e05	-0.03846552
141	0xbe3da407	-0.18519603
142	0x3d4ca631	0.04996318
143	0x3d392075	0.04519697
144	0x3d33dab8	0.04390976
145	0xbd009d8c	-0.03140025
146	0xbeb285dd	-0.34867755
147	0x3d016968	0.031594664
148	0xbe4675c6	-0.19380865
149	0x3d8a7b8a	0.067618445
150	0xbe8f8a4c	-0.280352
151	0xbe911eb5	-0.2834374
152	0xbb79ebfd	-0.0038135045
153	0xbe6ab6e9	-0.22921337
154	0xbdd529ea	-0.10408385
155	0xbe40b20c	-0.1881792
156	0x3ca0efb5	0.019645551
157	0xbea8d620	-0.32975864
158	0xbe558650	-0.20852017
159	0xbe493a17	-0.19651066
160	0x3d8cf850	0.06883299
161	0x3d73dbcf	0.059535798
162	0xbe8e4999	-0.27790526
163	0xbe8edac0	-0.27901268
164	0xbe1aefba	-0.15130511
165	0xbd532180	-0.05154562
166	0x3cc6338d	0.024194503
167	0x3c72b04b	0.014812539
168	0xbcd3e5d6	-0.02586643
169	0x3d85f7c1	0.06541396
170	0xbd256566	-0.040379904
171	0x3cf93ef8	0.030425534
172	0xbd9db9d5	-0.0770146
173	0xbe1d7520	-0.15376711
174	0xbe1fe0be	-0.15613076
175	0xbca6a678	-0.02034305
176	0x3d4405b4	0.047857
177	0xbd839b9a	-0.06426163
178	0xbc960d83	-0.01831699
179	0x3d4ae4ba	0.049534537
180	0xbe55c87f	-0.20877264
181	0xbe3b2621	-0.18276264
182	0xbd7406fb	-0.05957697
183	0x3d635add	0.055506576
184	0x3d97a872	0.07405175
185	0xbe518bcc	-0.20463485
186	0x3ca7a50c	0.020464443
187	0xbea04cf4	-0.3130871
188	0x3da81c34	0.08208504
189	0xbe8f0c02	-0.2793885
190	0x3c22e639	0.009942585
191	0x3b063e54	0.0020483928
192	0xbab583b5	-0.0013848456
193	0x3dd11c90	0.10210526
194	0x3cb38f90	0.021919042
195	0x3da01136	0.07815783
196	0xbc77d23d	-0.015125808
197	0x3d8d285f	0.06892466
198	0xbdfcf6d6	-0.12351768
199	0x3dbf5e5b	0.09344169
200	0x3d71796d	0.05895369
201	0xbdda339f	-0.10654377
202	0xbe102c89	-0.14079489
203	0x3d39d461	0.045368556
204	0x3c55f693	0.013059276
205	0xbd66b930	-0.056328952
206	0x3b085296	0.0020801178
207	0xbc7e9a1d	-0.015539673
208	0xbda5c34c	-0.080938905
209	0x3d08f118	0.03343305
210	0xbe055d03	-0.13023762
211	0xbcfe95bc	-0.031077258
212	0xbd72e477	-0.059299912
213	0xbdb4d36e	-0.088293895
214	0xbca7a3b5	-0.020463804
215	0xbd59051a	-0.05298338
216	0x3d289914	0.04116161
217	0x3d60e95d	0.054910053
218	0x3bb62a49	0.00555924
219	0xbe05e554	-0.13075763
220	0x3d8ee75a	0.069777206
221	0x3dddcf4d	0.10830555
222	0xbe0a3acf	-0.13498996
223	0xbe316b0d	-0.17325993
224	0x3d936836	0.07197611
225	0x3d3024b2	0.043003745
226	0x3c1b2c7f	0.009471058
227	0xbdb8367e	-0.089947686
228	0x3e013b70	0.1262033
229	0x3da17082	0.07882787
230	0xbc8a7245	-0.016900191
231	0xbc808c27	-0.01569183
232	0xbc64a860	-0.013956159
233	0x3d133fc7	0.035949495
234	0x3e0e7084	0.13910109
235	0x3da35191	0.07974542
236	0xbdc325c6	-0.09528689
237	0xbcca9c86	-0.02473284
238	0xbd6b3944	-0.05742766
239	0xbd98e8e5	-0.07466296
240	0x3d608346	0.054812692
241	0xbce3a425	-0.027788231
242	0x3dff1abf	0.12456273
243	0xbddc583f	-0.10759019
244	0x3d66e2f5	0.056368787
245	0x3dd15793	0.102217816
246	0x3dadfc12	0.08495344
247	0xbdc40460	-0.09571147
248	0x3da844e4	0.08216265
249	0xbca719e6	-0.020398092
250	0x3d9d27e4	0.07673624
251	0xbd87d86c	-0.06633076
252	0xbdfc6ac7	-0.12325054
253	0x3d8b28a4	0.06794861
254	0x3d2dab3a	0.042399622
255	0xbcb42011	-0.021987947

mlp.0.bias f4 [8]
0	0xbcb0fd16	-0.021605056
1	0xbd75564d	-0.059896756
2	0xbce9a2b7	-0.028519971
3	0x3d544b65	0.051829714
4	0xbd770b2e	-0.060313396
5	0xbcbb0e6b	-0.022834023
6	0x3e3a87fa	0.18215933
7	0x3d421482	0.04738284

mlp.2.weight f4 [2, 8]
0	0x3f0862ff	0.53276056
1	0x3f2a4f12	0.665269
2	0x3f3beda1	0.7340947
3	0x3ef775d7	0.48332092
4	0x3e73d78c	0.23812693
5	0x3ca7208e	0.020401265
6	0x3e6758fb	0.22592537
7	0x3ed492b5	0.4151818
8	0xbf22e15b	-0.63625115
9	0xbf5778aa	-0.84168494
10	0xbf2e7e34	-0.6816132
11	0xbf02f5e5	-0.51156455
12	0x3e23cccd	0.15996094
13	0x3da105c3	0.07862427
14	0xbec80fba	-0.39074498
15	0xbe8e24a3	-0.27762327

mlp.2.bias f4 [2]
0	0xbf178059	-0.5918022
1	0x3f50f4ad	0.81623346
