compare_models/DyDGI/model.pt (torch, 55251 bytes, 9 tensors)

ip_gcn.bias f4 [32]
000000 a5 d3 c7 3d 70 11 9e 3d cb f0 8f 3d 40 e7 c0 3d
       0.09757165 0.0771817 0.070283495 0.094191074
000010 8e 92 ca 3d 79 41 90 3d f7 2f 94 bd aa 99 94 bd
       0.09891234 0.07043738 -0.07235711 -0.072558716
000020 5f db ac bd b9 ab 90 3d 78 7b 79 3d 2d 35 b1 bd
       -0.08440279 0.070640035 0.060908765 -0.086527206
000030 89 72 cd bd 7c f9 b0 bd 0d 9f c2 bd 18 ea bf bd
       -0.100316115 -0.08641335 -0.09502993 -0.09370822
000040 03 a6 52 bd 0c ce a7 3d cc d3 88 bd 5f 09 bf bd
       -0.051427852 0.08193597 -0.06681022 -0.09327959
000050 dc 67 85 3d f0 c9 c8 bd 6c 95 7c bd 02 c8 b8 bd
       0.0651395 -0.098041415 -0.061665937 -0.090225235
000060 6c c2 c0 3d ab 88 c1 bd 10 8e c0 3d 57 2e 76 bd
       0.09412083 -0.094498955 0.09402096 -0.060102787
000070 0a 9d 8e 3d 08 ee 8e 3d 65 6d dd 3d 02 ef c8 bd
       0.069635466 0.069789946 0.10811881 -0.09811212

ip_gcn.fc.weight f4 [32, 200]
000000 97 49 d9 3d 09 0d 10 3e d4 ea c2 bd 65 ea 16 3e
       0.10609739 0.14067473 -0.09517446 0.14737852
000010 3b 49 0f bd ba 2b 13 be 1a a8 55 3d 38 c3 a3 3d
       -0.034981947 -0.14372149 0.052162267 0.079962194
000020 0e 86 a3 bb 87 0f 45 bc 41 eb 1b be b6 56 25 3e
       -0.004990346 -0.012027628 -0.15226461 0.16146359
000030 6e 20 61 3b fe 10 4e bc fc f5 df 3d 80 a3 25 be
       0.0034351605 -0.012577293 0.1093559 -0.16175652
000040 a2 cb 14 be a8 99 13 3e 4d e3 0f 3e c5 3f 59 3d
       -0.14530805 0.14414084 0.14051552 0.05303933
000050 b3 90 19 bc 27 26 4a 3d 2d 4e 06 be d8 4d 8d 3d
       -0.009372878 0.04935279 -0.13115759 0.06899613
000060 f9 6c 19 bc 07 da ad bd d3 3b 0f 3e 90 97 c7 3c
       -0.00936436 -0.08488851 0.13987665 0.024364263
000070 04 fd 8d bd 3e 2b 92 bc 7a 48 20 be e7 2f a8 bd
       -0.069330245 -0.017842885 -0.15652648 -0.08212262
000080 40 57 b8 3c 4d 8c 4c 3d 73 58 25 3d 8b c2 ec 3c
       0.022502542 0.04993849 0.040367555 0.028901359
000090 4e a6 d9 3a 86 ab 2e bd 0e fe 12 be f7 b5 8d bb
       0.0016605349 -0.042644046 -0.14354727 -0.0043246704
0000a0 b3 dc a0 3d 99 91 8c bd 4f 80 f1 bc 29 5b fe 3d
       0.07854595 -0.06863708 -0.029480128 0.12419731
0000b0 e2 d7 cb bd 4a ee e4 bc a8 61 51 3c d3 d0 af bd
       -0.09953286 -0.027945656 0.012779631 -0.08584752
0000c0 b3 5c 22 bd cf ed 1c 3e fd 65 0d be 8d e2 ee bd
       -0.039639186 0.15325092 -0.13808437 -0.11664305
0000d0 40 e6 03 be d1 88 59 bd 1c 6d f2 bb c9 8b 0c be
       -0.12880802 -0.053108994 -0.0073982608 -0.13725199
0000e0 f1 e5 0e be 20 83 80 3d 6c 6a a0 3d 31 a3 10 be
       -0.13954903 0.0627501 0.07832798 -0.14124753
0000f0 35 0f 56 bd 7b 5b ee bd 35 e5 77 bd 0d ef 8a bd
       -0.052260596 -0.11638542 -0.060521323 -0.067838766
000100 a1 d6 46 3d a7 aa 9e 3d 68 d1 a6 bd ad 27 17 3e
       0.04854453 0.07747393 -0.0814541 0.14761229
000110 c2 e2 8c bd a0 c7 18 3e 08 86 f6 3d 74 23 d0 3d
       -0.06879188 0.14919901 0.12037283 0.10163012
000120 f8 e6 5d 3d c8 d0 05 be 22 ec 18 3e 20 82 d8 3c
       0.054175347 -0.13067925 0.14933828 0.026429236
000130 98 bf f8 3d 8a 66 45 3d 0e ff 93 3d 70 6e 8c 3d
       0.121459186 0.048193492 0.07226382 0.06857002
000140 da 97 ad bc 0c a6 17 be db f0 93 bd a3 cb d2 bd
       -0.021190573 -0.14809436 -0.07223674 -0.10292747
000150 5b 9c a8 bd 48 35 8b bd 64 69 94 3c 44 a6 1b be
       -0.082329474 -0.06797272 0.01811666 -0.15200144
000160 5e 2e b6 3d 81 f4 88 3c 67 91 70 39 28 10 c9 bd
       0.088955626 0.016718151 0.0002294235 -0.09817535
000170 1c 9a c3 bd 91 3e 84 bd 53 20 2d 3d 17 3e ac 3b
       -0.095508784 -0.06457246 0.042267155 0.005256425
000180 57 9d cd 3d 20 80 f7 bd 9f d2 9c bd df bb ff 3d
       0.10039776 -0.12084985 -0.0765736 0.124870054
000190 e9 94 3d 3d 3b 05 54 3d 63 5c 1e be 77 5a 6a bd
       0.04628459 0.0517628 -0.1546493 -0.05721518
0001a0 8b ed 41 3d c4 7b fb bd ee fa 0b 3b f0 5d 99 bd
       0.04734568 -0.12279466 0.0021359283 -0.0748862
0001b0 32 46 13 3e 7f da de bd eb e5 57 3d 27 6c fb bc
       0.14382246 -0.108815186 0.0527095 -0.03069122
0001c0 95 2e 06 3e 85 28 19 bd 36 b9 18 be d2 05 d5 bd
       0.13103707 -0.037392158 -0.14914402 -0.10401501
0001d0 71 6a d0 bd 13 ef b5 bd 46 3f 85 bd 38 7e e6 bd
       -0.10176552 -0.088834904 -0.06506209 -0.11254543
0001e0 29 66 9b bd d4 bd 73 3d 38 e1 c5 bd 46 02 8a 3d
       -0.07587845 0.059507206 -0.09662098 0.06738715
0001f0 67 9a 00 3d 88 a5 b1 bb fa 27 9a 3c 56 8c f7 3a
       0.03139725 -0.005421344 0.01881789 0.0018886428
000200 51 db 43 bd bf d9 d6 3d ff f4 f1 3d 10 2f 05 3e
       -0.04781658 0.104907505 0.118143074 0.13006234
000210 73 e5 c8 3d 53 02 9c bd a3 55 fc 3d ec 9f c7 3c
       0.09809389 -0.07617631 0.123210214 0.024368249
000220 cd 4b 1c be e3 dd 1a be 50 e2 17 3e ae 25 8b 3d
       -0.1526329 -0.15123706 0.14832425 0.06794296
000230 16 98 a7 bd 9d 30 d4 bd c9 ed de bd 18 d0 1c 3e
       -0.08183305 -0.10360835 -0.10885198 0.15313756
000240 91 ac 19 be 9b e8 21 bd 31 db a5 bd 31 39 12 3e
       -0.15007235 -0.03952847 -0.08098448 0.1427963
000250 82 88 89 bd 39 46 1d 3e c5 72 80 bd d2 6b 38 bd
       -0.0671549 0.15358819 -0.062718906 -0.0450247
000260 37 9e 09 be be 9a 00 bc b1 3d 44 3d be 97 09 be
       -0.1343926 -0.007849393 0.047910396 -0.13436791
000270 ab 9b 1a be 4a 34 b2 bb 41 da d2 3d 62 06 fd 3d
       -0.15098445 -0.0054383622 0.10295535 0.12354733
000280 77 56 ee 3d 3b 8c f3 3d 0c ee 5a 3d 65 ab ff bd
       0.116375856 0.11891981 0.053449675 -0.12483863
000290 47 8e db bd db 22 db 3d 07 e7 ff bd 34 3c a6 3d
       -0.107204966 0.107000075 -0.12495237 0.081169516
0002a0 09 0f 11 3e d8 5a 16 3e 0b 74 d6 3d 83 ba c1 bd
       0.14165892 0.14683092 0.10471352 -0.094594024
0002b0 01 14 45 3d 73 ff 03 3e 31 05 25 bc 0f 2d 8a 3d
       0.04811478 0.12890415 -0.0100720385 0.067468755
0002c0 79 10 bc bd 86 d1 92 3d 6a 5c e2 3d 54 e7 25 bd
       -0.091828294 0.0716887 0.11052783 -0.040503815
0002d0 46 63 66 bd 4b 38 c3 3d bb 20 a0 bd 06 1a c4 3d
       -0.05624702 0.095322214 -0.07818743 0.09575276
0002e0 08 15 8c bd 45 0f 09 be 8e 25 17 3e 0c d1 13 3d
       -0.06839949 -0.13384731 0.1476042 0.036088035
0002f0 e2 7d 6b bd fb a0 78 3d e3 6e d9 bc 46 89 40 39
       -0.057493098 0.060700398 -0.026542133 0.00018361685
000300 e6 79 a6 bd 4d f2 90 3c d3 6e 37 3d 3b 82 95 bd
       -0.08128719 0.017693663 0.044783425 -0.0730023
000310 b7 f7 7c bd d3 50 9b 3d 79 c6 14 be 44 81 8a 3d
       -0.061759677 0.07583775 -0.14528836 0.06762937
000320 47 a7 a8 3d a7 c3 48 3d 0c dc 0e 3d d4 57 64 bd
       0.082350306 0.049014714 0.03487782 -0.055747822
000330 40 08 06 be 64 81 07 be 1a 73 bd bd 98 e7 b0 bd
       -0.13089085 -0.13232952 -0.092504695 -0.08637923
000340 ea 7b 6d 3d 2c 79 9f 3d 87 d3 26 bd b8 8e c9 3d
       0.0579795 0.077867836 -0.040729072 0.098416746
000350 b0 fe 85 3d 42 8d bd 3d ec e5 9a bd 2d ea 10 be
       0.065427184 0.092554584 -0.07563385 -0.14151831
000360 8a 5b d6 bc eb d2 3a 3d 31 4a 3b 3c 4f 0b 0e be
       -0.026166696 0.045611303 0.011431263 -0.13871501
000370 32 ef 12 3e e5 95 be bc 7e a0 20 3c 4a ba de bd
       0.14349058 -0.023264835 0.009803889 -0.108753756
000380 26 81 40 3d 6d af c8 3d a0 e3 26 3e 18 44 2d bd
       0.046998166 0.09799085 0.1629777 -0.042301267
000390 c1 ac 09 3d 30 00 7b bc 71 ec 4f 3d 5b 2a d3 3d
       0.033612017 -0.015319869 0.050762597 0.10310813
0003a0 fc e5 9d 3d ec 45 b8 3d b3 cd 26 bd 58 91 36 bc
       0.07709882 0.089977115 -0.040723514 -0.011143051
0003b0 6d a4 ca 3c 78 96 28 3d f9 34 24 bc e1 0d 99 bc
       0.024736607 0.041159123 -0.010022395 -0.018683376
0003c0 5e c3 95 3d de 3f df 3d 4b 29 16 bd 3b b5 12 3e
       0.07312654 0.109008536 -0.036660474 0.14326946
0003d0 be 5c c9 3d d7 e7 29 3d f9 39 b2 bd ce 77 ff bd
       0.09832142 0.041480865 -0.08702464 -0.12474023
0003e0 ca fe de bd 43 5a a3 bd 97 6a 1f bc 2d b9 a9 bc
       -0.10888441 -0.079762004 -0.009730003 -0.020718182
0003f0 20 41 5a bc ed 94 f2 3d 6b c0 a2 3d fd 35 f5 3d
       -0.013321191 0.118448116 0.07946857 0.11973188

e_gcn.bias f4 [32]
000000 99 5d 26 be 41 44 00 be bf bd f7 bd 08 4f 2b be
       -0.16246642 -0.12526037 -0.12096738 -0.16729367
000010 64 3a 29 be ba 87 d3 bd f9 23 34 3e 49 48 33 3e
       -0.1652618 -0.10328622 0.17591847 0.17508043
000020 e8 a5 48 3e 8e 1d de bd e5 ef dc bd 28 83 32 3e
       0.19594538 -0.10845481 -0.10787944 0.17432845
000030 b8 7f 58 3e 8e c1 4d 3e c1 a3 49 3e 6f 1d 3d 3e
       0.21142471 0.20093367 0.19691373 0.1846826
000040 88 1f 1c 3e fc ee 0f be ab 91 14 3e 2c 09 53 3e
       0.15246403 -0.14056009 0.14508693 0.20608968
000050 ea 07 d2 bd d6 71 43 3e 34 f4 33 3e 96 c2 48 3e
       -0.10255416 0.19086394 0.17573625 0.19605479
000060 26 02 23 be fc e4 44 3e 59 f7 21 be b5 ce 07 3e
       -0.15918788 0.19227976 -0.15817012 0.13262446
000070 cf 21 e6 bd 29 f6 d7 bd fb c9 39 be 45 ec 46 3e
       -0.11236917 -0.10544998 -0.18143456 0.19426067

e_gcn.fc.weight f4 [32, 77]
000000 b1 10 15 be f0 db 9c 3d a6 18 11 3d af e4 66 be
       -0.14557149 0.07659137 0.035423897 -0.22548173
000010 a0 bf 04 3e 37 d9 07 3e 9f c0 06 3e 29 8a 64 3e
       0.12963724 0.13266455 0.13159417 0.22318329
000020 03 6f 42 3e 78 3f 38 be 0f eb 68 be 3a d0 80 be
       0.1898766 -0.17992961 -0.22745918 -0.25158864
000030 c4 81 fe bd fd f7 fa bd 62 71 36 3d cc 92 b6 bc
       -0.124270946 -0.12254331 0.044541724 -0.022286795
000040 74 21 6d 3d bd a6 d3 bc 86 d4 0a be c1 08 08 be
       0.05789323 -0.025836343 -0.13557634 -0.1328459
000050 d7 37 3c be b3 9a c7 3d 76 99 4b 3e f4 87 4c be
       -0.18380676 0.097463034 0.1988276 -0.19973737
000060 ff 26 10 be 63 d6 2c be 78 94 89 bd f1 97 67 be
       -0.14077376 -0.16878657 -0.06717771 -0.22616555
000070 6b 6f 6c be bb 3e df ba af 2e 13 3c 10 3a fd 3d
       -0.23089378 -0.0017032245 0.008983298 0.1236459
000080 05 1c 33 3e 7a 4b b7 bb 57 21 0a be 17 b7 38 be
       0.17491157 -0.0055937143 -0.1348928 -0.18038593
000090 7b 4e 2e be cc 0f 06 be ab 9f 80 be 04 4f 4a be
       -0.17022125 -0.13091964 -0.25121817 -0.19756705
0000a0 66 8b e0 3c 7e 14 d3 bd f9 3b 86 bd 78 e5 dd 3d
       0.02741022 -0.10306643 -0.065544076 0.10834783
0000b0 d5 69 aa bd 5a ff 81 bc 54 82 39 3e 9b da 26 be
       -0.08320967 -0.015868831 0.18116122 -0.16294329
0000c0 a8 2c 2d be dc 95 73 bd 4f 86 2a 3e 97 ac 06 3d
       -0.16911566 -0.05946909 0.16652797 0.03287944
0000d0 f2 17 a3 bd 90 ad 29 3d 5a 73 1c 3e 72 4d 9e bd
       -0.079635516 0.041425288 0.15278378 -0.07729615
0000e0 93 b1 0a 3e bf 1c 45 be 33 d6 01 be 80 c9 16 be
       0.13544302 -0.19249247 -0.12679367 -0.14725304
0000f0 d2 40 3d 3e 89 24 73 be 5e 62 61 bd 30 e1 5f be
       0.18481758 -0.23744406 -0.05502545 -0.21863246
000100 c7 d8 5c be 8e 25 f8 bc 28 87 6d be ab d8 66 bc
       -0.21567069 -0.030291345 -0.2319609 -0.014089744
000110 34 33 33 3d 01 3b 62 3c b0 cc 2b be 52 6e 55 be
       0.043750003 0.013808013 -0.16777301 -0.20842865
000120 b7 a9 d2 3d ad a8 59 be 06 60 1a 3e cf c4 76 3c
       0.10286277 -0.21255751 0.15075693 0.015061571
000130 9d 1f 32 be d3 a7 3c be 40 90 7e bd 7d 55 97 3d
       -0.17394872 -0.18423395 -0.062149286 0.073893525
000140 67 f1 f3 3c bf 75 b0 3d ea cc aa bd 3a 98 4e be
       0.029778196 0.08616208 -0.083398655 -0.20175257
000150 dd 06 0a 3e 0d 2e 88 bd a2 7f 20 3e ae 66 99 3c
       0.1347918 -0.066494085 0.15673688 0.01872572
000160 c9 ad cb bd db c7 4f be 28 2f d4 39 a1 4f 88 be
       -0.09945256 -0.20291083 0.00040470925 -0.26623252
000170 2d a8 c7 bd 10 89 4e be 29 89 da bd 54 a6 e9 3c
       -0.09748874 -0.20169473 -0.106706925 0.028521694
000180 60 b0 32 3e 30 02 95 bc 61 c0 61 3e d0 d7 e2 bc
       0.17450094 -0.01818952 0.22046043 -0.027690798
000190 1e 72 d2 bd 44 09 50 3d 8a 3f 0e 3e ee 1b c8 3b
       -0.102756724 0.050790086 0.13891426 0.006106845
0001a0 a7 ee 0c be fd d0 01 bd 83 83 1b be 3c de fe bd
       -0.13762914 -0.031693447 -0.15186886 -0.124447316
0001b0 88 99 b8 3c 6f 7f 02 3e 1b 36 3f 3e df 25 fe 3d
       0.022534147 0.12743925 0.18672983 0.12409567
0001c0 73 bd b6 3c 55 23 68 3d 1c c9 4a bc be fa b0 bd
       0.022307133 0.05667432 -0.01237705 -0.08641575
0001d0 ae 12 15 3e 06 53 07 bd a0 3c 5e be 66 49 ad bd
       0.14557907 -0.03303816 -0.21702814 -0.08461265
0001e0 70 5f ae bd fc 68 6c be 68 ff d4 3d cf ae 00 be
       -0.08514297 -0.23086923 0.104002774 -0.12566684
0001f0 30 b6 c0 bd 62 34 8e 3d 91 47 6d bd 8a 08 53 3e
       -0.094097495 0.06943585 -0.05792958 0.20608726
000200 7f 05 3d be 54 1b 3b 3e 75 ae 37 be 83 81 03 3e
       -0.18459128 0.18272144 -0.17937644 0.12842374
000210 b8 8b 30 3d 52 18 48 3e 70 fe 0c be a6 41 00 3e
       0.043101996 0.19540527 -0.13768935 0.12525043
000220 52 ea eb bd e7 59 d2 bd 91 30 81 3b a9 45 11 bd
       -0.115193024 -0.10271054 0.003942557 -0.035466824
000230 a2 16 4e 3e 12 c8 68 be 92 46 0b 3e a7 72 30 be
       0.20125821 -0.22732571 0.13601139 -0.17231236
000240 3b 80 44 3d 2d 5e 3e 3d 65 02 3a be 2b 26 b2 bd
       0.047973853 0.04647653 -0.18164976 -0.08698686
000250 64 5a 2e bd f6 3a c2 bd bf ec 87 ba e3 45 ea 3d
       -0.042566672 -0.09483902 -0.0010370238 0.11439111
000260 90 41 1d be 05 1d 28 3c 28 3b 23 3c 8a 69 35 3e
       -0.15357041 0.010260825 0.009962834 0.17716041
000270 de 8a 4b 3e 4b 5c 10 be 67 30 e9 bd 22 e9 e4 bc
       0.19877192 -0.14097707 -0.11386185 -0.027943198
000280 17 ff e1 3c fa dd 57 be b3 b8 2b 3e ea 50 96 bd
       0.027587457 -0.21080771 0.16769676 -0.07339652
000290 8c 71 78 be 31 ef c3 bd e7 6f 02 3e 2c ce bc bd
       -0.24262065 -0.095671065 0.12738 -0.09219012
0002a0 8a 6c 02 3d a5 d9 87 be e1 fd bd bc c2 0e 09 be
       0.031841792 -0.26533237 -0.023192348 -0.13384536
0002b0 8f 9f 51 be 2a 5b ff bd e2 88 73 be c8 04 2c bd
       -0.20471023 -0.1246856 -0.23782685 -0.041996747
0002c0 1c af fb bd 3e 44 fe bd 5c 9d 1f 3e 0e 2a 1c be
       -0.12289259 -0.1241536 0.15587372 -0.15250418
0002d0 d8 48 61 be c6 54 2e be 13 18 7c bd dc a4 82 3d
       -0.22000444 -0.17024526 -0.061546396 0.06379101
0002e0 b8 78 e4 bd b7 c9 b8 bb 09 e3 0a 3a c9 ee 90 3d
       -0.11155838 -0.0056392807 0.0005298113 0.07076795
0002f0 c6 8e 87 3d ef 66 37 bd 89 05 5b be 5a ea ac 3d
       0.06619029 -0.0447759 -0.2138883 0.084431365
000300 20 88 aa 3d 93 d1 a3 bd ff cf a6 bd 23 2b 62 3e
       0.08326745 -0.079989575 -0.08145141 0.22086768
000310 17 90 02 be a6 42 b2 bd 2c de 56 be c5 30 d2 bc
       -0.12750278 -0.087041184 -0.2098319 -0.02565802
000320 0e cc d5 bd 7d 7d ca bd 35 0e 39 bd 30 86 49 3d
       -0.10439311 -0.09887216 -0.045179565 0.049200237
000330 b3 45 48 3d 50 3b 2d 3e 5f 7a 95 3d 25 2f 29 3e
       0.048894595 0.16917157 0.07298731 0.1652189
000340 0c c5 51 bd e8 20 1c 3e 2d a0 0b be c7 eb 08 3e
       -0.05121331 0.15246928 -0.13635321 0.13371192
000350 48 6e eb bd 2b 54 3d 3e 6b 73 6a bc 70 4b ed bd
       -0.11495644 0.18489139 -0.014309744 -0.11586654
000360 54 76 48 3e 35 98 b2 3d 33 7b 58 3e 51 74 12 3e
       0.19576389 0.087204374 0.21140747 0.14302184
000370 90 d2 3a 3d 1a 01 35 3e 26 c5 ab b9 55 4c 49 be
       0.045610964 0.17676201 -0.0003276255 -0.19658025
000380 6c c1 60 be df 4a 6b 3e 93 51 ea 3d 02 ff 2e 3a
       -0.21948785 0.2297778 0.1144134 0.00066755724
000390 d6 6d 7e bd 24 28 a5 3a 1b eb df bd ca 8d 7d be
       -0.062116466 0.0012600464 -0.10933515 -0.2476112
0003a0 85 02 3d 3e ef 56 6c 3c bb d6 e1 3d 69 21 f8 bd
       0.18457992 0.014425023 0.11027285 -0.121157475
0003b0 90 2d 14 be 9d 5c 6e be 1a 1b 0c 3e a0 99 1c be
       -0.14470506 -0.23277517 0.13682213 -0.15292978
0003c0 af 0b 0d bc da 82 a7 bc 13 da 6a be f3 3f ac 3c
       -0.008608743 -0.020448137 -0.22934751 0.021026587
0003d0 93 5f 6e be 4a 38 9e 3d fa 7b a7 bd e1 6b 38 3e
       -0.23278646 0.0772558 -0.081779435 0.18009903
0003e0 16 10 fc 3d 5d b5 54 be 0c 37 33 3d dc 09 75 be
       0.12307756 -0.2077231 0.04375367 -0.23929542
0003f0 97 37 6a 3d 23 06 3c be 9c 16 48 3b f8 03 86 3d
       0.05718192 -0.18361716 0.0030531054 0.06543726

disc.f_k.weight f4 [1, 32, 32]
000000 5c ef 8b 3d df 03 d6 3d 7a a8 3d 3c d4 6f 9b 3d
       0.068327636 0.10449957 0.0115758125 0.07589689
000010 2b 3b 06 3e 64 6f 80 3d f5 8d de 3d 24 65 65 3c
       0.13108508 0.06271246 0.1086692 0.014001165
000020 7e 38 b8 bb 46 46 39 bc 7b 4e 05 3e 15 ff 8c 3c
       -0.005621969 -0.011308258 0.13018219 0.017211476
000030 80 d2 cf 3d b9 b0 c4 3c 35 cd 93 3c 51 11 06 3d
       0.101475716 0.02401005 0.018042186 0.032731358
000040 11 75 a7 3d 06 3d b7 3d 37 74 c6 3d 61 2c e1 3d
       0.081766255 0.08947186 0.09690135 0.10994793
000050 d1 16 98 3d 5b 1a 10 3d da 13 cc 3c 8a 7f 7b 3d
       0.07426227 0.035181385 0.02491181 0.061400928
000060 56 d9 a7 3c f7 67 e7 3d 64 e1 d5 3d c4 01 00 3e
       0.020489376 0.112991266 0.104433805 0.12500674
000070 31 04 42 bc 0f a1 8f 3c 4f ad 01 3e cb ee e7 3d
       -0.01184182 0.017532853 0.12663768 0.11324843
000080 e5 92 95 bc d3 78 3c 3c 27 3b 0d 3d 4f d3 48 3d
       -0.018258521 0.011503416 0.03448024 0.049029645
000090 ee ff 06 bc c8 ff 8a 3c 7f 12 c1 bc f2 67 6b 3d
       -0.008239729 0.01696767 -0.02356839 0.057472177
0000a0 08 4e 85 3d 70 7f 51 bd ed 10 f7 bb 26 cb c0 3c
       0.06509024 -0.051146924 -0.0075398595 0.023534369
0000b0 c2 a1 5e 3d 66 35 b4 3d ce e9 86 bb d5 58 c1 bc
       0.054353483 0.087992474 -0.004117227 -0.023601929
0000c0 eb da 6c bd 0c 50 ad 3d 9c d5 8c 3d d1 7b cf 3b
       -0.057825964 0.08462533 0.0687668 0.0063318987
0000d0 f9 c2 6d 3d 79 9a 9b 3d af 3b 80 3d 31 2a ad 3d
       0.05804727 0.07597823 0.06261384 0.08455313
0000e0 48 e6 95 3d 5c 39 37 bd 86 46 e8 3c ae 90 47 3d
       0.07319313 -0.044732437 0.02835394 0.04872196
0000f0 a0 7d 0f 3d 98 f4 e9 3c f3 24 49 3d 6c 58 79 3c
       0.035031915 0.028559014 0.049107503 0.015218835
000100 f2 c6 d1 3c fa db 25 3d 69 90 b1 bc 57 40 c3 bb
       0.02560756 0.04049299 -0.021675305 -0.0059585976
000110 30 c2 a2 3d d2 d4 b0 bc 10 dd dd 3c 8f 73 22 3d
       0.079471946 -0.021585856 0.02708295 0.039660987
000120 89 0d cc 3c 67 13 b0 bc 03 b2 02 bb 7a 53 4f bd
       0.024908798 -0.021493627 -0.001994253 -0.05061672
000130 1b 6c 9b 3d 75 05 00 bd 3d 1a e7 bc 4c 31 56 3d
       0.07588979 -0.031255204 -0.028210754 0.052293107
000140 16 15 d2 3c 1e fd 37 bd b6 63 3d bd 4f d3 b7 bc
       0.02564482 -0.044919126 -0.04623767 -0.022439627
000150 67 40 83 bd 1b 05 c4 3a 2e 1b 0e 39 e3 d3 bd 3c
       -0.06408768 0.0014955135 0.000135523 0.023172325
000160 85 f6 83 3b 8c f5 d3 bb e9 a2 86 bc 4a 12 3f 3c
       0.00402719 -0.0064684805 -0.016435103 0.011662075
000170 32 a5 36 3d 8f b2 0d 3d bb 74 99 3d ad ea 09 3d
       0.044591136 0.034594115 0.07492968 0.03367107
000180 bf 0d a2 3d 12 55 95 3c da 87 e5 3d 08 a0 da 3d
       0.07912778 0.018229041 0.11207552 0.10675055
000190 65 11 cf 3d 35 a8 a0 bb f9 00 d3 3d 7c 42 94 3d
       0.101107396 -0.0049028643 0.1030292 0.072392434
0001a0 ac 56 ca bc 73 e8 8a 3a b7 f0 68 3d b3 d4 26 bc
       -0.024699531 0.001059784 0.05687019 -0.010182547
0001b0 ed fa 60 3d de a3 0f bd ba 8d 1d bc bf 08 43 3c
       0.0549268 -0.035068385 -0.00961631 0.011903941
0001c0 35 8a d9 3d 4b 8e 59 bc 1c d2 cb 3d 0f ca cd 3d
       0.10622064 -0.013278554 0.099521846 0.10048305
0001d0 0c 10 74 bc 2c 85 cf 3d 7d b6 d3 bc e5 08 ea bc
       -0.014896404 0.101328224 -0.025843853 -0.028568694
0001e0 bf df ac 3d 1b 38 12 3d 09 fa 4a 3d ba d5 be 3d
       0.08441114 0.035698038 0.04955486 0.09318109
0001f0 9b 5d 1b bd df 1c db 3d 58 bc d3 bc e0 9f b7 3d
       -0.037931066 0.10698866 -0.025846645 0.089660406
000200 dd fe 62 3d 75 4f d7 3d f5 ce 0b 3d b4 9c 27 3e
       0.055418838 0.10513202 0.034132916 0.16368371
000210 dc 8e 1f 3e f2 a1 aa 3d d4 a7 1c 3d 94 88 c1 3c
       0.1558184 0.0833167 0.03824599 0.023624696
000220 3c d9 1e 3e 88 45 09 3e 78 53 63 3d 9e 68 c5 3d
       0.15512556 0.1340543 0.055499524 0.09639095
000230 ca 21 95 3d d8 36 9f 3c 75 93 24 3e c1 a1 89 3d
       0.072818354 0.019435331 0.16071875 0.06720305
000240 de bf d8 3d b6 98 a8 3d 4b c9 01 3d e9 29 ce 3d
       0.10583471 0.08232252 0.03168611 0.100665875
000250 a7 c5 ad 3d 04 a1 14 3d c9 5a 24 3e ac 0e 09 3e
       0.08484965 0.03628637 0.16050257 0.13384503
000260 aa be 1d 3e 98 4c fc 3c 6c 84 a7 3d 29 47 28 3e
       0.15404764 0.030798241 0.08179554 0.16433395
000270 d3 e5 23 3e 59 1b f5 3c fe 44 16 3e 16 c6 66 3d
       0.1600564 0.029920267 0.14674756 0.056341253
000280 97 73 88 bb ee a3 b7 bc ee 38 77 3d 1e df 96 3d
       -0.00416417 -0.022417035 0.060357027 0.07366775
000290 00 e8 9f 3d 71 79 6d 3d 5c bb 4b bd 84 ba 9d 3c
       0.07807922 0.057977144 -0.049739227 0.019253977
0002a0 42 ea a6 3a c3 a3 17 3d 35 84 5e bd 9e ea 84 3d
       0.0012734609 0.03702141 -0.0543253 0.06490062
0002b0 06 d2 81 3d db d5 f0 3c 45 61 02 bb ed 54 ea 3b
       0.06338887 0.02939885 -0.0019894403 0.007151237
0002c0 f7 c4 90 3d c5 f2 09 bd 88 8a b3 bc 72 13 c2 bc
       0.07068818 -0.03367879 -0.021916643 -0.023690913
0002d0 6b f9 b9 bc be 34 13 bd 75 ee 78 3d f1 c3 47 3d
       -0.02270194 -0.03593897 0.060774285 0.04877085
0002e0 b5 00 9d 3d 3e 69 80 bd 06 51 03 3d e0 43 a5 3d
       0.076661505 -0.06270073 0.03205969 0.08069587
0002f0 69 f9 0e bd a8 c1 a8 bb 4d 6d ed bc b8 4b 11 3d
       -0.034905825 -0.0051500387 -0.028982783 0.0354726
000300 54 f0 d2 3b 63 ad 19 bd b7 c0 a4 bd 4b 48 05 be
       0.0064373408 -0.03751887 -0.0804457 -0.13015859
000310 0b 15 b1 bd c7 0a 6e bd 5c 2e 65 bd 6a ef 2b bd
       -0.08646592 -0.058115747 -0.055952415 -0.04197637
000320 6f 0a d4 bd cd cc b9 bd 8c cc 81 bd 06 65 33 bd
       -0.103535526 -0.09072266 -0.06337842 -0.043797515
000330 65 6f e2 bd 26 64 74 bc 01 35 0b be 77 70 3e bd
       -0.11056403 -0.014916455 -0.13594438 -0.046493974
000340 a8 b5 f4 bd 94 12 ed bd 70 96 05 be 0c 7a d8 bd
       -0.11948711 -0.11575809 -0.13045669 -0.105701536
000350 01 1a 93 bd 3c 87 02 be f0 17 a3 bc ea 15 0c be
       -0.07182694 -0.127469 -0.019908875 -0.13680235
000360 c1 ef 2d bd cd f9 c1 bc c4 23 f3 bd 20 2a 0c bd
       -0.042464975 -0.023678685 -0.11872056 -0.03421986
000370 49 4b 9a bd 20 9c 00 bd 41 a0 3a bd 61 f7 ec bd
       -0.07533891 -0.031398892 -0.045562986 -0.11570621
000380 a8 7e 18 be 1c 83 4a bd a5 1b 0c be fc df a9 bd
       -0.14892066 -0.049441442 -0.1368242 -0.08294675
000390 bc dd 12 be c3 8f a2 bd e4 1e f0 bd 00 70 7a bd
       -0.14342397 -0.079375766 -0.11724642 -0.061141968
0003a0 81 03 0a be d0 8c 0f be 4d 2c cb bd e8 a4 f6 bd
       -0.13477899 -0.1401856 -0.09920559 -0.12043172
0003b0 a0 fa e6 bd a9 d7 1c bd 45 af d8 bd b0 7d 30 bc
       -0.11278272 -0.038291607 -0.10580305 -0.010772154
0003c0 6b 4b e1 bd 8b 76 07 bc 43 d6 c3 bd c2 76 fb bd
       -0.11000713 -0.008268009 -0.095623516 -0.12278511
0003d0 7a 29 a7 bc 0e 25 11 be 86 4b b8 bd ec fb 78 bc
       -0.02040552 -0.14174291 -0.0899878 -0.015196782
0003e0 3c ff d9 bc be af de bb d5 7f 0a be ea 2d b3 bd
       -0.026610963 -0.0067958524 -0.13525327 -0.08748992
0003f0 af 57 df bd a5 6e ae bd 75 36 c8 bd 45 8f a6 bd
       -0.10905396 -0.085171975 -0.09776012 -0.08132795

lstm.weight_ih_l0 f4 [64, 32]
000000 89 d3 70 be bd 42 71 3d 1c a0 9c bb ab e0 00 bc
       -0.23518194 0.058901537 -0.0047798287 -0.007866065
000010 88 b2 01 3e 25 72 ab bd 0e 17 48 3d 56 f9 28 3e
       0.1266576 -0.08371381 0.04885011 0.16501364
000020 9a c7 a7 bb 4a 60 3b bd 52 69 87 be ab c3 55 be
       -0.00512023 -0.045746125 -0.2644754 -0.20875423
000030 fd f4 2e be 2e 3e bf bd 1b 88 46 be 5a da 11 be
       -0.17085643 -0.09338032 -0.19387858 -0.14243451
000040 8c 4b 4f bd e7 a9 c7 bd 9b e2 ec bd 11 c6 39 be
       -0.050609156 -0.09749203 -0.11566659 -0.18141963
000050 e2 50 42 be cd 2a 66 3e 08 b7 7a be c7 33 6f 3d
       -0.18976167 0.22477265 -0.24483883 0.058398988
000060 71 4b 3c be cf cf 0c 3e 3a 56 cd bc 76 0a 98 3c
       -0.18388154 0.13751148 -0.02506553 0.018559676
000070 28 f9 40 bd 7a da 4b 3e 0f 0a e8 bd 63 0e 40 be
       -0.047112614 0.19907561 -0.113300435 -0.18755488
000080 e8 06 cf 3c 2b 17 28 3e ec f2 67 bc d6 a6 83 bc
       0.025271848 0.16415088 -0.014157038 -0.016070765
000090 7d 6a 18 be b5 4b 28 3e df 15 05 3e e3 be 00 bc
       -0.14884372 0.1643513 0.12996624 -0.007858011
0000a0 57 f8 94 be c2 aa c2 3d 0a a4 e4 bd 9d f8 fd bd
       -0.29095718 0.09505226 -0.111641005 -0.12400935
0000b0 bb 66 0c be 03 6a 82 3d 01 cf fc 3d a7 48 1d bd
       -0.13711064 0.063678764 0.1234417 -0.038399365
0000c0 6a 43 6c be 2b 47 3a 3d 86 e0 58 be ba aa 65 bd
       -0.23072591 0.045478027 -0.21179399 -0.05607102
0000d0 ad 80 83 3d b9 39 05 3e 70 84 14 3e bb bc 78 3b
       0.06421027 0.130103 0.14503646 0.003795429
0000e0 d3 ea fb bd 61 c5 8b be 0f bd 88 3c 5b 46 8d be
       -0.123006485 -0.27299026 0.016691713 -0.2759274
0000f0 cd 0b 28 be 4c 79 1c 3e 4f cb 0d be 9a 48 32 be
       -0.16410752 0.15280646 -0.13847087 -0.17410508
000100 48 0d 39 be 0b d9 57 3e 37 81 8f 3e 60 b9 8b 3e
       -0.18071473 0.21078889 0.2802827 0.27289867
000110 53 04 81 3b e5 6f 48 bd ad 99 10 3e 3b ed 52 be
       0.003937283 -0.048934836 0.14121123 -0.20598309
000120 91 b5 85 3e 58 36 0b bd aa bb 6b 3e 91 88 26 bd
       0.26115087 -0.033987373 0.23020807 -0.040657584
000130 e3 13 40 3e 6c 6b 8c 3e fe d9 19 3e 42 9e fa 3d
       0.18757586 0.27425706 0.15024564 0.122372165
000140 f9 c8 f4 bd f1 60 96 3c a8 04 4a 3e 78 c4 09 be
       -0.11952395 0.018356772 0.19728339 -0.13453853
000150 9e 70 49 3d f1 e9 18 bd f8 1b 8f 3e 6c 07 72 3e
       0.049179666 -0.03733248 0.27951026 0.23635644
000160 c3 67 ae 3b 0f 6b 97 3b 2b 26 16 be c3 1a 8f 3e
       0.005322428 0.0046209167 -0.14662997 0.27950105
000170 d6 79 4a 3e 34 a9 0a 3e d2 2f 8a 3e 3a 9e 16 be
       0.19773039 0.13541108 0.2698961 -0.14708796
000180 42 ad 55 be 68 3a 81 be ee b2 6a be 78 8a 57 3e
       -0.20866874 -0.25239873 -0.22919819 0.21048915
000190 1c f2 24 3e 6b 41 0a 3d dc bd 4b 3e e6 c2 87 be
       0.16107982 0.033753794 0.19896644 -0.26515883
0001a0 d8 99 4b be 19 1f 4a 3e b8 66 38 bd cf be b7 3d
       -0.19882905 0.19738425 -0.045019835 0.08971941
0001b0 bc b8 32 be 16 63 82 bd b5 78 1e be 5e b3 0e be
       -0.17453283 -0.063665554 -0.15475734 -0.1393561
0001c0 36 99 30 bc 71 e6 9b 3d 9b 17 38 3e c1 df 61 3e
       -0.010778716 0.076123126 0.17977755 0.22058012
0001d0 88 d4 89 3c 7f 3b 33 be 50 c8 74 be 73 8f 05 3e
       0.016824976 -0.17503165 -0.23904538 0.13043003
0001e0 0a e2 37 be 39 9f 09 be 9a 0a 6d 3e 93 c6 86 be
       -0.17957321 -0.13439645 0.23148575 -0.26323375
0001f0 69 d6 aa 3d 61 06 2c be 2b bd 0c be eb 95 15 be
       0.08341677 -0.16799308 -0.13744037 -0.1460797
000200 c8 4b 4d 3e 74 b7 68 3e 8f 7c 66 be b4 ea dd 3d
       0.2004844 0.22726232 -0.22508453 0.10835782
000210 16 a1 0a be 1e fe f5 bc 5c eb 6a 3c e7 a4 e3 3b
       -0.13538012 -0.0300284 0.014338341 0.006947148
000220 38 2c 91 bd 23 39 b4 3d 7b c1 b2 ba 07 f4 c2 bd
       -0.07088512 0.087999605 -0.0013637984 -0.09519201
000230 7f a1 6c bc 57 d6 a0 3d 70 4f c4 3d 77 f2 70 3e
       -0.014442801 0.07853382 0.09585464 0.23529993
000240 e7 6c 07 3e c0 b6 42 3e 71 a4 fb bd 77 c6 8f 3d
       0.13225137 0.19015026 -0.12287224 0.07020276
000250 fc 14 06 be 2c f9 cd 3c d0 60 4d be 3b 12 35 3e
       -0.13093942 0.025143228 -0.20056462 0.17682736
000260 ae 0b 48 3e 40 06 4e bd 3e ba 55 be 21 71 4f 3d
       0.19535705 -0.05029893 -0.20871827 0.050644998
000270 c9 92 7b be 71 71 24 bd 7d 09 30 3e dc a4 3b be
       -0.24567713 -0.04014725 0.1719112 -0.18324608
000280 70 41 4f 3e a1 f8 ca 3d 47 2d 68 be 0a 11 b1 3d
       0.20239806 0.099107035 -0.22673522 0.08645828
000290 17 55 fd 3d 72 83 85 bc 48 9b ce bd 44 ef 22 bd
       0.12369745 -0.01629803 -0.10088211 -0.039778963
0002a0 1b 61 b3 bd b6 a5 38 3c 04 12 27 3e 67 8b f2 bd
       -0.08758756 0.011269977 0.16315466 -0.11842995
0002b0 d7 9e 43 be 49 f1 24 3e 23 a8 c1 bd 9a 8f 72 3d
       -0.19103561 0.16107668 -0.09455898 0.05921898
0002c0 a0 9c 57 be 32 06 21 3e 84 87 03 3e a2 91 11 be
       -0.21055841 0.1572502 0.12844664 -0.14215711
0002d0 b9 a5 55 bd 60 97 df 3d 79 16 35 be f7 81 f2 bd
       -0.05216 0.10917544 -0.17684354 -0.11841195
0002e0 5e 8b 3d 3e a4 63 29 3e ec 03 a6 3d 80 5b 54 3e
       0.18510196 0.16541916 0.08106217 0.2073803
0002f0 f3 5f f9 3d ee 72 5c 3e f5 2d 1d be 5a aa b1 3d
       0.12176504 0.21528217 -0.15349562 0.0867507
000300 9b 7c 34 3d f5 f7 e0 bc 7a 0a 92 3c 3d 94 24 3e
       0.044064146 -0.027461985 0.017827261 0.16072173
000310 54 46 72 3d 6e 64 02 be cd 8e 1d 3e 23 6f 32 bd
       0.0591491 -0.12733623 0.15386505 -0.04356302
000320 97 d1 3b be 43 2c 50 bd 83 60 09 be d5 ca 49 3d
       -0.18341671 -0.05082346 -0.13415723 0.0492657
000330 eb b3 3d 3e ec d9 3f 3e 1c 0c a5 3d 52 86 5f be
       0.18525665 0.18735474 0.0805895 -0.21828583
000340 39 d8 0d 3d db 40 6e be b4 b3 03 be 5d 66 e0 3d
       0.034630034 -0.23266928 -0.1286152 0.10957024
000350 76 84 4c 3e 97 5b 83 be fb 21 07 3e 15 af 90 3d
       0.19972405 -0.25655815 0.13196556 0.07064644
000360 02 91 8a bd 24 5a 04 be b4 31 1b bb 05 c4 34 3e
       -0.06765939 -0.12925011 -0.0023680748 0.176529
000370 e6 b1 44 3e fe 5f 19 be 60 62 43 3e 53 e4 56 be
       0.19208488 -0.14978024 0.19080496 -0.20985536
000380 e3 88 69 bd 21 54 48 3b ab f0 dc 3d 40 76 ac 3d
       -0.05701531 0.0030567723 0.10788091 0.08420992
000390 71 39 5e be 11 80 33 3e ef 07 60 3e 4d dc 4f 3d
       -0.217016 0.17529322 0.21878026 0.050747205
0003a0 47 60 e9 bd 23 32 74 be b3 61 97 3d ab d6 29 3c
       -0.113953166 -0.2384725 0.073916815 0.010366122
0003b0 22 0c 40 3d b2 9a 06 be 0f b3 6d 3e c4 ac 06 3e
       0.04688657 -0.13144949 0.23212837 0.13151842
0003c0 fe 5d 4b be 72 cf 54 be 40 56 37 be 47 70 b6 bd
       -0.19860074 -0.20782259 -0.17903996 -0.08908134
0003d0 46 cd 36 be 9b 7c 11 3e 1b 78 6c be cd 78 2b be
       -0.17851743 0.1420769 -0.23092692 -0.167453
0003e0 6d e2 21 3e 95 a6 89 bd 80 db 75 be b7 57 3c 3e
       0.15809031 -0.06721226 -0.24009514 0.18392836
0003f0 98 ec 20 be 35 a2 d1 3d 1c 37 89 3d ab 59 51 be
       -0.15715253 0.10236017 0.066999644 -0.20444362

lstm.weight_hh_l0 f4 [64, 16]
000000 be 79 51 3e e8 ac 3d 3e 4a 5e 00 bc 03 88 5f 3e
       0.20456597 0.1852299 -0.00783498 0.21829228
000010 49 ac 71 be 7c 4f 5c 3e d2 01 b4 bc 74 3d 45 bd
       -0.23600878 0.21514696 -0.021973524 -0.04815431
000020 db 1d 78 3e f7 d7 63 bd 06 53 4e 3e bd 56 0e 3a
       0.24230139 -0.055625882 0.20148858 0.0005429795
000030 2a 32 11 3e be a5 b1 bd 48 07 89 3e 60 28 5d 3e
       0.14179292 -0.08674191 0.26763368 0.21597433
000040 25 a4 62 3e 8c 06 fa bd 68 68 09 3e 40 95 07 3e
       0.22132929 -0.1220828 0.13418734 0.13240528
000050 a8 28 9e bd 8d 2e 2e be 90 a1 89 3e 34 3f bd bd
       -0.07722598 -0.17009945 0.26881075 -0.09240571
000060 c5 1b 8e 3e d0 07 e6 bd 61 40 8b 3c 3b e9 54 3b
       0.2775556 -0.11231959 0.016998472 0.003248765
000070 61 c7 8c be 56 c3 e6 bb d7 f0 73 3e 5b 8c 3e be
       -0.27495864 -0.007042329 0.23822342 -0.18608229
000080 c5 37 ab 3c 43 64 2a be 94 5f 0f be 92 c0 70 3d
       0.020900616 -0.1663981 -0.14001304 0.0587774
000090 cc 76 e5 bd 86 0b 25 3e a8 a1 c4 bd 19 4f c2 3d
       -0.11204299 0.16117677 -0.09601146 0.09487743
0000a0 a8 0a 67 3e 0e f8 30 be 3f b2 be 3d 55 3b 35 be
       0.22562659 -0.17282125 0.093113415 -0.17698415
0000b0 67 c7 c4 3d 69 32 f0 bd 79 8f 27 be 26 97 31 be
       0.096083455 -0.11728365 -0.16363324 -0.17342815
0000c0 72 57 44 bc de d0 16 3e 49 98 68 3e 2d bb da 3d
       -0.011983739 0.14728114 0.22714342 0.10680232
0000d0 b0 3b 3e 3e ba ca 5a 3e cf a6 c6 bc fd 52 bb bd
       0.18577456 0.21366397 -0.024249462 -0.09146688
0000e0 40 d0 32 be 62 1e 84 be 0b 64 a6 3d 39 6c 60 be
       -0.17462254 -0.2580443 0.081245504 -0.21916284
0000f0 91 08 29 bd 43 08 ec 3d 13 5b aa bd 17 c4 32 3e
       -0.041267935 0.11525013 -0.08318152 0.17457615
000100 79 d6 22 bd 28 f1 d4 bd 2f b1 6b be 81 9c 83 be
       -0.03975532 -0.103975594 -0.23016809 -0.2570534
000110 0f f4 81 3e 08 53 81 3d 5c 95 50 be 01 19 ad 3d
       0.25381514 0.06314665 -0.20369476 0.08452035
000120 30 6e 90 bc 39 de d1 bd fb 8a 07 be fb 89 f9 3b
       -0.017630666 -0.10247464 -0.1323661 0.0076153255
000130 d9 70 0a be 38 bb bc bd 11 e1 58 be 7d c8 bb 3c
       -0.1351961 -0.09215397 -0.21179606 0.022922749
000140 f8 36 c8 bc a3 4e fa 3d be df 6a 3e 1c ed 68 be
       -0.024440274 0.1222203 0.22936913 -0.227467
000150 e0 84 1e bd 0f 7d 5e 3e 2e 77 b0 bc 65 53 8d 3c
       -0.03870094 0.21727394 -0.021541204 0.01725168
000160 53 31 11 3d be e5 5f be 78 50 24 bb 94 84 6a be
       0.03544743 -0.21864983 -0.0025072377 -0.22902137
000170 6f dc 85 bb dd 17 83 be 00 22 64 be 19 2a 27 3e
       -0.0040851156 -0.25604144 -0.22278595 0.16324653
000180 5e 0e 02 3e e0 0c 5f 3d 96 dc b7 3d 46 09 17 be
       0.12700793 0.054455638 0.0897762 -0.14749631
000190 c7 c5 c1 3d b6 5f 3f be be d7 eb 3d 71 c1 7b 3d
       0.09461551 -0.18688855 0.11515759 0.061463777
0001a0 cb 6d 58 bd bf 38 65 be 74 40 de 3d 39 32 1d 3e
       -0.05283908 -0.22384928 0.10852137 0.1535119
0001b0 48 8c 89 bd a4 78 0d 3e 40 42 06 be af 09 56 bd
       -0.0671621 0.13815552 -0.1311121 -0.05225533
0001c0 8e af 5e 3e a2 d3 af 3d fb 1d d0 3d 90 32 08 bc
       0.21746656 0.08585288 0.10161968 -0.008312836
0001d0 c3 27 64 3d 27 e1 32 3e c3 af 4a be 28 e5 5f 3e
       0.055701982 0.17468701 -0.1979361 0.2186476
0001e0 49 a5 13 3e 8f 1d 21 3d a3 82 80 3e 63 d2 de bd
       0.1441852 0.03933483 0.25099668 -0.10879972
0001f0 84 4c 47 bd b3 7e 89 3c 3c 30 54 be b0 cd 09 3e
       -0.048656955 0.016784048 -0.20721525 0.1345737
000200 08 b9 33 be 68 ee 4b bc 9e de 3a be f8 97 db 3d
       -0.17551053 -0.012446977 -0.18248984 0.10722345
000210 0d 1a fe 3b 3c 81 e6 3d 69 c9 83 bd 04 72 5e 3e
       0.0077545703 0.11255118 -0.064349 0.21723181
000220 b1 64 b0 bd a5 15 a3 bc cb 74 d9 3d dc 2b f1 bd
       -0.08612955 -0.019907782 0.106179796 -0.11775944
000230 dc e5 c4 bd 65 84 ea 3d 5c e1 b7 bd b3 a0 2d be
       -0.09614155 0.114510335 -0.08978531 -0.16955833
000240 7b 91 d4 3d 8e be 4f be 47 94 60 3e 27 8b 1c 3e
       0.10379311 -0.20287535 0.21931563 0.15287457
000250 08 d1 5a 3e bc 3c c9 bc 27 b7 46 3e 8a a9 ee bd
       0.21368802 -0.024565093 0.19405805 -0.11653431
000260 3e fc 6b 3e 8e 2d 16 3e b4 a4 72 be 9e b8 35 be
       0.23045442 0.14665815 -0.23695642 -0.17746207
000270 c4 30 67 be 70 de 06 bd 9a c2 b9 bd d3 f8 0e 3e
       -0.22577196 -0.032926977 -0.090703204 0.13962106
000280 1a 23 de bc 77 db b1 bd 00 59 53 3e 1f 1c a2 3b
       -0.027116347 -0.08684438 0.2063942 0.0049472
000290 3b 8b 14 bc e9 2d 39 3d 3a e2 4e be cf 83 3e be
       -0.009066398 0.0452098 -0.20203486 -0.18604968
0002a0 ac 63 9c 3c 60 f4 00 3e f8 4f 27 be 7a 47 b2 3d
       0.019090496 0.12593222 -0.163391 0.08705039
0002b0 46 44 c8 3d b4 d5 1e 3e 6a 3e 52 3e cf de 1c 3e
       0.09778647 0.15511209 0.20531622 0.1531937
0002c0 f1 2b 65 be 54 4f a0 bd e3 3d 1e 3e e9 65 4c 3e
       -0.22380044 -0.07827631 0.15453295 0.1996075
0002d0 1e 87 cf bc 1b 74 33 3e b6 55 77 3e cf 8c 77 3e
       -0.025332984 0.1752476 0.2415379 0.24174808
0002e0 cf 85 2d be cf 5f 0f 3e fd d2 95 bd f5 1f 28 3e
       -0.16945575 0.14001392 -0.073156334 0.1641844
0002f0 8f a5 8b be a2 9c 91 3d 19 32 03 be d4 b8 70 ba
       -0.2727475 0.071099535 -0.1281208 -0.0009182815
000300 df 10 91 be a0 d5 f5 bc f2 da 35 be fb 16 74 be
       -0.28333184 -0.03000909 -0.17759302 -0.23836891
000310 b3 3e f8 3d 0a b7 cc 3c 4a d1 8a 3c ce 05 c4 bd
       0.12121334 0.024989624 0.0169455 -0.0957142
000320 f2 88 44 3c 8b 42 01 be e6 82 ac bd 82 31 90 bd
       0.011995541 -0.1262304 -0.084234044 -0.07040693
000330 f0 20 02 be 29 4d 6e be 47 72 1e be 89 98 30 be
       -0.12707877 -0.23271622 -0.15473281 -0.17245688
000340 02 e6 0b 3d 81 42 01 3e 66 f2 87 3e b6 b8 45 bd
       0.0341549 0.12623025 0.26552123 -0.048271857
000350 b7 39 b6 bd 33 4b 06 3e f9 60 45 be 9e 77 71 be
       -0.08897727 0.13114624 -0.19275273 -0.23580787
000360 b4 35 85 3e ee 06 08 be f2 19 94 bd ca e6 80 3e
       0.26017535 -0.13283893 -0.07231511 0.25176078
000370 ec 75 51 be 84 80 1a be 9c 1d 87 3e 6d 08 26 3e
       -0.2045514 -0.15088087 0.26389778 0.16214152
000380 ab 9e 62 3d e8 6b 14 be 15 87 f5 bc e8 a6 4f be
       0.0553271 -0.14494288 -0.029971639 -0.20278513
000390 6b ab 7c 3d cc 49 3a be af b5 b1 bd 5c 04 7a bd
       0.061686914 -0.18192214 -0.086772315 -0.061039314
0003a0 33 8b 72 3d 04 ca 94 bd cb ab 1d ba c3 c8 78 3e
       0.059214782 -0.07265094 -0.0006014674 0.24295335
0003b0 36 3b ba bd 18 6b 39 bd 0e 1e 38 be d5 79 6e 3e
       -0.09093325 -0.04526815 -0.17980215 0.23288663
0003c0 81 cd 13 3e 46 b6 5d be 04 8b 06 3e 7b 26 5c 3d
       0.14433862 -0.21651563 0.13138968 0.053747635
0003d0 10 1b 6c bd 01 7a 6f 3e 44 bb 6b 3e bc 97 b9 bc
       -0.057642996 0.23386385 0.23020655 -0.02265536
0003e0 1a 20 09 ba 9b 4f e2 3c 36 4a 6c 3e fd 17 46 3e
       -0.0005230919 0.02762585 0.23075184 0.19345088
0003f0 ba 5b 44 be 91 3f d6 bd cf 17 b2 bd ea 92 62 be
       -0.19175616 -0.10461343 -0.086959474 -0.22126356

lstm.bias_ih_l0 f4 [64]
000000 1e 3a ef bd 9c a6 7c be f9 bf f2 3d 57 2e cb b8
       -0.11681007 -0.24672931 0.11853022 -9.688426e-05
000010 7f 6e 9d bd 5f 82 11 3e c3 40 63 3e 45 d8 c5 bc
       -0.07687091 0.14209889 0.22192673 -0.024150977
000020 b7 b8 4b 3e a5 02 14 3e 2d 66 06 3e 1f 16 5e 3e
       0.19894682 0.14454134 0.13124914 0.21688126
000030 40 56 2c 3e 1f 02 19 3d cd b9 c0 bd 8d 95 af bb
       0.16829777 0.03735554 -0.09410439 -0.005358404
000040 21 d5 af 3c a5 96 97 3d 56 04 8b be cf 24 5d 3e
       0.021463932 0.0740178 -0.27151746 0.21596073
000050 ee ae 91 3d 09 56 ee 3d 30 be 10 be 43 7a 45 3e
       0.07113443 0.11637504 -0.14135051 0.1928492
000060 15 bc 52 3d 4e 0c d0 bd 2d f0 98 bc b6 2c 97 bd
       0.0514489 -0.10158597 -0.018669212 -0.07381575
000070 1d bd 29 3d af 2f 47 3e 10 5f 21 3e 6d 18 6e be
       0.041440118 0.19451784 0.1575892 -0.23251505
000080 75 5a 39 3e 9c 24 4e 3e 34 5a 4a bd 97 d6 aa 3d
       0.18100913 0.20131153 -0.04940243 0.08341711
000090 a1 96 85 3e 31 bd 66 be 93 55 32 3e 0f eb 66 be
       0.26091483 -0.22533108 0.17415456 -0.22550605
0000a0 c8 b0 0c be ed bf 3a 3e 4a 08 30 bd 68 cb 17 be
       -0.13739312 0.18237276 -0.042976655 -0.14823687
0000b0 6e 63 43 bd 42 a4 51 3d dc be 4d be e6 4e 34 3a
       -0.047702245 0.05118204 -0.20092338 0.0006878212
0000c0 2c b4 cc bd dd a7 fa 3d f2 93 15 3e 05 31 82 be
       -0.099953026 0.12239049 0.14607218 -0.25428024
0000d0 87 ed 1b 3e ce fa 9c 3d 42 3e 3a be a3 23 4c bd
       0.15227328 0.07665025 -0.18187812 -0.049838673
0000e0 ea 75 73 3d 24 ff 3b be 6f a2 be 3d 25 a9 3d bd
       0.059438623 -0.18359047 0.093083255 -0.046303887
0000f0 cb 4f 4e be 7c 5d 5c be 2e bb a1 3c 9e 8b 40 3d
       -0.20147626 -0.21520036 0.019742575 0.04700815

lstm.bias_hh_l0 f4 [64]
000000 24 40 3c 3e cb 34 23 be 98 4f 82 3e 17 ee 42 3e
       0.18383843 -0.15938108 0.2545135 0.19036137
000010 46 1a 0c be 00 dd ff 3d cf 5f 0d 3d 03 27 f0 3d
       -0.13681898 0.12493324 0.0345152 0.11726191
000020 61 5d 28 bc 2e a5 e6 3d 39 94 96 be 4a 41 e9 3d
       -0.0102761695 0.11261974 -0.2940996 0.11389406
000030 36 d0 21 be 6f 13 be bd 4d 4e 16 3d b9 ac 39 3d
       -0.15802082 -0.092810504 0.036695767 0.045330737
000040 20 d4 35 be 6b b2 12 3d dd 3b 21 bc 57 d0 9d 3d
       -0.177567 0.035814684 -0.009840933 0.07705753
000050 82 24 86 3d 87 bd 3d 3e c2 b8 fb bd 33 de 14 3e
       0.06549932 0.1852933 -0.12291099 0.14537887
000060 4f 30 07 be 23 16 5e 3b 7d d8 28 bd 8a b0 d0 3c
       -0.13202022 0.0033887706 -0.041222084 0.025474805
000070 97 b2 22 3e b8 48 b2 3d 46 f3 a8 bc c9 63 11 3e
       0.15888439 0.08705276 -0.020623814 0.14198221
000080 fd 66 02 3e ec 43 6d 3d 6f 77 bd bd e1 f7 0d bd
       0.127346 0.057926103 -0.09251296 -0.034660224
000090 d5 97 ee ba 5b 16 64 be 13 1d 4d be 39 69 53 3e
       -0.0018203208 -0.22274153 -0.20030622 0.20645608
0000a0 fe 79 3d be f3 17 f4 bc 01 af 88 bd ee c2 83 3e
       -0.18503568 -0.029796576 -0.06674004 0.25734657
0000b0 43 fb e9 3b 23 1a 28 3e 3d e1 c2 3c ab 41 4a 3d
       0.0071405484 0.1641622 0.023789043 0.049379032
0000c0 17 74 f9 3c da e8 62 3d cd 8c 34 bd cd 3d 74 bd
       0.030450864 0.055397846 -0.04407959 -0.05962925
0000d0 ef 1b bb 3d 98 ee 3e 3d 4c b3 48 be 7c 13 38 bb
       0.09136187 0.04661426 -0.19599646 -0.0028087785
0000e0 58 40 9f bc ca 90 6d 3e ac 79 d6 3d 72 7c 85 be
       -0.019439861 0.23199764 0.10472426 -0.26071507
0000f0 43 3f 8c bc b8 c1 da bd 32 68 ec bd 21 9f 84 be
       -0.01712001 -0.1068148 -0.11543311 -0.25902656
