DyGCN/savedmodel/cic2017/model.pt (torch, 46459 bytes, 14 tensors)

gc1.weight f4 [77, 32]
0	0x3d25ffa0	0.040526986
1	0xbd10aacd	-0.03531914
2	0x3d469012	0.04847724
3	0xbcd91157	-0.026497526
4	0x3dc53acc	0.09630355
5	0x3da2ec8e	0.079552755
6	0xbd2ec89a	-0.042671777
7	0xbe151168	-0.14557421
8	0x3ce47e5c	0.027892284
9	0xbe24ff9f	-0.16113137
10	0x3c866e6a	0.016410071
11	0x3cb87698	0.022517487
12	0xbd3bb30b	-0.045825046
13	0x3e3a1ff1	0.18176247
14	0xbc66b785	-0.01408184
15	0x3b351c66	0.0027635335
16	0x3d29d5cc	0.04146366
17	0xbdd593fb	-0.10428616
18	0xbd7018ca	-0.05861739
19	0x3e2812ca	0.16413417
20	0xbe3ae934	-0.18253022
21	0x3ca7ed6d	0.020498956
22	0xbc8b053d	-0.016970271
23	0x3de38e6c	0.11111149
24	0xbc89ace6	-0.016806077
25	0x3cbf7762	0.023372356
26	0x3cafa52e	0.021441069
27	0xbdbe371a	-0.092878535
28	0xbe0459a3	-0.12924819
29	0xbe22d882	-0.15902904
30	0xbe4a6fca	-0.19769207
31	0xbe0f9cd9	-0.14024676
32	0x3d36918d	0.0445724
33	0x3df3312a	0.11874612
34	0x3c0eadc7	0.008708424
35	0xbdaf74a0	-0.08567166
36	0x3c7495b3	0.014928269
37	0x3ca0a2d6	0.019608896
38	0xbe62e83e	-0.22158906
39	0xbdcc0372	-0.09961595
40	0xbda3252a	-0.07966073
41	0xbe2ca7b6	-0.16860852
42	0x3c42bd08	0.011885889
43	0x3dabc734	0.08387604
44	0x3ce4d5c0	0.027933955
45	0xbd2434e2	-0.040089495
46	0x3d810641	0.06300021
47	0xbd0e044e	-0.034672074
48	0xbc50c2c3	-0.012741747
49	0x3c5d2a64	0.013498876
50	0xbd0dd8c6	-0.03463056
51	0xbd5251b9	-0.051347468
52	0x3ddfc3a7	0.109259896
53	0x3d78b650	0.06072074
54	0xbcc67a2b	-0.024228176
55	0xbe036bea	-0.12834135
56	0xbd132613	-0.035924982
57	0xbd4fc630	-0.050726116
58	0x3d34d8e1	0.044152144
59	0x3e2af212	0.16693905
60	0x3d9bd297	0.07608526
61	0xbeb92e1c	-0.3616799
62	0xbe3a6c4b	-0.18205373
63	0x3d126918	0.035744756
64	0x3e2a3702	0.16622546
65	0x3c1baecd	0.009502125
66	0x3d703727	0.058646347
67	0xbe37c9cb	-0.17948072
68	0xbce5f11c	-0.028069071
69	0x3dc95b7d	0.09831903
70	0xbdd76f1d	-0.1051924
71	0x3e1b1a78	0.15146816
72	0xbe07a280	-0.13245583
73	0x3d630179	0.055421326
74	0xbc42ee0a	-0.011897573
75	0x3d3c1914	0.045922354
76	0x3c8a4a2d	0.016881073
77	0xbea99402	-0.33120733
78	0xbd426286	-0.04745724
79	0xbdcea726	-0.10090475
80	0x3e3aa30c	0.1822626
81	0xbcb1c2a7	-0.021699263
82	0xbe2d22cd	-0.16907807
83	0x3ba14c6e	0.004922441
84	0x3d9cf6f3	0.07664289
85	0xbda29b2c	-0.07939753
86	0xbd0ef5f7	-0.03490254
87	0x3d674479	0.056461785
88	0xbde1434c	-0.10999164
89	0xbdcd4aab	-0.100240074
90	0x3c4a6dce	0.012355281
91	0xbd8c9fc5	-0.06866411
92	0x3dacec7e	0.08443545
93	0x3c3f8752	0.011689978
94	0x3dcabf0f	0.09899723
95	0x3d8a8e0f	0.06765377
96	0xbe1096c4	-0.14120013
97	0xbdc97956	-0.09837596
98	0xbdf7a0c3	-0.1209121
99	0xbd998f26	-0.074980065
100	0xbd1b2e4d	-0.037885953
101	0xbad7c5b2	-0.0016462116
102	0xbe24590f	-0.16049598
103	0x3d93b0b7	0.0721144
104	0x3db522e5	0.08844546
105	0x3d6425c4	0.05570008
106	0x3dedac91	0.1160518
107	0x3e11a5ed	0.14223452
108	0xbe3310af	-0.17486833
109	0xbddeca11	-0.10878385
110	0x3e216e47	0.15764724
111	0xbe03c777	-0.12869059
112	0xbd5e5086	-0.054276012
113	0xbc188659	-0.009309375
114	0xbddb6659	-0.10712881
115	0xbda3af52	-0.07992424
116	0xbcd68355	-0.02618567
117	0x3e26df4b	0.16296117
118	0xbcf1794e	-0.029476788
119	0x3d96f2eb	0.07370552
120	0x3e048e57	0.12944923
121	0x3da70ff0	0.08157337
122	0xbdf4d766	-0.119551465
123	0x3e358ab1	0.17728688
124	0x3db9ebee	0.09078203
125	0xbe0ee246	-0.13953504
126	0xbd9ece4b	-0.07754191
127	0x3dbc7bbd	0.09203289
128	0xbe28a916	-0.16470751
129	0xbe218aaa	-0.15775552
130	0xbdf55fee	-0.11981188
131	0x3d0edbe5	0.034877677
132	0xbc8d00f4	-0.017212369
133	0xbe5c8028	-0.21533263
134	0x3d7ae752	0.06125576
135	0x3db24f59	0.087065406
136	0x3d3a559d	0.045491803
137	0xbe203d60	-0.15648413
138	0x3e00e62f	0.12587808
139	0xbbe5e178	-0.0070154034
140	0xbe2caf4e	-0.16863748
141	0xbe3cea8d	-0.18448849
142	0x3dbfb4d5	0.09360663
143	0x3e0baa75	0.13639243
144	0xbc515bbf	-0.012778222
145	0x3dff38f4	0.12462035
146	0xbdcc6b4c	-0.09981403
147	0x3d71a3ac	0.05899398
148	0x3e33836f	0.17530607
149	0xbe04b293	-0.12958746
150	0x3c7b1333	0.015324402
151	0xbd68af5a	-0.056807853
152	0xbe18d08f	-0.14923309
153	0xbd8f97c6	-0.0701137
154	0xbd49ad11	-0.049237315
155	0xbdaf6242	-0.08563663
156	0xbe13f94d	-0.1445057
157	0x3c24bfb9	0.010055476
158	0x3e0371de	0.12836406
159	0x3d9af837	0.075668745
160	0xbdf104fc	-0.11768529
161	0x3e06d434	0.13166887
162	0x3c6dbd90	0.014510527
163	0xbe2f3317	-0.17109333
164	0xbc9da088	-0.019241586
165	0x3e049991	0.12949206
166	0xbe0ba014	-0.13635284
167	0xbc2ed6c1	-0.0106713185
168	0xbdd48deb	-0.10378631
169	0xbe0e0e0a	-0.13872543
170	0xbdbaa171	-0.09112824
171	0x3cdf1638	0.027232274
172	0x3dea0294	0.11426273
173	0xbddc4a85	-0.10756401
174	0xbe230dc9	-0.15923227
175	0xbcbb90d2	-0.022896204
176	0xbdf6f5b9	-0.120585866
177	0x3c2a2282	0.010384204
178	0x3da62fc0	0.08114576
179	0x3d2fd25e	0.04292523
180	0xbddd792a	-0.10814126
181	0xbd1262f0	-0.035738885
182	0x3d585400	0.052814484
183	0x3cc9ffb7	0.024658067
184	0xbe2a093d	-0.16605087
185	0xbdad5cba	-0.08464952
186	0xbd394d77	-0.04523989
187	0x3dad5f8d	0.084654905
188	0x3e02cc84	0.12773329
189	0x3d63afbb	0.05558751
190	0x3d6f8498	0.05847606
191	0xbe34c2a1	-0.1765237
192	0x3de65e1f	0.11248421
193	0x3d763240	0.060106516
194	0xbd68d5eb	-0.056844633
195	0xbddf412a	-0.10901101
196	0x3dbf5c0a	0.09343727
197	0xbe097769	-0.13424458
198	0x3cfb8ed7	0.03070776
199	0x3e09b84d	0.13449211
200	0xbdf849c4	-0.12123445
201	0xbded52af	-0.11588036
202	0xbe34b33b	-0.17646496
203	0xbe204d7b	-0.15654556
204	0xbcd9ad3d	-0.026571864
205	0xbdbc1190	-0.09183037
206	0x3d1a962e	0.03774088
207	0x3d621938	0.05519983
208	0xbcab11c3	-0.020882493
209	0xbd9d6fe7	-0.07687359
210	0xbe1d3c99	-0.15355147
211	0xbde47e8a	-0.11156948
212	0x3bf5c6b9	0.007500496
213	0xbddc1ef6	-0.10748093
214	0xbe38f00e	-0.18060324
215	0x3db6d662	0.08927609
216	0x3cd550aa	0.02603944
217	0xbdd3c7cf	-0.10340845
218	0x3d0d85dc	0.034551486
219	0x3e6f9dc7	0.23400031
220	0xbc7c9f67	-0.015418864
221	0xbe35cf07	-0.17754756
222	0x3e1089b2	0.14115027
223	0x3e7e30ba	0.24823275
224	0xbd0e4031	-0.034729186
225	0xbd9985b8	-0.07496208
226	0xbd98c2d7	-0.07459038
227	0x3e1c1623	0.1524282
228	0x3dc1ab78	0.09456533
229	0xbd90bced	-0.07067285
230	0xbd09d1e9	-0.03364745
231	0x3d148a79	0.03626487
232	0x3caf72a5	0.021416971
233	0xbc4264c0	-0.011864841
234	0xbd8ba980	-0.06819439
235	0xbb5334d2	-0.0032227528
236	0xbd64876e	-0.05579322
237	0x3d32191e	0.043480985
238	0xbdd9fe83	-0.106442474
239	0xbd981dc4	-0.07427552
240	0xbe0d7cf2	-0.13817194
241	0x3d8ea8c0	0.0696578
242	0xbe1ce0d0	-0.15320134
243	0xbe16ce87	-0.14727221
244	0x3e1a0433	0.15040664
245	0x3de767ce	0.11299096
246	0x3dacc141	0.08435298
247	0x3d99f9f1	0.07518376
248	0xbd8a1798	-0.067427814
249	0xbd5e55e1	-0.05428112
250	0xbdd79923	-0.105272554
251	0xbd0facf4	-0.03507705
252	0x3c480760	0.01220879
253	0xbe728b3d	-0.23685928
254	0xbd2e0701	-0.04248715
255	0x3e604e83	0.2190495

gc1.bias f4 [32]
0	0xbd8594c2	-0.06522514
1	0xbba0151f	-0.0048853303
2	0xbe064a84	-0.13114363
3	0x3e38ded8	0.18053758
4	0xbc3e8db9	-0.011630469
5	0xbe0841ae	-0.13306305
6	0xbda5add0	-0.08089793
7	0xbd19a050	-0.0375064
8	0xbddc0c07	-0.107444815
9	0xbb124570	-0.002231922
10	0x3cfe196e	0.031017985
11	0xbe185c58	-0.14878976
12	0xbd9a6d1e	-0.07540344
13	0x3e25e63e	0.16201112
14	0xbe25d28c	-0.16193599
15	0x3e0590fe	0.13043591
16	0xbe343664	-0.17598873
17	0xbdf20a24	-0.118183404
18	0xbc2811a9	-0.010258117
19	0x3df8e06e	0.121521816
20	0xbcee5a57	-0.029095812
21	0xbe103902	-0.14084247
22	0xbc53ae68	-0.01292
23	0x3e1328e3	0.14371066
24	0xb92f8eaf	-0.00016742454
25	0x3e2d5697	0.16927563
26	0xbc3ccc2f	-0.011523291
27	0xbd2df70c	-0.04247193
28	0x3e36c79a	0.1784958
29	0x3d6049c1	0.054757837
30	0xbdda3fd8	-0.106567085
31	0x3df52f6b	0.11971935

gc2.weight f4 [77, 32]
0	0xbdecfaef	-0.11571299
1	0xbe0209b5	-0.12699015
2	0xbcf89344	-0.03034366
3	0xbd0db32b	-0.034594696
4	0x3e23ea6b	0.16007392
5	0xbd2462a4	-0.040133134
6	0x3e285f31	0.16442563
7	0x3d6046b0	0.054754913
8	0xbe23b554	-0.1598714
9	0xbdfa784f	-0.12229978
10	0x3de272fa	0.11057086
11	0xbe160ff8	-0.14654529
12	0x3daebeec	0.08532509
13	0xbdd4ef19	-0.10397167
14	0xbd51a06d	-0.051178385
15	0xbdd30a6f	-0.103047244
16	0xbdb9ba32	-0.09068717
17	0xbd93489f	-0.07191586
18	0x3db75f27	0.08953696
19	0xbe586b33	-0.21134643
20	0x3cb5a365	0.02217264
21	0x3deae4dd	0.114694335
22	0xbdbac207	-0.09119039
23	0xbdd17e8a	-0.102292135
24	0xbdbd443f	-0.092415325
25	0x3d576f2b	0.052596252
26	0x3d2e5621	0.042562608
27	0xbddde5ab	-0.10834821
28	0xbd10732e	-0.035266094
29	0xbe25d12e	-0.16193077
30	0x3e2001bf	0.15625666
31	0xbdda22da	-0.10651179
32	0x3dda2a50	0.10652602
33	0x3e1ddc97	0.1541618
34	0x3dea6806	0.11445622
35	0x3c610956	0.013735136
36	0x3d138322	0.03601373
37	0x3da842ab	0.08215841
38	0xbe11dc31	-0.14244153
39	0xbe01155d	-0.12605806
40	0xbe218020	-0.15771532
41	0xbba64d56	-0.005075137
42	0x3e0889e9	0.13333859
43	0xbe6a641c	-0.22889751
44	0x3c4d3ccc	0.012526702
45	0x3d548d66	0.05189266
46	0xbd836d2a	-0.06417306
47	0xbda509e3	-0.08058526
48	0xbe110a4e	-0.14164087
49	0xbe2acba8	-0.16679251
50	0xbe16404d	-0.14672966
51	0xbe2d75bf	-0.16939448
52	0xbccbcf68	-0.024879172
53	0x3e00dcef	0.1258428
54	0xbe312f8e	-0.17303297
55	0xbe028075	-0.12744315
56	0x3c95ffb2	0.018310402
57	0xbbea508b	-0.0071507148
58	0x3d9eca93	0.07753482
59	0xbd607a9b	-0.054804426
60	0xbda552ab	-0.08072408
61	0xbdc4ad8f	-0.09603416
62	0xbd9dc7f6	-0.07704155
63	0xbdee4376	-0.11633961
64	0xbe1f481f	-0.15554856
65	0xbe2b7c92	-0.16746739
66	0xbdec7fd0	-0.11547816
67	0xba66434e	-0.0008783833
68	0xbe17ef3d	-0.14837356
69	0x3e2dec47	0.16984664
70	0x3d8d854d	0.06910191
71	0x3d0dafbd	0.034591425
72	0xbd1f5fa4	-0.03890957
73	0x3da37497	0.07981222
74	0xbd14bd26	-0.0363132
75	0xbe27560d	-0.1634142
76	0xbe55eb8e	-0.20890638
77	0xbdf9eeff	-0.12203788
78	0xbe0899ec	-0.13339967
79	0xbd9a0819	-0.07521076
80	0xbc4855b6	-0.012227466
81	0xbd9c18d4	-0.07621923
82	0x3cb112c7	0.021615399
83	0xbe0560f0	-0.1302526
84	0xbe02e150	-0.12781262
85	0x3c5e6c41	0.013575614
86	0xbd6aae3e	-0.057295077
87	0xbd267cfc	-0.04064654
88	0xbe13f4b4	-0.14448816
89	0xbd0988bb	-0.033577662
90	0xbe49b7ca	-0.19699016
91	0x3e33ca31	0.17557599
92	0xbd778fbf	-0.06043982
93	0x3e34072d	0.17580862
94	0xbdc655a0	-0.096843004
95	0x3e0ff8fa	0.14059821
96	0x3e1e42ab	0.1545512
97	0xbdb114df	-0.08646559
98	0xbd405b33	-0.046961974
99	0x3cc9444a	0.024568696
100	0xbd6a9667	-0.05727234
101	0xbd5ca810	-0.053871214
102	0x3de003ff	0.10938262
103	0xbcb1fae5	-0.021726081
104	0xbdf12732	-0.11775054
105	0x3db89c59	0.09014196
106	0x3dd3109a	0.10305901
107	0x3d6e31f0	0.058153093
108	0x3c8bf39a	0.017083932
109	0xbcda222f	-0.026627628
110	0x3b59f572	0.003325787
111	0x3e2290e4	0.15875584
112	0xbd3d524b	-0.04622106
113	0xbdb59600	-0.08866501
114	0xbe01b692	-0.12667301
115	0xbe4c5618	-0.19954717
116	0xbe6440ac	-0.22290295
117	0x3df696d1	0.12040485
118	0x3dfed296	0.1244251
119	0x3de67ca4	0.11254242
120	0xbd7b5336	-0.061358653
121	0xbe3933bf	-0.18086146
122	0xbe3692d3	-0.17829446
123	0xbdde8cd4	-0.108667046
124	0x3daaadf5	0.08333961
125	0xbd9f146b	-0.07767566
126	0xbbaca5cc	-0.005268788
127	0xbd2b4da9	-0.04182211
128	0x3d9268c9	0.071488924
129	0xbe0fee54	-0.14055759
130	0xbdc37ebb	-0.09545656
131	0x3dd09c18	0.101860225
132	0xbe6a6d65	-0.22893293
133	0xbd2a6e4d	-0.041609097
134	0x3d24f147	0.040269163
135	0xbc9b4211	-0.018952401
136	0x3c2336c3	0.009961787
137	0x3e357638	0.17720878
138	0x3dc48cd0	0.0959717
139	0x3e030c70	0.12797713
140	0x3b32d457	0.002728721
141	0xbd97b3b3	-0.07407322
142	0x3d274d29	0.04084507
143	0xbe0d33aa	-0.1378924
144	0x3e221e9d	0.1583199
145	0xbdca62ac	-0.098821014
146	0xbe846d54	-0.2586466
147	0x3def0423	0.11670711
148	0x3e0ad837	0.13559042
149	0xbdd064d2	-0.1017548
150	0x3e0ee560	0.13954687
151	0x3d9d2aac	0.07674155
152	0xbdc98ca8	-0.09841281
153	0x3d6fcd65	0.05854549
154	0x3b59e220	0.0033246353
155	0xbe383887	-0.17990313
156	0xbd801fb9	-0.062560506
157	0xbdd4e9dc	-0.10396168
158	0xbdbca36a	-0.09210856
159	0xbc048392	-0.008088009
160	0xbe0fd668	-0.14046633
161	0xbce8e4a8	-0.028429344
162	0x3d9d5907	0.07682996
163	0x3c9a285a	0.01881807
164	0x3dd1faf3	0.10252943
165	0x3d4cba7d	0.049982537
166	0xbe2716fe	-0.16317365
167	0x3d12368c	0.03569655
168	0xbd95d48b	-0.0731593
169	0xbc751f65	-0.014961098
170	0x3cad38be	0.02114522
171	0x3d79decb	0.061003488
172	0xbe4a163d	-0.19735046
173	0xbced5b08	-0.028974071
174	0xbe280efc	-0.16411966
175	0x3d7a9215	0.06117447
176	0xbda60c62	-0.081078306
177	0xbde54488	-0.11194712
178	0xbc8b08a1	-0.016971888
179	0x3e027046	0.12738141
180	0xbd9eae62	-0.07748105
181	0xbe2cd511	-0.16878153
182	0xbd4e3bd9	-0.050350044
183	0xbd9ee2a6	-0.077580735
184	0x3d1e383d	0.03862785
185	0xbe3935e0	-0.18086958
186	0xbc0e2eb5	-0.008678128
187	0x3d9bc4b1	0.07605875
188	0xbcdefeda	-0.027221132
189	0xbd836e55	-0.064175285
190	0x3e1f2330	0.15540767
191	0x3db3b8ac	0.08775458
192	0x3d8b79e8	0.06810361
193	0xbbe50f77	-0.006990369
194	0xbd8cd577	-0.06876653
195	0x3c2a849d	0.010407594
196	0x3db18a09	0.08668906
197	0x3d9a775b	0.075422965
198	0x3e017b89	0.12644781
199	0xbe18687d	-0.14883609
200	0xbe1e03e3	-0.1543117
201	0xbd300d3e	-0.04298138
202	0xbdade1dd	-0.084903456
203	0x3e22f29a	0.15912858
204	0x3e1b7761	0.15182258
205	0x3cef87af	0.029239504
206	0xbdda929c	-0.10672495
207	0xbdb1fc02	-0.08690645
208	0xbd378ed5	-0.04481395
209	0xbde0de7f	-0.10979938
210	0xbdc20c15	-0.09474961
211	0xbe32d193	-0.17462759
212	0x3d33831d	0.04382621
213	0xbe131b21	-0.14365818
214	0xbd0000cd	-0.031250764
215	0xbd98deee	-0.074643955
216	0xbdb5ad6f	-0.088709705
217	0x3e01f141	0.12689687
218	0xbe2e7813	-0.17037992
219	0xbdc125f6	-0.094310686
220	0xbe1be481	-0.15223886
221	0x3a7d243d	0.0009656584
222	0xbdac4672	-0.08411874
223	0x3dbbd92e	0.09172283
224	0x3c9d60ea	0.019211251
225	0xbe182dd6	-0.14861235
226	0x3e2ae7e8	0.16690028
227	0x3d7f2bb7	0.06229755
228	0xbe1651fe	-0.14679715
229	0xbc265779	-0.010152691
230	0xbd893508	-0.06699568
231	0xbd7faf02	-0.06242276
232	0x3e149fda	0.14514104
233	0x3d03a3e9	0.03213874
234	0xbd122121	-0.035676125
235	0x3e121e1a	0.14269295
236	0x3d370a64	0.044687644
237	0xbe623faf	-0.22094606
238	0xbda2aef2	-0.079435244
239	0xbd069336	-0.032855235
240	0xbe605211	-0.21906306
241	0xbe0b8dca	-0.13628307
242	0x3db9c8c8	0.09071499
243	0xbe4d7b0e	-0.20066473
244	0xbc73ba89	-0.014876016
245	0x3cf0b65b	0.029383829
246	0x3dccd233	0.1000103
247	0xbe704409	-0.23463453
248	0xbc806870	-0.0156748
249	0xbde5c2fe	-0.112188324
250	0x3dfbd80c	0.12297067
251	0xbd472ea9	-0.048628483
252	0xbe3f4262	-0.18677667
253	0xbde44da1	-0.11147619
254	0x3dd2c38b	0.10291203
255	0xbd016a1a	-0.031595327

gc2.bias f4 [32]
0	0x3dac0dbd	0.08401058
1	0xb908cb79	-0.0001304577
2	0x3eacd389	0.3375514
3	0x3e283094	0.16424781
4	0xbd417ec0	-0.04724002
5	0xbe136da0	-0.14397287
6	0xbd47714f	-0.048692044
7	0x3dd1befc	0.102415055
8	0xbe2757ec	-0.16342133
9	0x3d0ffab3	0.035151195
10	0xbe32ca38	-0.17459953
11	0x3ec54f96	0.38537282
12	0xbdf1a8b2	-0.11799754
13	0xbc8002af	-0.01562628
14	0xbe3dd11b	-0.18536799
15	0x3e4712ee	0.19440815
16	0xbb157a6a	-0.002280856
17	0x3dc23114	0.09482017
18	0x3d589d0e	0.052884154
19	0x3e1f7ebb	0.15575688
20	0x3e152e28	0.14568388
21	0xbbcb255e	-0.006199523
22	0xb9ce03e1	-0.00039294272
23	0xbd9379b7	-0.0720095
24	0xbdd0df75	-0.10198871
25	0xbe0acdee	-0.13555118
26	0x3bc91617	0.0061366665
27	0x3e0be022	0.13659719
28	0x3d6fd5be	0.05855345
29	0x3ccfdaf9	0.025372969
30	0x3d3b726a	0.04576341
31	0xbe0300b1	-0.12793233

lstm.weight_ih_l0 f4 [64, 64]
0	0xbeac7b6b	-0.3368791
1	0x3e27a045	0.16369732
2	0xbe54f8f3	-0.20798092
3	0xbea022cd	-0.3127655
4	0x3de421cf	0.11139261
5	0xbe526fcb	-0.20550458
6	0xbbedd130	-0.007257603
7	0xbe434021	-0.19067432
8	0xbecacd28	-0.39609647
9	0xbdbed70b	-0.0931836
10	0x3e01b472	0.1266649
11	0xbd1e9ace	-0.038721852
12	0xbeb75afb	-0.358116
13	0x3e0769c8	0.13223946
14	0xbeb9bd17	-0.36277077
15	0x3b9b27b1	0.004734956
16	0x3e078f14	0.13238174
17	0xbe106b42	-0.14103416
18	0xbc1db8c4	-0.009626571
19	0xbe3c3331	-0.18378903
20	0x3d099a82	0.033594616
21	0x3e8f1b80	0.27950668
22	0xbe7802f7	-0.24219881
23	0xbc408832	-0.0117512215
24	0xbd5b833a	-0.053591944
25	0xbe32ebe6	-0.174728
26	0x3e044f73	0.12920932
27	0xbdcebc7e	-0.10094546
28	0xbe901125	-0.2813808
29	0x3e2ba520	0.16762209
30	0x3e59589b	0.21225207
31	0x3dbe7092	0.09298815
32	0xbe3e2919	-0.18570365
33	0x3d65c5b9	0.056096766
34	0xbe0a3294	-0.13495857
35	0x3ab080c0	0.0013466105
36	0xbdb705a6	-0.08936624
37	0xbe9b8e2f	-0.30381915
38	0xbed5ee81	-0.41783527
39	0x3dd96f66	0.10616951
40	0xbe879d9c	-0.26487434
41	0xbdca5258	-0.09878987
42	0xbe2ae814	-0.16690093
43	0xbd893e31	-0.06701315
44	0x3c31da14	0.0108552165
45	0x3e441a06	0.19150552
46	0x3e44980f	0.19198631
47	0xbe51d887	-0.20492755
48	0x3e4bb7eb	0.19894378
49	0xbe543b91	-0.20725848
50	0xbe42dc99	-0.19029464
51	0x3c94ef98	0.018180653
52	0xbe81eafc	-0.2537459
53	0xbdd69e45	-0.10479406
54	0xbe81afbf	-0.25329396
55	0x3e14ddec	0.14537781
56	0xbd81c166	-0.06335716
57	0xbd8b5627	-0.06803542
58	0xbcb91a4e	-0.02259555
59	0xbda5e60d	-0.08100519
60	0x3e0d8660	0.13820791
61	0x3ec21713	0.3790823
62	0xbe0137b8	-0.12618911
63	0xbe931959	-0.28730276
64	0x3da5e5bf	0.08100461
65	0xbd9de9bf	-0.07710599
66	0xbeb59631	-0.3546615
67	0xbdb7f495	-0.08982197
68	0xbe231ad1	-0.15928198
69	0x3e6130cb	0.2199127
70	0x3bbe4982	0.0058071027
71	0x3d9a0d4f	0.0752207
72	0xbe25e944	-0.16202265
73	0xbd4e8c5f	-0.050426837
74	0xbd913a1a	-0.0709116
75	0xbe9f67de	-0.31133932
76	0x3e04e8ca	0.12979427
77	0x3da09a06	0.07841878
78	0xbe7a317b	-0.24432938
79	0xbd44f0b1	-0.048081104
80	0xbd87b8d8	-0.06627053
81	0xbde17e3b	-0.11010405
82	0xbd54ff97	-0.052001562
83	0xbc9df4a2	-0.01928169
84	0xbe5bb5e4	-0.21456105
85	0xbe0a0b05	-0.13480766
86	0xbeb0392c	-0.3441862
87	0x3e21c126	0.15796337
88	0xbe22be3c	-0.15892881
89	0x3e1d666f	0.15371107
90	0x3c425077	0.011860005
91	0x3dcd9368	0.10037881
92	0x3e248bda	0.16068974
93	0xbcab79d0	-0.020932108
94	0xbdf4e8f5	-0.119584955
95	0x3d4bd9e4	0.049768344
96	0xbee3dd6e	-0.44504875
97	0xbe79c1b4	-0.24390298
98	0xbde6d7d2	-0.11271633
99	0xbec17a86	-0.3778879
100	0x3c0484b2	0.008088278
101	0xbd0c32dd	-0.034228195
102	0xbe066fc6	-0.13128576
103	0xbd5c098c	-0.053720042
104	0xbe9ac33b	-0.30227074
105	0x3e1a2cb1	0.15056111
106	0xbe8b540a	-0.27212554
107	0xbc0f08fe	-0.008730171
108	0x3e804a3f	0.25056645
109	0x3ea85bb1	0.32882455
110	0x3e398e12	0.18120602
111	0x3dcd89d3	0.100360535
112	0xbbcc235a	-0.0062298
113	0xbd6f8e41	-0.058485273
114	0xbea58fd8	-0.32336307
115	0x3b946590	0.0045287088
116	0xbeb003da	-0.34377939
117	0x3e6d184e	0.23153803
118	0xbe164437	-0.1467446
119	0x3c8f4a2c	0.017491423
120	0x3e04d2a7	0.12970982
121	0xbe7ed6f8	-0.24886692
122	0x3e978b3e	0.2959842
123	0xbe8a4492	-0.2700544
124	0xbda80af7	-0.082052164
125	0x3d97e842	0.074173465
126	0x3da04799	0.07826156
127	0x39db2757	0.00041800246
128	0xbe053034	-0.1300667
129	0x3d83289c	0.0640423
130	0xbe693df6	-0.22777542
131	0xbe7bfbc1	-0.24607755
132	0xbe78e861	-0.24307396
133	0xbeaf67c8	-0.34258866
134	0xbdbf336b	-0.09335979
135	0xbe8d3149	-0.27576664
136	0xbe16a653	-0.14711885
137	0xbebbd047	-0.3668234
138	0xbd8465c9	-0.064647265
139	0xbd619bef	-0.05508035
140	0xbe73db08	-0.23814023
141	0x3e76558a	0.24056068
142	0xbb8be1f5	-0.0042688795
143	0x3dc6ed93	0.097132824
144	0xbe01ffd1	-0.12695242
145	0xbc82a9bf	-0.015950082
146	0x3d53ddf4	0.051725343
147	0x3ebd1432	0.3692947
148	0xbe954d7e	-0.29160684
149	0xbd2b9fda	-0.041900493
150	0xbdde307b	-0.10849091
151	0xbe92a27d	-0.28639594
152	0xbde62853	-0.1123816
153	0xbafa5295	-0.0019098098
154	0xbd9b62aa	-0.07587178
155	0xbe2a0d5c	-0.16606659
156	0x3c3d555c	0.011555996
157	0x3e9ee5c7	0.3103468
158	0xbe696d26	-0.22795543
159	0x3e83c55d	0.25736514
160	0xbe0b6318	-0.1361202
161	0xbde23021	-0.11044336
162	0x3dd9a772	0.10627641
163	0x3e85892d	0.2608122
164	0xbdfdd675	-0.1239442
165	0xbe95a259	-0.29225424
166	0xbdc3566d	-0.09537969
167	0x3e49d055	0.19708379
168	0xbed54014	-0.4165045
169	0x3d9e7c21	0.077385195
170	0xbdadb4c6	-0.084817454
171	0x3dbae64f	0.09125959
172	0x3de423de	0.111396536
173	0x3e271813	0.16317777
174	0xbc524572	-0.01283394
175	0x3a61f884	0.00086201006
176	0xbaae46de	-0.0013296267
177	0xbe54e539	-0.20790567
178	0x3d95022b	0.07275804
179	0xbe43d91e	-0.19125792
180	0x3de79aef	0.11308848
181	0x3ddac8cb	0.106828295
182	0xbec38e8e	-0.38194698
183	0x3dcdaf65	0.100432195
184	0x3e09522d	0.13410254
185	0xbe1307e7	-0.14358483
186	0x3de1d98b	0.11027821
187	0xbdf18045	-0.117920436
188	0x3da197b2	0.07890262
189	0xbd3aad7b	-0.0455756
190	0x3da27d3f	0.07934045
191	0xbdf4cdf9	-0.11953349
192	0xbc83ea0e	-0.016102817
193	0xbc62e8ce	-0.01384945
194	0xbe47e1e8	-0.1951977
195	0x3cf75a9b	0.030194571
196	0xbdb24ab1	-0.087056525
197	0xbe006c67	-0.12541352
198	0xbd90a696	-0.07063024
199	0xbd5f283a	-0.054481722
200	0xbe6536ee	-0.22384235
201	0xbe896aae	-0.26839203
202	0xbd9dd27f	-0.077061646
203	0xbd3ec1c1	-0.046571497
204	0x3d999baf	0.075003974
205	0xbe2ec46d	-0.17067118
206	0xbe4f9887	-0.20273028
207	0xbe81e30a	-0.2536853
208	0x3e6862d0	0.22693944
209	0xbe36866e	-0.17824718
210	0x3e981c88	0.29709268
211	0x3cbaee08	0.02281858
212	0xbe4cf5bf	-0.2001562
213	0xbe356346	-0.17713651
214	0xbe767d15	-0.24071153
215	0xbed0ceda	-0.40782815
216	0xbe8faa48	-0.28059602
217	0xbe108a8f	-0.14115356
218	0x3df17125	0.11789159
219	0x3dc357af	0.09538209
220	0xbe112eb0	-0.14177966
221	0x3da1d450	0.079018235
222	0x3dfeaf62	0.12435795
223	0x3dbad033	0.09121742
224	0x3d85d60f	0.06534969
225	0xbe2b3179	-0.16718091
226	0x3e672f06	0.22576532
227	0xbd0df7f4	-0.034660295
228	0xbdad4be3	-0.0846174
229	0xbeafae78	-0.34312797
230	0xbe1fef47	-0.15618621
231	0xbdf5e6bb	-0.12006899
232	0x3d01ab6a	0.031657614
233	0xbd9c27ab	-0.076247536
234	0xbeb16ef0	-0.3465495
235	0x3dcb71e5	0.09933833
236	0xbdb9f8f9	-0.09080691
237	0xbe2af7db	-0.16696112
238	0x3d41d040	0.047317743
239	0xbd1b9892	-0.0379873
240	0x3e172d17	0.14763294
241	0x3dfc6b52	0.12325157
242	0xbeabc564	-0.33549035
243	0xbd8e8723	-0.06959369
244	0x3d01c1b7	0.03167888
245	0x3d9cd224	0.07657269
246	0xbeaf0698	-0.34184718
247	0x3e2d7dc6	0.1694251
248	0xbd3c6b32	-0.046000667
249	0x3c782dec	0.015147667
250	0xbe28f511	-0.16499735
251	0xbe191133	-0.14947967
252	0x3de18c5e	0.11013101
253	0xbd942c70	-0.07235038
254	0xbd7670b4	-0.060166076
255	0xbe1316a4	-0.14364105

lstm.weight_hh_l0 f4 [64, 16]
0	0xbe833a51	-0.2563043
1	0x3e1de29f	0.1541848
2	0x3e56ea3d	0.20987792
3	0xbe8a1951	-0.2697244
4	0x3ad9b122	0.0016608576
5	0xbe2176f7	-0.15768038
6	0x3e8feed5	0.28111902
7	0x3dfbe7b7	0.123000555
8	0x3b12f405	0.002242328
9	0x3e26fc7c	0.16307253
10	0xbdaefead	-0.08544669
11	0x3c486c73	0.012232888
12	0xbe8134ad	-0.252355
13	0xbe136a3c	-0.14395994
14	0x3d867a47	0.06566291
15	0x3e3253ee	0.17414829
16	0xbd83afba	-0.064300016
17	0x3ca2d644	0.01987756
18	0xbcc746b4	-0.024325706
19	0xbc484325	-0.01222304
20	0xbea282af	-0.3174033
21	0xbe923f1a	-0.28563768
22	0xbe10b326	-0.1413084
23	0x3d047a2c	0.032343075
24	0xbd14dbd8	-0.03634247
25	0xbde6e589	-0.11274249
26	0xbee4fb11	-0.44722798
27	0x3eaf0b41	0.34188274
28	0xbdc675ff	-0.09690475
29	0x3e879946	0.26484126
30	0xbe7c499b	-0.24637453
31	0x3d88a1cd	0.06671486
32	0x3defe0aa	0.11712773
33	0xbebcc9e9	-0.36872795
34	0x3e154d67	0.14580308
35	0x3dd597b7	0.10429328
36	0x3e0231c0	0.1271429
37	0x3db89480	0.09012699
38	0xbd2537b2	-0.04033632
39	0x3e7ae05e	0.24499652
40	0xbdbf6d33	-0.09347
41	0x3ebcd85f	0.36883828
42	0xbe2d7408	-0.16938794
43	0x3eec6080	0.46167374
44	0x3e63bd9e	0.22240302
45	0x3e8ad172	0.2711292
46	0x3e2417d5	0.16024716
47	0xb9d348e6	-0.0004029937
48	0x3dcefe0b	0.101070486
49	0x3db503d5	0.088386215
50	0xbeacb7a0	-0.33733845
51	0xbd42a4dd	-0.047520507
52	0x3edef7ec	0.43548524
53	0xbe598775	-0.21243079
54	0x3e2fd01a	0.17169228
55	0x3d331470	0.043720663
56	0xbe874535	-0.26419988
57	0xbe8b5894	-0.27216017
58	0xbd787e14	-0.060667112
59	0x3e240ffb	0.16021721
60	0xbe241c0c	-0.16026324
61	0xbb6135d0	-0.003436435
62	0x3c109f32	0.008827018
63	0xbdc80cf6	-0.09768097
64	0x3df7081a	0.12062092
65	0x3e77f00c	0.24212664
66	0xbd60c7f7	-0.0548782
67	0x3e08f7ec	0.13375825
68	0xbedb8bff	-0.42880246
69	0x3d8a43dc	0.067512244
70	0xbe821e14	-0.25413573
71	0xbf2cf4f8	-0.6756129
72	0xbf05d818	-0.5228286
73	0xbef5c81b	-0.4800423
74	0xbe8c5e0f	-0.2741551
75	0x3e8227dd	0.25421038
76	0xbf060c40	-0.5236244
77	0x3e2c26cc	0.16811675
78	0xbe4cfe29	-0.2001883
79	0x3e1ced55	0.1532491
80	0xba2cd064	-0.0006592332
81	0xbcedc925	-0.029026577
82	0xbe32e1a7	-0.17468892
83	0xbeb22ba5	-0.34798923
84	0xbea25570	-0.3170581
85	0xbeb713aa	-0.3575719
86	0xbeb1e10e	-0.34742016
87	0x3dee9c2e	0.11650883
88	0xbe4e7b8e	-0.2016432
89	0x3e904424	0.28176987
90	0xbdc7a54c	-0.09748325
91	0xbd498139	-0.049195502
92	0xbe2294b7	-0.15877043
93	0x3e8b6b27	0.27230188
94	0x3e170eaa	0.14751688
95	0x3e249c72	0.16075304
96	0x3e38927a	0.18024626
97	0x3e3708ba	0.17874423
98	0xbe7837a8	-0.24239981
99	0x3ee1e5d1	0.44120649
100	0x3d75aecb	0.05998115
101	0x3e9915d1	0.29899457
102	0x3e7745f1	0.24147774
103	0xbe593ee1	-0.21215393
104	0xbdc41203	-0.09573748
105	0xbf19c0a5	-0.6005958
106	0x3afa461a	0.0019094378
107	0x3d6250b5	0.05525275
108	0x3d943a17	0.07237642
109	0xbda40086	-0.08007912
110	0xbea2f4f2	-0.31827503
111	0xbec154a4	-0.37759888
112	0x3e66c8b5	0.22537501
113	0xbec4259e	-0.3830995
114	0x3e4df41f	0.20112656
115	0xbe7a4908	-0.24441922
116	0x3e3d557b	0.1848964
117	0x3d8f0fe2	0.06985451
118	0x3e32f2d3	0.17475443
119	0x3d439d4f	0.047757443
120	0xbe9ee5d5	-0.31034723
121	0xbd7d5641	-0.061849836
122	0x3d3292de	0.043597095
123	0x3e914605	0.28373733
124	0x3df6ab4f	0.12044393
125	0x3c1f4428	0.00972084
126	0x3e921000	0.28527832
127	0xbdd88061	-0.10571361
128	0xbd8b5540	-0.068033695
129	0x3dd80125	0.10547093
130	0x3d84c318	0.06482524
131	0x3d8db68c	0.06919584
132	0x3e98b43d	0.2982501
133	0x3dd61fbe	0.10455273
134	0x3de19582	0.110148445
135	0xbeb4a6fd	-0.35283652
136	0xbe8d6ad2	-0.2762056
137	0x3d556c6c	0.052105352
138	0x3e680c4e	0.22660944
139	0xbdc8f1c6	-0.098117396
140	0x3e38fa21	0.18064167
141	0xbe5560f0	-0.2083776
142	0x3e8f791d	0.2802209
143	0xbd502cef	-0.050824102
144	0x3ebe2999	0.37141111
145	0xbcc73c06	-0.024320614
146	0xbd0bb74b	-0.03411035
147	0xbe0d7499	-0.1381401
148	0x3bd03321	0.0063537513
149	0xbd06911a	-0.032853223
150	0x3dd7c3f4	0.10535422
151	0xbdb91f1a	-0.09039135
152	0xbeaf8b45	-0.34285942
153	0xbdd17182	-0.10226728
154	0xbd43ec35	-0.047832686
155	0x3e2ccb82	0.16874507
156	0x3e76c9d8	0.24100435
157	0xbe705867	-0.23471223
158	0x3db48485	0.088143386
159	0x3e03d6ed	0.12874956
160	0x3e31b27f	0.17353247
161	0x3b633d8e	0.003467414
162	0x3dc6f763	0.09715154
163	0xbe0bdee9	-0.13659252
164	0x3d961dfb	0.07329937
165	0x3de9a68d	0.1140872
166	0x3cbc5fb2	0.02299485
167	0xbd5f3005	-0.054489154
168	0xbe05fccd	-0.13084717
169	0xbe5a9f09	-0.2134973
170	0xbe08f9a5	-0.13376482
171	0x3e6c9571	0.23103882
172	0xbd69f926	-0.057122372
173	0xbb86d079	-0.0041142073
174	0x3dfb57ea	0.12272628
175	0xbe82d0ec	-0.2555002
176	0x3f042fb1	0.5163527
177	0x3dfdd063	0.12393262
178	0x3e2fa5b1	0.1715305
179	0x3e96810b	0.29395327
180	0x3ecfaa1a	0.40559465
181	0x3e9120c1	0.28345302
182	0x3f1c2dce	0.6100739
183	0xbeb0cd94	-0.34531844
184	0xbebe3203	-0.3714753
185	0xbe0b6827	-0.1361395
186	0x3eaee7c3	0.34161195
187	0x3e65e9ae	0.22452423
188	0x3f343c92	0.7040492
189	0xbf1feafd	-0.6246794
190	0x3e6bc6db	0.23025076
191	0xbf14b341	-0.5808602
192	0xbe839086	-0.256962
193	0xbe00f99f	-0.12595223
194	0x3e01739e	0.1264176
195	0xbe3fa6ae	-0.18715927
196	0x3e7401d5	0.23828824
197	0x3d080953	0.033212017
198	0x3e8afdef	0.2714686
199	0x3d0e8d3a	0.034802653
200	0xbd9e7e64	-0.07738951
201	0x3e4c9ae9	0.19980969
202	0xbeab8358	-0.33498645
203	0xbde8a2ff	-0.11359214
204	0x3db90ae8	0.09035283
205	0x3c42b9c9	0.011885115
206	0xbd08daab	-0.033411663
207	0x3e08b545	0.13350399
208	0x3df72367	0.12067299
209	0x3eae563e	0.34050173
210	0xbeae26d2	-0.34013993
211	0x3ec02d4c	0.3753456
212	0x3eac6a6d	0.33674946
213	0x3df9b8ef	0.121934764
214	0x3e4b7f5d	0.19872804
215	0xbdd74b5f	-0.10512423
216	0xbebb5e23	-0.36595258
217	0xbe279186	-0.16364107
218	0xbd894285	-0.06702141
219	0x3dbcf7f2	0.09226979
220	0x3e9d0f08	0.3067553
221	0xbe1537e1	-0.14572097
222	0x3d675fc1	0.056487802
223	0xbd1cc970	-0.038278043
224	0xbdaedffd	-0.08538816
225	0x3e9f59fc	0.3112334
226	0x3ea73c46	0.32663172
227	0xbdc996f1	-0.09843243
228	0x3f00cd2a	0.50313056
229	0xbe9e925b	-0.30971035
230	0x3eefa217	0.46803352
231	0xbe151ba7	-0.1456133
232	0xbd813ec3	-0.06310799
233	0x3dd24baf	0.10268342
234	0xbd242443	-0.040073644
235	0x3d97a051	0.07403625
236	0xbd7338eb	-0.059380453
237	0xbe6653a4	-0.22492844
238	0x3e6f75e8	0.23384821
239	0xbe1b3fe7	-0.15161096
240	0xbe663aa8	-0.22483313
241	0xbd358c1f	-0.044323083
242	0x3dc18e40	0.0945096
243	0xbdfa6e01	-0.12228013
244	0x3e399771	0.18124177
245	0xbe909055	-0.28235117
246	0x3e56e4c1	0.209857
247	0xbbadb89f	-0.0053015496
248	0x3c9b7557	0.01897685
249	0xbe313b70	-0.1730783
250	0xbd2a03ba	-0.04150746
251	0xbe33a986	-0.17545137
252	0xbd5d4d69	-0.054028902
253	0xbd85edfc	-0.065395325
254	0x3e4c9e6e	0.19982311
255	0x3cba1bce	0.022718336

lstm.bias_ih_l0 f4 [64]
0	0x3ec6a623	0.38798627
1	0x3d91d0a4	0.07119873
2	0x3e3a2ff5	0.18182357
3	0x3d8d2c67	0.06893235
4	0x3efca778	0.4934652
5	0x3f0f05f6	0.5586847
6	0x3eb2e701	0.34941867
7	0x3eca387c	0.3949622
8	0x3e4a6233	0.19764023
9	0xbd040e98	-0.03224048
10	0x3f32a486	0.6978229
11	0x3e15363d	0.14571472
12	0x3ecee6dc	0.40410507
13	0x3e3cdb94	0.18443137
14	0x3eb73d6d	0.35789052
15	0x3e652248	0.22376359
16	0x3e82cad8	0.25545382
17	0x3ea9db85	0.33175293
18	0x3ebb38dc	0.36566818
19	0x3d1736bf	0.036917444
20	0x3f06868f	0.5254907
21	0x3f0c31d6	0.54763544
22	0x3e610152	0.2197316
23	0x3f114cf5	0.5675805
24	0x3f5a928b	0.85379857
25	0x3ecc793b	0.39936242
26	0x3efbb805	0.49163833
27	0x3eca5d63	0.39524373
28	0x3e8ae26a	0.27125865
29	0x3e9602ed	0.29299107
30	0x3cf44815	0.029819528
31	0x3dee7149	0.11642701
32	0xbda47ab3	-0.080312155
33	0xbe9660fd	-0.2937087
34	0x3e5b4cd8	0.21416032
35	0xbbfc63eb	-0.007702341
36	0xbe178a90	-0.14798951
37	0xbec64332	-0.3872314
38	0xbd1469a2	-0.03623355
39	0x3e4cb7b9	0.1999196
40	0x3e6d170e	0.23153326
41	0x3e956222	0.29176432
42	0x3e074960	0.13211584
43	0xbd25ff54	-0.040526703
44	0x3ce24862	0.027622405
45	0xbe2a47a3	-0.1662889
46	0x3d252f1f	0.04032814
47	0x3db62fbf	0.088958256
48	0x3e89e73f	0.2693424
49	0x3ea81840	0.32831
50	0x3f16c266	0.5889038
51	0x3e854edc	0.26036727
52	0x3ea38163	0.31934652
53	0x3f690984	0.91030145
54	0x3f132ef6	0.5749353
55	0x3e08711e	0.13324401
56	0x3e83cac1	0.25740626
57	0x3eee9674	0.46599162
58	0x3e3f6b30	0.18693233
59	0x3ede4bd9	0.43417242
60	0x3ef7c270	0.48390532
61	0x3eb2080a	0.34771758
62	0x3ed1cf42	0.40978438
63	0x3f07bdb7	0.53023857

lstm.bias_hh_l0 f4 [64]
0	0x3f0f9a30	0.56094646
1	0x3dab2f5e	0.08358644
2	0x3dea4cd8	0.11440438
3	0x3e9ff81c	0.3124398
4	0x3e5c716f	0.21527646
5	0x3f3874dc	0.72053313
6	0x3e3b6def	0.18303655
7	0x3e597684	0.21236616
8	0x3e8bee98	0.2733047
9	0x3d844f0b	0.06460389
10	0x3ecbbbd2	0.39791733
11	0x3e92b29c	0.28651893
12	0x3e9988ae	0.2998709
13	0x3d4cdac5	0.050013322
14	0x3e05a9d3	0.13053064
15	0x3dbd16d3	0.09232869
16	0x3ef90706	0.4863817
17	0x3e2292b2	0.15876272
18	0x3f18d3ae	0.59698
19	0x3e7e8e06	0.24858865
20	0x3f011648	0.50424623
21	0x3ede5367	0.43423006
22	0x3e84b4f6	0.25919312
23	0x3ef97d07	0.487282
24	0x3f6b7298	0.9197173
25	0x3dade68c	0.08491239
26	0x3ec399ab	0.38203177
27	0x3ed2d324	0.41176713
28	0x3ede51e4	0.43421853
29	0x3f0604f2	0.52351296
30	0x3e9900c3	0.29883394
31	0x3e387d56	0.18016562
32	0xbe0559dc	-0.1302256
33	0x3cc6d31b	0.024270585
34	0x3e5fc104	0.21850973
35	0xbec40312	-0.38283592
36	0xbe22dfb4	-0.15905648
37	0xbefc13c4	-0.4923383
38	0xbe4ad93b	-0.1980943
39	0x3e1a5361	0.15070869
40	0x3e4f84e7	0.20265542
41	0x3be50d85	0.006990137
42	0xbe8e73c8	-0.2782271
43	0x3d66c7ed	0.056343008
44	0xbca15269	-0.019692617
45	0x3dbbc172	0.09167756
46	0x3c8ddabd	0.017316217
47	0x3d924a85	0.0714312
48	0x3e53a07e	0.20666692
49	0x3cd6b2f4	0.026208378
50	0x3ea5caf2	0.32381397
51	0x3e8eb848	0.2787497
52	0x3efabdd5	0.48972955
53	0x3f327b37	0.6971926
54	0x3ef01079	0.46887568
55	0x3eedc4dd	0.46439257
56	0x3f1a348a	0.6023642
57	0x3eee9c99	0.4660385
58	0x3f01799f	0.50576204
59	0x3ebde4e7	0.370887
60	0x3ea6e239	0.3259447
61	0x3ed571d7	0.41688415
62	0x3ddf8c29	0.10915405
63	0x3e9f8a6d	0.31160298

ln.weight f4 [64]
0	0x3f89f3d9	1.0777541
1	0x3f71d87b	0.9447095
2	0x3f950e74	1.1645036
3	0x3f8ebefa	1.1152031
4	0x3f792678	0.97324324
5	0x3f775fa2	0.966303
6	0x3f9118e0	1.1335716
7	0x3f8c15b2	1.0944121
8	0x3f891403	1.0709232
9	0x3f9eb717	1.2399625
10	0x3f5b80ab	0.85743207
11	0x3f940a95	1.1565729
12	0x3f83c9d8	1.0295973
13	0x3f623c26	0.8837303
14	0x3f9c0997	1.2190427
15	0x3f89f3c3	1.0777515
16	0x3f65dbb0	0.8978834
17	0x3f90e87f	1.1320952
18	0x3f4fe717	0.8121199
19	0x3f5edd4c	0.8705642
20	0x3f85d58d	1.0455796
21	0x3f5ffc2e	0.8749417
22	0x3f9f6691	1.2453176
23	0x3f8c3625	1.0954024
24	0x3f988011	1.1914083
25	0x3f644c9f	0.89179415
26	0x3f7ab645	0.9793437
27	0x3f732b57	0.94988006
28	0x3f8da7f9	1.1066886
29	0x3f4e64e2	0.80622685
30	0x3f7d96f7	0.9905848
31	0x3f828fc0	1.0200119
32	0x3f8581d7	1.0430249
33	0x3f8d1f4e	1.1025178
34	0x3f6e74a8	0.93146753
35	0x3f769f53	0.9633686
36	0x3f83f5ac	1.0309348
37	0x3f9997dc	1.1999469
38	0x3f8201a8	1.0156755
39	0x3f864a5e	1.0491445
40	0x3f8d3534	1.1031861
41	0x3f33f875	0.7030099
42	0x3f923e71	1.1425306
43	0x3f799c25	0.9750388
44	0x3f7d2493	0.9888393
45	0x3f374f38	0.71605253
46	0x3f80bc45	1.0057455
47	0x3f80c370	1.0059643
48	0x3f52b223	0.82303065
49	0x3f8d8b84	1.1058202
50	0x3f88cbe9	1.0687228
51	0x3f83be45	1.0292441
52	0x3f880ecf	1.0629519
53	0x3f7a718b	0.978295
54	0x3f96bb90	1.177599
55	0x3f485608	0.78256273
56	0x3f6e6dac	0.93136096
57	0x3f846f3a	1.0346444
58	0x3f7aa453	0.9790699
59	0x3f74c1c2	0.9560815
60	0x3f46434c	0.77446437
61	0x3f2fa7b2	0.6861526
62	0x3f6f7417	0.93536514
63	0x3f934180	1.1504364

ln.bias f4 [64]
0	0xbdae9ded	-0.08526216
1	0xbca8741f	-0.020563183
2	0xbe245dab	-0.16051356
3	0xbe133e18	-0.14379156
4	0x3dbb7fef	0.09155261
5	0xbb1faa41	-0.0024362954
6	0xbdc05704	-0.09391597
7	0xbd96c722	-0.073622
8	0xbdaeace9	-0.08529074
9	0xbe840446	-0.2578451
10	0x3da8666e	0.08222662
11	0xbe1ccb75	-0.15311988
12	0xbc20c5b2	-0.009812759
13	0x3e00750f	0.12544654
14	0xbe69d1b0	-0.22833896
15	0xbd177c51	-0.03698379
16	0x3d640409	0.05566791
17	0xbde7181c	-0.112838954
18	0x3e378fe9	0.17925991
19	0x3d0ddad0	0.034632504
20	0xbd154196	-0.0364395
21	0x3cd09159	0.025459932
22	0xbe877fb6	-0.26464623
23	0xbd60c044	-0.05487086
24	0xbe52ca70	-0.20585036
25	0x3d18eeda	0.03733716
26	0x3d759707	0.059958484
27	0x3d4799c7	0.048730638
28	0xbe156dcb	-0.14592664
29	0x3e49e14c	0.1971485
30	0xbbfee882	-0.007779182
31	0x3d000a47	0.0312598
32	0xbe10802c	-0.14111394
33	0xbdfdc623	-0.12391307
34	0xbd143557	-0.03618368
35	0x3c192e57	0.009349427
36	0xbd8c49ce	-0.068500146
37	0xbe6bc515	-0.230244
38	0x3b35ad54	0.002772172
39	0x3cabadf1	0.020956965
40	0xbdbd00c8	-0.09228665
41	0x3d33c9bb	0.043893557
42	0xbe1f889f	-0.1557946
43	0x3b24da2b	0.0025154452
44	0x3e0f6c3a	0.14006129
45	0x3cf63bb5	0.030057767
46	0xbd9ec71e	-0.07752822
47	0xbdd75b4e	-0.10515462
48	0x3c50db4a	0.012747595
49	0xbe1ab5df	-0.15108441
50	0xbe0abc40	-0.13548374
51	0xbd803bb5	-0.06261388
52	0xbdeb21f6	-0.11481087
53	0x3e126444	0.14296061
54	0xbe5e9e9c	-0.21740192
55	0x3c9c89b9	0.01910864
56	0x3da1f274	0.079075724
57	0xbd4deb22	-0.05027307
58	0x3d8926e4	0.06696871
59	0x3c77461b	0.015092398
60	0x3d75c480	0.06000185
61	0x3ca60b18	0.020268962
62	0x3d6b607e	0.05746507
63	0xbe0bc436	-0.13649067

mlp.0.weight f4 [8, 32]
0	0x3e4b33f9	0.19844045
1	0x3e5d09d4	0.2158578
2	0xbeb6ef63	-0.35729513
3	0x3dd87a55	0.10570208
4	0xbe57864d	-0.21047325
5	0xbe2cec7f	-0.16887091
6	0xbe341cc0	-0.17589092
7	0xbe136165	-0.14392622
8	0xbcf249d1	-0.029576214
9	0xbebabdca	-0.36472923
10	0xbdf813d2	-0.121131554
11	0x3e81ac40	0.2532673
12	0xbe02ef67	-0.12786637
13	0x3e49bb26	0.19700298
14	0x3ae0c27b	0.0017147803
15	0x3e560a5b	0.20902388
16	0xbeba5b6f	-0.36397883
17	0xbde0bd8e	-0.10973655
18	0xbe039c90	-0.12852693
19	0xbe82666d	-0.2546877
20	0x3e79cdc9	0.24394907
21	0x3ddb6468	0.1071251
22	0x3e3305bf	0.1748266
23	0x3dc0ac3f	0.09407853
24	0x3e98ef6c	0.29870164
25	0xbcf10c85	-0.029424915
26	0x3eb74536	0.3579499
27	0xbe99f9a4	-0.30073273
28	0x3e40bff5	0.18823226
29	0xbea4b30f	-0.3216786
30	0x3eb3094f	0.3496804
31	0xbeb267f7	-0.34844944
32	0x3e090cb2	0.13383749
33	0x3e942ef7	0.2894208
34	0xbec1dc7d	-0.37863532
35	0x3e512e65	0.20427854
36	0xbe0be660	-0.136621
37	0x3c58675d	0.0132082375
38	0xbe5a8998	-0.2134155
39	0xbe5bb36f	-0.21455167
40	0xbab26280	-0.0013609678
41	0xbeb6ee0a	-0.35728484
42	0xbe202151	-0.15637709
43	0xbb79e26f	-0.003812935
44	0x3b638154	0.0034714537
45	0x3ebab39a	0.3646515
46	0xbda240ec	-0.07922539
47	0x3e22397d	0.15842243
48	0xbe2aa294	-0.16663581
49	0xbd79be92	-0.060972758
50	0xbe19357a	-0.14961806
51	0xbe7ffce6	-0.24998817
52	0x3ec76f85	0.3895227
53	0x3dc44dd5	0.09585158
54	0x3e88646b	0.26639113
55	0x3e673b1e	0.22581145
56	0x3e94f3c2	0.29092222
57	0x3cd4425d	0.02591055
58	0x3e3a23cb	0.18177716
59	0xbead096f	-0.3379626
60	0x3ed8dae2	0.42354494
61	0xbe970b74	-0.29500926
62	0x3e101172	0.14069155
63	0xbeb6c8fd	-0.35700217
64	0x3e58615f	0.21130894
65	0x3e821b39	0.25411394
66	0xbe040186	-0.12891206
67	0x3d37b82d	0.044853378
68	0x3de1aaef	0.11018931
69	0x3e609683	0.21932416
70	0x3e34364b	0.17598836
71	0xbe8da59c	-0.27665412
72	0xbf3b98fd	-0.73280317
73	0xbeaaf144	-0.33387196
74	0xbda3886c	-0.07985005
75	0xbe08ffee	-0.1337888
76	0xbdd4aa45	-0.10384039
77	0x3d78d8cb	0.060753625
78	0xbcd8e915	-0.02647833
79	0x3da37b0d	0.079824544
80	0x3ea01cee	0.31272072
81	0xbdaf1b14	-0.085500866
82	0x3df51877	0.11967557
83	0xbd309873	-0.043114137
84	0xbe65266b	-0.22377937
85	0xbb9c1ed8	-0.004764419
86	0xbd892c20	-0.06697869
87	0x3e0c1ef3	0.13683681
88	0xbeb36745	-0.35039726
89	0x3e42e98b	0.19034402
90	0x3dd62641	0.10456515
91	0x3eaf80c9	0.34277943
92	0x3d88da67	0.06682282
93	0x3ea37c5f	0.31930825
94	0x3cf43481	0.029810192
95	0xbd17d3d0	-0.037067235
96	0x3e092f03	0.1339684
97	0xbe1dc7d4	-0.1540826
98	0xbe13c6a8	-0.1443125
99	0xbe14ab6f	-0.14518522
100	0x3e4d9cc0	0.20079327
101	0x3d9f61fb	0.0778236
102	0x3e6295b5	0.22127421
103	0x3e7d12c5	0.24714191
104	0xbd8249a9	-0.06361706
105	0x3e63d9e7	0.22251092
106	0x3e3fe46f	0.18739484
107	0xbe7c6c77	-0.24650751
108	0x3e45390c	0.19260043
109	0xbeca11d5	-0.3946673
110	0x3e3803e4	0.17970234
111	0xbe2f2e27	-0.1710745
112	0x3f0a63c4	0.5405848
113	0x3eddf521	0.4335108
114	0xbef38533	-0.4756256
115	0x3e938de2	0.28819185
116	0xbed7e1ce	-0.42164463
117	0xbcc6e376	-0.024278384
118	0xbef8bf32	-0.4858337
119	0xbe8d7020	-0.27624607
120	0x3d41d00e	0.047317557
121	0xbeeeef14	-0.46666777
122	0xbec1727e	-0.37782663
123	0x3f071b15	0.527757
124	0xbe87b541	-0.26505473
125	0x3ec16799	0.3777435
126	0xbe0aa495	-0.13539346
127	0x3e7e121a	0.24811593
128	0x3e3dbb5e	0.18528506
129	0xbb6be27f	-0.0035993156
130	0xbccd2e18	-0.025046393
131	0x3e547c68	0.20750582
132	0x3e6d3924	0.23166329
133	0x3c5af243	0.013363424
134	0x3e01faaa	0.12693277
135	0xbc9cd0d5	-0.019142548
136	0x3d9f9ade	0.077932104
137	0xbe9c4fa1	-0.30529502
138	0xbe30eb25	-0.172772
139	0xbd4ae7d5	-0.0495375
140	0xbe5754bf	-0.21028422
141	0xbc311881	-0.010809065
142	0xbe955ac7	-0.2917082
143	0x3e2258d1	0.15854193
144	0x3e157500	0.14595413
145	0xbe050243	-0.12989144
146	0x3d9f9bbb	0.07793375
147	0xbd876d8c	-0.06612691
148	0xbc82e9cb	-0.015980622
149	0x3d28fd2d	0.041257072
150	0xbd8c2858	-0.068436325
151	0xbe188390	-0.14893937
152	0xbeeb825b	-0.4599789
153	0xbe0afc55	-0.1357282
154	0xbe0bc733	-0.13650207
155	0x3e572b11	0.21012522
156	0xbdcbf644	-0.09959081
157	0x3e06a7af	0.13149904
158	0xbe350655	-0.17678197
159	0xbd00b142	-0.031419046
160	0x3e6186a0	0.22024012
161	0x3e3e803b	0.18603604
162	0xbe3d9ada	-0.18516102
163	0xbe202de2	-0.15642503
164	0x3dab9569	0.08378107
165	0xbc8b2d95	-0.016989509
166	0xbd6b6a91	-0.057474677
167	0xbd83b840	-0.06431627
168	0xbd6a9227	-0.057268288
169	0xbdd06fe7	-0.10177594
170	0xbcf6a9af	-0.030110208
171	0x3da3fcae	0.08007179
172	0x3d5cd052	0.053909607
173	0xbd610a66	-0.054941557
174	0x3e6acf43	0.22930627
175	0xbe10641d	-0.1410069
176	0x3d9f405e	0.07775949
177	0x3cdab52e	0.026697721
178	0xbe193d91	-0.14964892
179	0x3e378417	0.17921482
180	0xbc35bab7	-0.01109188
181	0xbd475845	-0.048668165
182	0xbd6ae1cd	-0.057344247
183	0xbe2c2dbe	-0.16814324
184	0x3eaf9f35	0.34301153
185	0x3ca362b5	0.019944528
186	0x3dc8148e	0.097695455
187	0x3e953efa	0.2914961
188	0x3de71997	0.11284178
189	0x3e4007cc	0.18752974
190	0x3e15ccfc	0.14628977
191	0xbd811f29	-0.063047715
192	0xbd618b03	-0.055064213
193	0x3e2e5d84	0.17027861
194	0x3d7d0b5a	0.061778404
195	0x3e6552f3	0.22394924
196	0x3e20bc4a	0.15696827
197	0xbdbdd8a1	-0.09269834
198	0x3e002e96	0.12517771
199	0xbe17fe3a	-0.14843073
200	0x3e5d38ba	0.2160367
201	0xbd84e394	-0.064887196
202	0x3d034961	0.0320524
203	0x3e50139c	0.2031998
204	0x3d7db17e	0.061936848
205	0xbe1a8d6a	-0.15093008
206	0xbe06bfa9	-0.1315905
207	0x3e04cf10	0.12969613
208	0xbd5bc947	-0.05365875
209	0x3df29421	0.118446596
210	0xbe05a712	-0.13052014
211	0x3e9b4ffe	0.30334467
212	0x3e62d9e2	0.22153428
213	0xbc32a9bd	-0.010904727
214	0x3deba1dd	0.11505482
215	0xbec1c6d5	-0.3784701
216	0xbe79ac0c	-0.24382037
217	0xbe4c0c37	-0.19926535
218	0xbe858323	-0.26076612
219	0x3cdc9d68	0.026930526
220	0xbe7fbc31	-0.24974133
221	0xbe3690b2	-0.17828634
222	0xbe9a680c	-0.30157506
223	0x3e526cca	0.20549312
224	0x3e67c337	0.22633062
225	0x3e96a297	0.2942092
226	0xbe895371	-0.26821473
227	0x3df388f4	0.11891356
228	0x3e9c4363	0.30520162
229	0xbca7d6c9	-0.02048816
230	0x3ce9a7d4	0.02852241
231	0xbe9219b6	-0.2853524
232	0x3c34b080	0.011028409
233	0xbdbb9a5a	-0.091602996
234	0x3c95e525	0.018297741
235	0x3d197d55	0.03747304
236	0xbe467545	-0.19380672
237	0xbe6856ea	-0.22689405
238	0xbe8e76f5	-0.27825132
239	0x3e812e3d	0.2523059
240	0x3d99f4f0	0.07517421
241	0x3da442d3	0.08020558
242	0x3cd1c368	0.025605872
243	0x3e812c35	0.2522904
244	0xbe393849	-0.18087877
245	0x3de9c8de	0.114152655
246	0xbd20703f	-0.039169546
247	0xbe7bdaa1	-0.24595119
248	0xbe8f09f6	-0.27937287
249	0xbe5e69fe	-0.2172012
250	0xbc35b6a5	-0.011090909
251	0x3e9097e4	0.28240883
252	0x3c29c2ee	0.010361416
253	0x3e1fdce8	0.15611613
254	0xbe523e66	-0.20531616
255	0xbca35f61	-0.019942941

mlp.0.bias f4 [8]
0	0x3ca00d1d	0.019537503
1	0x3e233c44	0.15940958
2	0xbe15d3f3	-0.14631633
3	0xbdcc391c	-0.0997183
4	0xbd3f5bee	-0.04671853
5	0xbe225f37	-0.15856634
6	0x3dc03200	0.09384537
7	0xbe8cfa0b	-0.27534518

mlp.2.weight f4 [2, 8]
0	0xbebff2b8	-0.37489867
1	0xbf1174b8	-0.56818724
2	0x3e9d2ba5	0.3069736
3	0xbf334a14	-0.7003491
4	0x3f06b602	0.5262147
5	0x3f1bc19b	0.60842294
6	0x3f01092c	0.5040462
7	0x3ed593dc	0.4171437
8	0x3ed70c3b	0.4200152
9	0x3f2312ef	0.63700765
10	0xbf44cd1f	-0.7687549
11	0x3e3222f8	0.17396152
12	0xbe82e21b	-0.2556313
13	0xbf6c4442	-0.92291653
14	0xbe02c975	-0.12772162
15	0xbeb31af6	-0.34981507

mlp.2.bias f4 [2]
0	0x3f64d823	0.893923
1	0xbf2d4529	-0.67683655
