compare_models/GCN_LSTM/model.pt (torch, 191823 bytes, 11 tensors)

weight_ih_l0 f4 [128, 64]
0	0xbcded595	-0.027201453
1	0xbde48bb3	-0.11159458
2	0xbd1397e8	-0.03603354
3	0xbe26efe1	-0.16302444
4	0xbd61dee0	-0.05514419
5	0xbdcd28a9	-0.10017521
6	0xbdac0093	-0.08398547
7	0xbd4edbea	-0.050502695
8	0xbcaec240	-0.02133286
9	0x3cc5e3b0	0.024156421
10	0x3dbe3000	0.09286499
11	0xbc91f13c	-0.017815225
12	0xbdab9475	-0.08377925
13	0x3e1ebf54	0.15502673
14	0x3e0b73a7	0.13618337
15	0xbdfcd505	-0.12345318
16	0x3e285c3d	0.16441436
17	0x3e311243	0.17292123
18	0xbe081660	-0.13289785
19	0x3e29639f	0.16541909
20	0x3e019ec7	0.12658225
21	0xbe0ee619	-0.13954963
22	0xbda28322	-0.07935168
23	0xbdd5af88	-0.104338706
24	0x3e18d3ed	0.14924593
25	0x3d232ad7	0.039835777
26	0x3ce9d413	0.028543508
27	0xbe2e5a32	-0.17026594
28	0xbd92eff4	-0.07174674
29	0x3d2a76b9	0.04161713
30	0xbe2d9799	-0.16952361
31	0xbb4c8235	-0.003120554
32	0xbd8dd075	-0.06924526
33	0x3cd3538e	0.025796678
34	0xbe0b8b43	-0.13627343
35	0xbe2fdfd6	-0.1717523
36	0xbdbef835	-0.093246855
37	0x3c698fc0	0.014255464
38	0xbd16c385	-0.036807556
39	0xbd2c7df2	-0.0421123
40	0x3daa5c45	0.0831838
41	0xbdf01b3e	-0.11723946
42	0xbd43ff52	-0.047850914
43	0xbce308b5	-0.027714113
44	0x3e1a4f90	0.15069413
45	0xbcd01e7e	-0.025405165
46	0xbda97992	-0.08275141
47	0xbdd5eaac	-0.10445151
48	0xbe2a000e	-0.16601583
49	0xbe222fd7	-0.15838562
50	0xbca3d26d	-0.0199978
51	0x3ce030e5	0.027367065
52	0xbde64b33	-0.11244812
53	0x3da07e52	0.07836594
54	0xbdee2c89	-0.11629588
55	0x3debd36d	0.11514936
56	0x3dbee04d	0.09320126
57	0x3e131679	0.14364041
58	0x3d183595	0.037160475
59	0x3db99fa6	0.09063654
60	0x3cb834fa	0.022486199
61	0x3d9ac94d	0.07557926
62	0x3d9efd1b	0.0776312
63	0x3c05ea9f	0.008173614
64	0xbe4045f7	-0.1877669
65	0x3cf2bfe9	0.029632526
66	0x3dc0be81	0.09411336
67	0x3e179347	0.14802276
68	0x3d0926c8	0.03348425
69	0xbdd67a60	-0.1047256
70	0x3e1201f3	0.14258556
71	0xbd9f667a	-0.07783218
72	0xbe00742c	-0.12544316
73	0x3da2d8f3	0.07951536
74	0xbe15d99b	-0.14633791
75	0xbc7c7eef	-0.015411123
76	0xbdeaca92	-0.114644185
77	0x3e3ee96e	0.18643734
78	0xbde36891	-0.11103929
79	0x3c527ad8	0.012846671
80	0x3cdd2fbf	0.027000306
81	0x3e019a16	0.12656435
82	0x3cad5a37	0.021161182
83	0xb86f1948	-5.7005585e-05
84	0x3d953894	0.07286182
85	0x3d86e29e	0.065861925
86	0xbe147a55	-0.14499791
87	0x3d1904dd	0.037358154
88	0x3ca75cb4	0.020429946
89	0xbde3da50	-0.11125624
90	0x3e1890ae	0.14898941
91	0x3d07d5e1	0.033162955
92	0x3dc00652	0.093762055
93	0x3e0ebd61	0.1393943
94	0xbde9c05d	-0.114136435
95	0xbdc3c2f4	-0.09558669
96	0x3b9fa79c	0.0048722755
97	0x3e027dd6	0.12743315
98	0xbdde2196	-0.1084625
99	0x3dae19ab	0.085009895
100	0x3e3a79c6	0.18210515
101	0x3d9564ba	0.07294603
102	0x3e20b5e9	0.15694393
103	0xbd4b89b1	-0.04969186
104	0xbe0b75cb	-0.13619153
105	0x3d828366	0.063727185
106	0x3d2971f2	0.041368432
107	0xbd690bfe	-0.056896202
108	0xbdb17710	-0.086652875
109	0xbc7f26ad	-0.015573186
110	0x3d8f0329	0.069830246
111	0x3df85d57	0.12127178
112	0xbd343b7b	-0.044002037
113	0xbd9f5323	-0.07779529
114	0x3e16e88c	0.14737147
115	0xbde654ac	-0.11246619
116	0xbe1d2a07	-0.15348063
117	0xbb538eff	-0.0032281277
118	0x3c191e45	0.009345596
119	0x3d6a8749	0.057257924
120	0x3da942b6	0.08264677
121	0xbe072294	-0.13196784
122	0x3e2e89cd	0.17044754
123	0x3d951502	0.072793975
124	0xbd6507e3	-0.055915724
125	0xbda40aa2	-0.080098405
126	0xbc2d060b	-0.010560523
127	0x3e10d297	0.14142834
128	0xbe37fe95	-0.17968209
129	0x3e0a3027	0.13494931
130	0x3dac534f	0.08414327
131	0xbe1bfcff	-0.15233229
132	0x3c089fdd	0.008338896
133	0xbe24f762	-0.16109994
134	0xbcfaa160	-0.030594528
135	0x3e173374	0.14765722
136	0x3be80bbe	0.007081478
137	0x3d9726b5	0.0738043
138	0x3dc97e22	0.09838511
139	0xbd3b23f3	-0.04568858
140	0x3d1461b7	0.036226
141	0x3d00d6da	0.0314549
142	0x3b6d9cd3	0.0036256805
143	0x3e0a5031	0.13507153
144	0x3da9aaf4	0.0828456
145	0x3d005014	0.03132637
146	0x3cf3ce1d	0.029761368
147	0xbd196370	-0.037448347
148	0xbd4ec789	-0.05048326
149	0xbd8c85d8	-0.06861466
150	0xbda13c5d	-0.078728415
151	0xbe0be371	-0.13660981
152	0xbcafaf9d	-0.021446044
153	0xbd235e88	-0.039885074
154	0xbe30658a	-0.17226234
155	0x3e2a6f28	0.16643965
156	0x3d3b323c	0.045702204
157	0x3dd09ba8	0.10185939
158	0xbe1f5077	-0.15558039
159	0x3dbc756e	0.092020854
160	0xbdf92c09	-0.12166602
161	0xbe2f0ef0	-0.17095542
162	0xbba250a2	-0.00495346
163	0xbddf42e2	-0.10901429
164	0xbc50945c	-0.012730684
165	0x3d8a1bf7	0.06743615
166	0x3d7dfc1c	0.06200801
167	0xbdca9391	-0.09891427
168	0xbe05d31d	-0.13068815
169	0xbe135ce3	-0.14390902
170	0x3dc6168b	0.096722685
171	0x3e1dba45	0.15403087
172	0xbe1dafc6	-0.15399083
173	0x3d0dbd2c	0.034604236
174	0xbc0d4993	-0.0086234985
175	0xbd48ed32	-0.049054332
176	0xbd4da7d1	-0.05020887
177	0xbe23db35	-0.1600159
178	0xbd5587e0	-0.052131534
179	0x3d40d955	0.047082264
180	0x3e02fa1e	0.12790725
181	0xbe2cfdfa	-0.1689376
182	0xbd6c1fb7	-0.057647433
183	0x3a9749bf	0.0011542364
184	0xbd805fad	-0.06268249
185	0x3e0eb4f4	0.13936216
186	0x3d3c7b26	0.04601588
187	0x3de719e1	0.11284233
188	0xbd82a25f	-0.06378626
189	0xbdece91f	-0.11567902
190	0x3dec6e19	0.11544437
191	0xbd1c2887	-0.038124587
192	0xb969313e	-0.00022238956
193	0x3dac1dbc	0.08404109
194	0xbe1785a4	-0.14797074
195	0x3e0df3d7	0.13862549
196	0x3aed67a3	0.0018112551
197	0x3e0167fc	0.12637323
198	0xbcd3af8a	-0.02584054
199	0x3dd70ea9	0.10500843
200	0x3e1e3913	0.1545146
201	0x3e25201d	0.16125531
202	0xbe29495a	-0.16531888
203	0xbe2824c8	-0.16420281
204	0xbe1c3850	-0.15255857
205	0xbdddbbc3	-0.10826828
206	0x3c7c3fec	0.0153961
207	0x3dad08d7	0.08448952
208	0x3e15713e	0.1459398
209	0xbbbda378	-0.0057873093
210	0x3e2922e4	0.16517216
211	0xbce7799b	-0.028256228
212	0x3dca2e45	0.098721065
213	0x3d591b97	0.053004827
214	0x3de17c38	0.11010021
215	0x3dfbfe48	0.1230436
216	0xbe288d62	-0.16460183
217	0xbe1cd5b7	-0.153159
218	0xbe216461	-0.15760948
219	0xbdbf921c	-0.0935404
220	0xbe1d47e6	-0.15359458
221	0xbdd28b35	-0.10280458
222	0xbdd75647	-0.10514503
223	0x3d70b766	0.058768652
224	0xbdb596f5	-0.088666834
225	0xbe016a61	-0.12638237
226	0x3e09058f	0.13381027
227	0xbe2785c4	-0.16359621
228	0x3dffaf72	0.124846354
229	0x3e1e0371	0.15431
230	0x3dd77614	0.105205685
231	0x3e0c19b1	0.13681675
232	0xbe11d535	-0.14241488
233	0xbb16fd94	-0.0023039328
234	0xbda6a2b1	-0.081365
235	0xbda953d8	-0.08267945
236	0xbe145a2f	-0.14487527
237	0x3e250682	0.16115764
238	0x3e1ef39d	0.15522619
239	0xbddb451d	-0.10706542
240	0x3e379f4c	0.1793186
241	0xbd6b1339	-0.05739138
242	0x3da1c939	0.07899708
243	0xbe370182	-0.17871669
244	0xbd8548c4	-0.065080196
245	0x3e0625a0	0.1310029
246	0xbe4992cd	-0.19684906
247	0x3c0ec799	0.00871458
248	0x3cd178d6	0.025570314
249	0x3e06e6df	0.13174008
250	0x3da91360	0.082556486
251	0xbe282918	-0.16421926
252	0xbd4d55bd	-0.050130595
253	0x3d8438df	0.0645616
254	0xbe1bfe0b	-0.15233628
255	0xbd66091f	-0.056161042

weight_hh_l0 f4 [128, 32]
0	0x3e06c1ed	0.13159914
1	0x3d185c5a	0.03719745
2	0xbe15eca9	-0.1464106
3	0x3e23a2b3	0.15980034
4	0x3c49d622	0.01231912
5	0xbd2820d9	-0.04104695
6	0xbe1a0037	-0.15039144
7	0xbd32e36e	-0.043673925
8	0xbc5c402d	-0.013443035
9	0xbe327ec6	-0.17431173
10	0x3e180537	0.1484574
11	0x3dd53e4f	0.10412275
12	0xbe13b76f	-0.14425443
13	0xbe0645d3	-0.13112573
14	0xbdf5b874	-0.11998072
15	0x3cdd37ca	0.027004141
16	0xbc528bd6	-0.012850722
17	0xbdf3df11	-0.11907781
18	0xbdc3c87e	-0.09559725
19	0xbe0ca3da	-0.1373438
20	0xbe23280d	-0.15933247
21	0x3e2490b9	0.16070832
22	0x3d87b36b	0.06626018
23	0xbe1d9fc4	-0.15392977
24	0xbd6860a5	-0.056732792
25	0x3da8669c	0.08222696
26	0xbddcb3d2	-0.107764855
27	0x3d43aa3d	0.047769774
28	0x3dac8d3a	0.08425374
29	0xbd8e5101	-0.06949044
30	0x3cd14e57	0.02555005
31	0xbdedbd62	-0.116083875
32	0x3db051a3	0.08609321
33	0xbd5368d3	-0.05161364
34	0xbdbb1bf6	-0.091361925
35	0xbe2aef4d	-0.16692849
36	0x3df14ec6	0.11782603
37	0x3e03186a	0.12802282
38	0xbbecd6a9	-0.007227738
39	0xbe25c918	-0.16189992
40	0x3d2099dc	0.03920923
41	0xbe34747f	-0.17622565
42	0x3e04bd68	0.12962878
43	0x3d9e0b8a	0.07717045
44	0xbd8c2c19	-0.068443485
45	0xbde1f6e0	-0.11033416
46	0x3ded53eb	0.11588272
47	0xbd5c6140	-0.053803682
48	0xbe2e20f6	-0.17004761
49	0x3e037357	0.12836967
50	0x3d978289	0.073979445
51	0x3d92dfd6	0.071715996
52	0xbd75b900	-0.059990883
53	0x3df19b08	0.11797148
54	0xbe0a555e	-0.13509127
55	0xbd030c97	-0.03199443
56	0xbd8ff9ec	-0.07030091
57	0xbe09611a	-0.13415948
58	0x3e1f057f	0.1552944
59	0xbe028985	-0.12747772
60	0xbdcbcd5a	-0.09951277
61	0x3ce1bb47	0.027555121
62	0x3de763a1	0.112982996
63	0x3d1de206	0.03854563
64	0xbe22f1cd	-0.15912552
65	0xbd6b5752	-0.057456322
66	0x3cf3f956	0.029781979
67	0xbcf39967	-0.029736234
68	0x3e2106ea	0.15725294
69	0xbd720414	-0.05908592
70	0xbe0b3b18	-0.13596761
71	0xbd97452b	-0.073862396
72	0x3da23c23	0.079216264
73	0x3d7e7532	0.062123485
74	0x3e283b09	0.1642877
75	0x3db93879	0.090439744
76	0xbc48e5e0	-0.012261838
77	0x3e0813bb	0.13288777
78	0x3e0915df	0.1338725
79	0xbd5407ef	-0.05176538
80	0xbd98a57c	-0.07453439
81	0x3cf49e04	0.029860504
82	0x3def80a4	0.11694458
83	0xbe2eba45	-0.17063244
84	0xbdad8f86	-0.084746405
85	0x3cf566f7	0.029956324
86	0xbe337e15	-0.17528565
87	0xbdfdaca9	-0.12386448
88	0xbc90d473	-0.017679429
89	0x3df899de	0.12138723
90	0x3d879406	0.0662003
91	0xbdb66297	-0.08905523
92	0xbe1927e2	-0.1495662
93	0xbe0150ba	-0.12628451
94	0x3e29ac3c	0.16569608
95	0x3d33dcd2	0.043911763
96	0xbc1bf057	-0.009517751
97	0xbd307931	-0.043084327
98	0xbe17aa6b	-0.14811103
99	0xbdc03c02	-0.093864456
100	0x3d33c80c	0.04389195
101	0xbb9ce3bb	-0.00478789
102	0x3d4870f1	0.048935834
103	0x3e17bf23	0.14819007
104	0x3e157b28	0.14597762
105	0xbd7399e1	-0.059472922
106	0x3d12e431	0.03586215
107	0x3e269480	0.16267586
108	0xbe207dfe	-0.15673062
109	0x3dfca669	0.12336428
110	0xbddd6d98	-0.10811919
111	0xbe0d7e42	-0.13817695
112	0x3d20da11	0.039270464
113	0x3c9f4ce0	0.019445837
114	0x3c8c0cda	0.017095972
115	0x3c5c52ca	0.013447473
116	0xbdf30f6d	-0.118681766
117	0x3d209225	0.039201874
118	0xbe3ceab5	-0.18448909
119	0xbdd43c70	-0.1036309
120	0xbe17af82	-0.14813045
121	0x3dbd4b50	0.0924288
122	0x3dc3b0d7	0.09555214
123	0xbe1284e4	-0.14308506
124	0x3e008d66	0.12553939
125	0xbe1fcc08	-0.15605175
126	0x3dcd0893	0.10011401
127	0xbc44b4de	-0.012006013
128	0xbdee0217	-0.11621492
129	0xbe2e5c92	-0.170275
130	0x3d8d1ae1	0.06889892
131	0xbe258521	-0.16164066
132	0x3da33b75	0.07970325
133	0x3e2aa9c1	0.16666318
134	0x3d909e6d	0.07061467
135	0x3e2c30f2	0.16815546
136	0xbdfc8420	-0.12329888
137	0x3d35d2af	0.044390377
138	0xbdf55773	-0.1197957
139	0xbc8c1839	-0.017101394
140	0xbe0324bc	-0.12806982
141	0x3d2681c4	0.040651098
142	0xbdd66989	-0.10469348
143	0x3ce11d7f	0.027479885
144	0xbd8888b3	-0.06666698
145	0x3cad12ad	0.02112707
146	0xbe2fc20f	-0.17163871
147	0x3e05fff0	0.13085914
148	0xbdf438f3	-0.11924925
149	0xbe0302b8	-0.12794006
150	0xbc6ad1e2	-0.0143322665
151	0xbddf96f5	-0.10917465
152	0xbd320f08	-0.043471366
153	0xbe103f03	-0.14086537
154	0xbd948a87	-0.072529845
155	0x3e0e6e90	0.13909364
156	0xbcb0dc51	-0.02158943
157	0x3cc167e1	0.023609104
158	0x3da50fee	0.08059679
159	0x3e1316c7	0.14364158
160	0xbc4e6022	-0.012596162
161	0x3d01d0ee	0.03169339
162	0x3c97ba8c	0.01852157
163	0x3d6c9bec	0.057765886
164	0xbdedf5e2	-0.11619164
165	0xbe38a5a2	-0.18031934
166	0x3e16360c	0.14669055
167	0x3c8cbed7	0.017180843
168	0xbd34723e	-0.044054262
169	0xbe00ff6c	-0.12597436
170	0xbe32a2be	-0.17444894
171	0x3d2ea32c	0.04263608
172	0xbde36095	-0.11102406
173	0x3e2e4a99	0.17020644
174	0xbbcff62e	-0.0063464856
175	0x3e1a65ee	0.15077946
176	0x3e282590	0.16420579
177	0x3e13be9a	0.14428177
178	0x3d90fd28	0.07079536
179	0x3dcbe720	0.09956193
180	0x3e0a7786	0.13522157
181	0x3e09e60d	0.13466664
182	0x3e2646b4	0.16237909
183	0x3dc2a114	0.095033795
184	0x3d729c15	0.059230883
185	0xbdc10cef	-0.09426295
186	0x3cf6f69d	0.030146891
187	0xbc6d1b30	-0.014471814
188	0xbe0090ed	-0.12555285
189	0x3dc7b91f	0.09752106
190	0xbe17b352	-0.14814499
191	0xbd0a14e6	-0.033711337
192	0xbe3d1479	-0.18464841
193	0x3dd80c00	0.10549164
194	0x3df7dfb7	0.12103217
195	0x3d186a56	0.037210785
196	0x3da374ea	0.07981284
197	0x3e0b9ccd	0.13634034
198	0x3cc5c0cb	0.024139782
199	0x3e19eea3	0.15032439
200	0xbda6508f	-0.08120834
201	0x3e07fd23	0.13280158
202	0x3d021c71	0.031765405
203	0x3da961cc	0.082706064
204	0x3db73d8f	0.08947288
205	0x3de989b5	0.11403219
206	0x3de0a038	0.10968059
207	0xbe149a44	-0.14511973
208	0xbd312678	-0.043249577
209	0x3d9474cc	0.0724884
210	0x3d73cac2	0.059519537
211	0xbd8b3d05	-0.06798748
212	0xbd65b149	-0.056077275
213	0xbc3f0160	-0.011658043
214	0x3d489012	0.04896552
215	0xbcf61b53	-0.030042326
216	0x3c5e12f3	0.0135543225
217	0x3debc362	0.11511876
218	0xbdd18c6b	-0.10231861
219	0xbbbf3de5	-0.005836236
220	0x3d8a1b35	0.067434706
221	0xbde773e5	-0.11301402
222	0xbe01cfa6	-0.12676868
223	0xbda5cb40	-0.080954075
224	0x3d9b8b34	0.0759491
225	0xbb73debf	-0.0037211624
226	0x3e317ea2	0.17333463
227	0xbd9b2079	-0.07574553
228	0xbdea3cd8	-0.11437386
229	0x3ddc0144	0.10742429
230	0xbc64a04d	-0.013954234
231	0xbd1e42e5	-0.038638014
232	0x3e117b67	0.1420723
233	0xbdd0c232	-0.1019329
234	0x3dfe28f4	0.12410155
235	0x3dc8a633	0.09797325
236	0x3d67c72f	0.05658644
237	0x3ca4e99f	0.02013093
238	0xbdeab1a0	-0.114596605
239	0xbdd43c2d	-0.1036304
240	0x3e0bd879	0.13656797
241	0x3e2142d2	0.15748146
242	0xbe0f567f	-0.1399784
243	0x3df94c32	0.12172736
244	0xbe34de32	-0.17662886
245	0x3dc03a93	0.09386172
246	0x3e0477e5	0.12936361
247	0x3be2423f	0.00690487
248	0xbb89821b	-0.004196418
249	0xbd98a93b	-0.07454153
250	0x3d3f2494	0.046665743
251	0x3d9318ee	0.07182489
252	0xbd572b00	-0.052531242
253	0xbdbcd536	-0.09220354
254	0xbdd0cb4d	-0.101950265
255	0x3da0ff2c	0.0786117

bias_ih_l0 f4 [128]
0	0x3e081285	0.13288315
1	0xbe17cf7d	-0.14825244
2	0xbe2532ef	-0.16132711
3	0x3c5f7cb4	0.013640571
4	0x3d601180	0.05470419
5	0x3e030454	0.1279462
6	0xbcfed962	-0.031109516
7	0xbde19763	-0.11015203
8	0x3d422e3b	0.04740737
9	0x3d8ed480	0.06974125
10	0xbd563d14	-0.052304342
11	0x3e1790dc	0.14801353
12	0xbd24b42c	-0.040210888
13	0x3d045b47	0.03231361
14	0x3dc6a46b	0.09699329
15	0x3e0e550b	0.13899629
16	0x3d50ac94	0.050945833
17	0xbdb5f286	-0.08884148
18	0x3e363306	0.17792901
19	0x3e218c0e	0.15776083
20	0x3cdd2655	0.026995817
21	0xbe157b5e	-0.14597842
22	0xbe1a41aa	-0.15064111
23	0x3c909efe	0.017653938
24	0xbe2791f2	-0.16364267
25	0x3d895003	0.06704714
26	0x3d98bd9e	0.074580416
27	0x3e0d9bd1	0.1382897
28	0x3e18093f	0.14847277
29	0x3e0f19ae	0.1397464
30	0x3e091dcb	0.13390271
31	0xbdf88a70	-0.1213578
32	0xbe14dd41	-0.14537527
33	0xbdb988c5	-0.0905929
34	0x3d8aae7e	0.06771563
35	0xbdadca53	-0.08485856
36	0xbe1ae657	-0.1512693
37	0x3dba4491	0.09095109
38	0x3ddf6b3f	0.109091274
39	0xbbee7f70	-0.0072783753
40	0x3d8026f4	0.0625743
41	0xbd480adf	-0.048838492
42	0x3db69322	0.08914782
43	0xbdfac512	-0.122446194
44	0x3e14ea6c	0.1454255
45	0x3d899ece	0.06719743
46	0xbbddfa15	-0.006774197
47	0x3de16b4e	0.11006795
48	0x3e00fda2	0.12596753
49	0xbe2cf5f0	-0.16890693
50	0x3e3983d7	0.18116699
51	0xbc719cf2	-0.014746891
52	0xbd5fd19e	-0.054643266
53	0xbe349f07	-0.17638789
54	0xbc9414fa	-0.018076409
55	0x3da18d2d	0.07888255
56	0xbda7300a	-0.081634596
57	0xbe1180e8	-0.1420933
58	0x3df5f36c	0.1200932
59	0x3e024ad9	0.12723865
60	0xbde283d3	-0.110603
61	0xbd9cfba1	-0.07665182
62	0x3d52f0e8	0.051499277
63	0x3dc50442	0.09619953
64	0xbd746dbe	-0.05967497
65	0xbdeb8286	-0.11499505
66	0xbd49a496	-0.049229227
67	0xbe1763aa	-0.14784113
68	0xbdf5706f	-0.11984336
69	0x3e22c647	0.1589595
70	0xbd486c86	-0.04893162
71	0xbe4b3f9b	-0.19848482
72	0xbda0cebb	-0.07851931
73	0xbe1bdd3f	-0.15221117
74	0x3da04dca	0.07827337
75	0xbd661d6f	-0.056180414
76	0x3c97333e	0.018457051
77	0xbdcf645e	-0.101265654
78	0xbdca8a91	-0.09889711
79	0x3e154c15	0.14579804
80	0x3c8ba7c1	0.017047765
81	0x3d65bcf5	0.056088407
82	0xbd2b2e3b	-0.041792136
83	0x3d6d0e04	0.057874694
84	0xbcbe5771	-0.023235055
85	0x3e15cea9	0.14629616
86	0xbe10a940	-0.14127064
87	0x3ddb1fae	0.10699402
88	0x3db8a8ff	0.090166084
89	0x3dde5e5f	0.108578436
90	0xbd875245	-0.066074885
91	0xbddd7319	-0.10812969
92	0x3e24bbad	0.16087218
93	0xbe14c919	-0.14529838
94	0xbdc39346	-0.095495746
95	0xbcc3fb0d	-0.023923421
96	0x3e38cd65	0.18047102
97	0x3e1bd53c	0.15218061
98	0x3cb86d28	0.022512987
99	0x3d883f4c	0.06652698
100	0xbd179902	-0.037011154
101	0x3b961e19	0.0045812246
102	0xbe226f2f	-0.15862726
103	0x3d2d4b5c	0.042308196
104	0xbd7149e7	-0.05890837
105	0xbd838c9d	-0.06423304
106	0xbc938fa0	-0.018012822
107	0xbb8cdc74	-0.004298741
108	0xbbe28360	-0.006912634
109	0xbdc2e4fa	-0.0951633
110	0x3d98be5f	0.074581854
111	0xbe20fd31	-0.15721585
112	0xbd3813f4	-0.044940904
113	0xbe047bfa	-0.12937918
114	0x3d9fb4e2	0.077981725
115	0xbcf0abf0	-0.029378861
116	0xbd0715d6	-0.03297981
117	0xbe0eb51f	-0.1393628
118	0xbcd6b2f3	-0.026208377
119	0x3d2985d0	0.04138738
120	0x3b69f7ac	0.0035700602
121	0xbae323dd	-0.0017329414
122	0xbde61914	-0.11235252
123	0xbdebbe5a	-0.11510916
124	0xbe022cd2	-0.1271241
125	0x3c97ac5d	0.018514806
126	0x3e3072b4	0.17231256
127	0x3bb41796	0.0054959757

bias_hh_l0 f4 [128]
0	0xbd808b0d	-0.06276522
1	0xbe1bbe86	-0.15209398
2	0xbc858fb8	-0.016303882
3	0xbb0d2905	-0.0021539342
4	0x3d7778b4	0.060417846
5	0x3e32b464	0.17451626
6	0x3dfc525f	0.123203985
7	0xbe1e19a5	-0.1543947
8	0x3da4c2ea	0.080449894
9	0x3db1e90c	0.08687028
10	0xbe0283b8	-0.12745559
11	0x3e01b718	0.12667501
12	0xbd416681	-0.047216896
13	0xbdc0106c	-0.09378132
14	0x3df76546	0.12079863
15	0xbceb5b5a	-0.028730083
16	0xbd87b16e	-0.06625639
17	0xbdb2f791	-0.08738626
18	0xbdeaf78a	-0.114729956
19	0xbdbb17b6	-0.09135382
20	0x3db54ab9	0.08852143
21	0xbde05ef2	-0.109556094
22	0x3dda30f1	0.10653866
23	0xbe0b57fe	-0.13607785
24	0x3e07e20c	0.13269824
25	0xbd947947	-0.07249694
26	0x3d4fffe5	0.05078115
27	0xbda273b2	-0.079322234
28	0x3d807b84	0.06273559
29	0xbe0aea48	-0.13565934
30	0xbe23dbb0	-0.16001773
31	0xbdabde55	-0.08392016
32	0x3e1414b1	0.14461018
33	0xbd2bd9e1	-0.041955832
34	0xbde06eb1	-0.10958613
35	0xbd10ad0f	-0.03532129
36	0x3ddd5404	0.1080704
37	0x3e0fbc04	0.14036566
38	0x3d678727	0.056525376
39	0x3d7f5cf3	0.062344503
40	0xbdf23d9c	-0.11828157
41	0xbe0c082d	-0.13674994
42	0xbc3cd3e5	-0.011525129
43	0xbcba9a42	-0.022778634
44	0xbddd40e5	-0.10803393
45	0xbe24451f	-0.16041993
46	0x3d8ef54c	0.069803804
47	0x3dc491b2	0.09598102
48	0x3da67aa7	0.08128863
49	0xbd881b40	-0.066458225
50	0x3b852ac1	0.0040639346
51	0xbde1c70d	-0.11024294
52	0xbdfb4126	-0.122682855
53	0xbd8679d5	-0.06566206
54	0x3e291ec8	0.16515648
55	0x3df3cf26	0.11904745
56	0x3e0bf06d	0.13665934
57	0xbe06bb19	-0.1315731
58	0x3de13129	0.10995705
59	0xbd51575f	-0.051108714
60	0x3df660d0	0.12030184
61	0x3d6328a3	0.055458676
62	0xbc2bfbdd	-0.010497061
63	0x3da6b382	0.08139707
64	0x3df224c3	0.11823418
65	0x3de312e3	0.11087587
66	0xbd464e6c	-0.048414633
67	0x3e21f3dd	0.15815683
68	0x3e187012	0.14886501
69	0x3dc469d8	0.095905006
70	0xbb858147	-0.004074249
71	0xbe03df1e	-0.12878081
72	0xbdb509fe	-0.088397965
73	0x3dabe0da	0.083924964
74	0x3d14a2cc	0.036288068
75	0xbdf76dca	-0.120814875
76	0xbe17da31	-0.14829327
77	0x3d597c96	0.05309733
78	0xbb5c2b5b	-0.0033595178
79	0x3d8aabf2	0.06771077
80	0xbe3eccbf	-0.18632792
81	0xbdb6d81a	-0.08927937
82	0x3d5da9cf	0.05411702
83	0xbd8c1820	-0.06840539
84	0xbe0166d0	-0.12636876
85	0x3b27bf59	0.002559623
86	0x3dadd7d6	0.08488433
87	0xbc020a3e	-0.007937012
88	0x3cd5548a	0.026041288
89	0x3e23ba14	0.15988952
90	0xbe0d060f	-0.13771842
91	0x3cf194ad	0.02948984
92	0x3dd6500b	0.10464486
93	0x3c293de0	0.010329694
94	0x3c04fd3a	0.008117015
95	0x3e072086	0.13196
96	0xbd617ad4	-0.05504878
97	0xbda6dcb0	-0.081475616
98	0xbe0e758a	-0.13912025
99	0xbd60e080	-0.0549016
100	0x3e2f1624	0.1709829
101	0x3d23e437	0.040012565
102	0x3e1861ff	0.14881133
103	0xbdd3a699	-0.1033451
104	0xbd476def	-0.048688825
105	0x3d88ca87	0.06679254
106	0x3d0a941c	0.033832654
107	0x3bae4f13	0.005319485
108	0xbe20539e	-0.15656897
109	0xbc1b96b8	-0.009496383
110	0xbe178d2c	-0.14799947
111	0xbdb6da6a	-0.08928378
112	0x3d717f86	0.058959506
113	0x3e2422a6	0.16028842
114	0xbcf08945	-0.02936233
115	0x3d9144b2	0.07093181
116	0x3d605fc2	0.05477882
117	0xbe03370d	-0.12813969
118	0xb8e2b951	-0.00010811038
119	0x3cbbdc74	0.022932269
120	0x3da4bb68	0.080435574
121	0x3d1e8c83	0.03870822
122	0xbcdbf5dc	-0.026850633
123	0xbdbcb62a	-0.092144325
124	0x3d9e97f0	0.077438235
125	0x3e00e40f	0.12586997
126	0xbe144ec3	-0.1448317
127	0x3cc6f37c	0.024286024

scorer f4 [64, 1]
0	0xbdbdcbf2	-0.09267415
1	0xbd9d7ea6	-0.07690172
2	0x3d1e1a80	0.03859949
3	0x3c77d960	0.01512751
4	0xbd91c5d4	-0.07117811
5	0x3dd23a76	0.10265057
6	0x3dfcf450	0.123512864
7	0xbda08772	-0.07838334
8	0x3cf157e0	0.029460847
9	0x3d081bd0	0.03322965
10	0x3dfe72ea	0.12424262
11	0xbdfdf80e	-0.12400828
12	0xbcc80f40	-0.024421334
13	0x3db3be20	0.08776498
14	0xbdb852be	-0.09000157
15	0x3db48188	0.088137686
16	0x3da098ae	0.07841621
17	0x3dd8e2d2	0.105901375
18	0x3dc32034	0.09527627
19	0xbd5d69bc	-0.054055914
20	0x3db9945e	0.09061502
21	0xbd98132c	-0.07425532
22	0x3c8dc540	0.01730597
23	0x3d266538	0.040623873
24	0xbde94a04	-0.113910705
25	0x3dfcdd1a	0.12346859
26	0x3bb66060	0.005565688
27	0x3cf63af0	0.0300574
28	0xbc7df6a0	-0.0155006945
29	0x3d564bfc	0.052318558
30	0xbd56c9c0	-0.052438498
31	0x3de612a8	0.11234027
32	0x3dace79e	0.08442615
33	0x3cc7ea38	0.024403676
34	0x3df19500	0.117959976
35	0xbdc05054	-0.093903214
36	0xbda78a2c	-0.08180651
37	0x3d94bcba	0.07262559
38	0xbd73aac0	-0.05948901
39	0xbc449e50	-0.012000635
40	0x3d705b18	0.058680624
41	0x3c537740	0.012906849
42	0x3dd0db10	0.10198033
43	0xbdfa4f12	-0.12222113
44	0x3dcb58e0	0.09929061
45	0xbd8c1224	-0.068393975
46	0xbd100d3c	-0.03516887
47	0x3d463888	0.048393756
48	0xbdfdecfa	-0.12398715
49	0x3dcd2b0e	0.10017978
50	0x3d897dd2	0.067134514
51	0x3daa94f4	0.08329192
52	0xbb81b720	-0.003958598
53	0xbdea67da	-0.11445589
54	0x3b0a3e40	0.0021094233
55	0xbdaccce6	-0.08437519
56	0x3ca05068	0.01956959
57	0xbdeeee26	-0.11666517
58	0x3cd9b250	0.026574284
59	0x3df3bf66	0.11901741
60	0xbd54ac6c	-0.051922247
61	0xbd589c74	-0.05288358
62	0x3dee6fba	0.11642404
63	0xbd95e358	-0.07318753

0 f4 [200, 128]
0	0x3da66fc9	0.0812679
1	0xbdc239c9	-0.09483678
2	0xbe082ca3	-0.13298278
3	0x3ddfc15b	0.109255515
4	0x3cc2e0f9	0.023788916
5	0xbc5e041f	-0.013550787
6	0x3d7e8a90	0.062143862
7	0x3c2a7d3c	0.010405835
8	0xbda7051c	-0.081552714
9	0x3de23192	0.11044611
10	0xbd103a87	-0.035212066
11	0x3daad19a	0.083407596
12	0xbdfe0a07	-0.12404256
13	0xbe0070d8	-0.12543046
14	0xbe03cef1	-0.1287191
15	0xbd032ae6	-0.032023333
16	0xbba1e43c	-0.0049405377
17	0xbdfecfdb	-0.12441989
18	0xbc861137	-0.01636563
19	0x3de899b0	0.113574386
20	0x3cae89a6	0.02130587
21	0xbcb7669b	-0.022387793
22	0xbd7efcfa	-0.062252976
23	0xbcff6e3f	-0.0311805
24	0xbe0ebb8d	-0.13938732
25	0x3e098dc8	0.13432992
26	0xbe0a484b	-0.1350414
27	0x3d2b638f	0.041842993
28	0x3dbd019a	0.09228821
29	0x3cf3bce2	0.029753152
30	0xbd4f6f05	-0.050642986
31	0xbe062113	-0.13098554
32	0x3d4a3589	0.04936746
33	0xbdb72b3b	-0.089437924
34	0x3d514523	0.051091325
35	0xbd5e359c	-0.054250345
36	0xbc0f5bcd	-0.008749914
37	0x3d9bddb5	0.07610647
38	0x3dc013c2	0.093787685
39	0x3d0a7c53	0.03380997
40	0x3da77509	0.081766196
41	0x3ce2153d	0.027598018
42	0xbd8f4b14	-0.06996742
43	0x3daf5ae7	0.0856226
44	0xbd3b2c39	-0.04569647
45	0xbdba9eb1	-0.09112299
46	0xbdebc978	-0.115130365
47	0x3d06c0dd	0.032898773
48	0x3df11c9c	0.11773035
49	0x3de599c9	0.11210973
50	0xbd9dea94	-0.07710758
51	0xbd13ea1f	-0.036111947
52	0x3df69f55	0.12042109
53	0x3d50a42c	0.050937817
54	0xbd8ab68d	-0.067731
55	0x3d8e26ff	0.06941032
56	0x3d4df6f5	0.050284345
57	0xbe0d79bc	-0.13815969
58	0xbdf15185	-0.11783127
59	0x3e04bcca	0.12962642
60	0x3daa6643	0.08320286
61	0xbd5fa9ca	-0.054605283
62	0x3dd7e9c8	0.10542637
63	0x3e13a116	0.14416918
64	0x3c9ae02e	0.018905725
65	0xbd909629	-0.07059891
66	0xbd1dcac4	-0.03852345
67	0x3cca780a	0.024715442
68	0xbd264609	-0.040594134
69	0x3cd97d14	0.0265489
70	0xbdb7adcb	-0.08968695
71	0x3dfe19b2	0.12407245
72	0x3be0ec06	0.0068640737
73	0xbdf00f81	-0.11721707
74	0x3d475f5b	0.048674922
75	0xbc79c81a	-0.015245462
76	0x3dd0ed89	0.10201556
77	0x3dda7910	0.10667622
78	0xbe0a7c5f	-0.13524006
79	0xbd7ac927	-0.06122699
80	0x3ae5e852	0.001754055
81	0xbcc9b37e	-0.024621721
82	0xbd4b6dff	-0.049665447
83	0x3c9a8af8	0.018865094
84	0x3dcff1cf	0.10153543
85	0x3e0571bc	0.13031667
86	0xbca5496f	-0.020176617
87	0x3c99bbac	0.018766247
88	0xbd5ac8ef	-0.05341428
89	0x3da0e33e	0.07855843
90	0xbdbfebbc	-0.09371135
91	0x3d755dd3	0.05990393
92	0x3e0c8d8e	0.13725874
93	0xbddf52e2	-0.109044805
94	0xbd047289	-0.03233579
95	0x3d431763	0.047629725
96	0xbbdf3eba	-0.0068128975
97	0xbd77d79e	-0.060508363
98	0x3da673e0	0.0812757
99	0xbcc31f40	-0.023818612
100	0xbd04a935	-0.03238793
101	0x3e082993	0.1329711
102	0xbca3d26d	-0.0199978
103	0xbda0afbb	-0.07846018
104	0xbdf7e435	-0.12104074
105	0x3d93a8e7	0.0720995
106	0xbdd0e7b5	-0.102004446
107	0xbe045478	-0.12922847
108	0x3de60771	0.11231888
109	0xbde626ea	-0.11237891
110	0x3d940a8e	0.07228576
111	0xbe014b9a	-0.12626496
112	0xbbc4a26a	-0.0060008066
113	0x3dfed5a6	0.12443094
114	0xbd3fdd55	-0.046841938
115	0xbde12ebb	-0.10995241
116	0x3bb18616	0.0054175956
117	0xbe10acc5	-0.14128406
118	0xba8a4c1d	-0.0010551248
119	0x3da962aa	0.08270772
120	0xbce87b98	-0.028379247
121	0x3d898af0	0.06715953
122	0xbb951fe5	-0.0045509213
123	0xbdc3c171	-0.095583804
124	0xbd6d6e36	-0.057966433
125	0x3d7d83ea	0.06189338
126	0x3c613280	0.01374495
127	0x3c306b7c	0.010767814
128	0x3d93b892	0.07212938
129	0x3c7d8cd0	0.015475467
130	0x3d145708	0.036215812
131	0x3deaa095	0.1145641
132	0xbdfa11c2	-0.12210418
133	0x3cda7bec	0.026670419
134	0x3d7e94bf	0.062153574
135	0xbdbad413	-0.09122481
136	0x3d2e89b4	0.042611793
137	0xbde2d5a0	-0.11075902
138	0xbab3d29c	-0.0013719383
139	0x3cab0039	0.02087413
140	0x3ceb46b3	0.028720235
141	0xbd686bfd	-0.05674361
142	0xbd97cb80	-0.074118614
143	0xbd23cf75	-0.03999277
144	0x3e02b609	0.12764753
145	0xbde3920e	-0.11111842
146	0xbe0a856d	-0.1352746
147	0xbca4543f	-0.020059703
148	0xbc81a4a6	-0.01582558
149	0x3d59430c	0.053042457
150	0xbd8ebf15	-0.0697004
151	0xbcd1a8e2	-0.025593225
152	0xbddd5a2c	-0.108082145
153	0x3dce20c8	0.10064846
154	0x3c0e42de	0.008682935
155	0x3e071850	0.13192868
156	0xbe0e714f	-0.13910411
157	0x3d13e519	0.036107156
158	0xbcc3ba3a	-0.02389251
159	0x3e04f9a1	0.12985851
160	0x3e10556f	0.1409509
161	0xbe022b59	-0.12711848
162	0xbd000cbe	-0.031262152
163	0x3db3d963	0.087816976
164	0xbd83560a	-0.06412895
165	0x3e00ea3e	0.12589356
166	0xbce15b0d	-0.027509237
167	0x3d85f704	0.06541255
168	0xbca0c067	-0.019622995
169	0xbdba5b7f	-0.09099483
170	0x3dd123d5	0.102119125
171	0x3d89f985	0.06737045
172	0xbdda3a54	-0.106556565
173	0xbd83c77c	-0.06434533
174	0x3d998e65	0.07497863
175	0xbd72601d	-0.059173692
176	0x3d974a5f	0.07387232
177	0xbc4706e3	-0.012147638
178	0xbdc59631	-0.09647787
179	0x3d1ce087	0.038300063
180	0xbc4cc9e7	-0.012499309
181	0x3dc55db1	0.09637011
182	0xbd677a0d	-0.05651288
183	0x3c537373	0.012905943
184	0xbcba9d0f	-0.02277997
185	0xbda63af9	-0.08116717
186	0x3dfd7c4f	0.123772256
187	0x3d14fb47	0.03637245
188	0x3d51ce18	0.051221937
189	0x3df0321e	0.11728309
190	0x3ce581d2	0.028016005
191	0xbd732ec1	-0.05937076
192	0xbc7f3c6d	-0.0155783715
193	0xbc3aed67	-0.01140914
194	0x3d53fbe1	0.051753882
195	0x3c8d2986	0.017231714
196	0x3d567aa3	0.05236305
197	0x3de7d997	0.11320799
198	0xbd23d5e5	-0.039998908
199	0xbdc398e9	-0.0955065
200	0x3d47ff7a	0.048827626
201	0x3d8c378c	0.06846532
202	0xbcc9b3a4	-0.024621792
203	0xbceaa266	-0.02864189
204	0x3ddaf063	0.106903814
205	0xbdcd5e5c	-0.10027763
206	0x3c10c2f5	0.008835544
207	0xbd881ec6	-0.066464946
208	0xbc108d41	-0.00882274
209	0x3e021f4a	0.12707248
210	0x3dd1bbe7	0.10240918
211	0x3d893c64	0.06700972
212	0xbb352476	-0.002764014
213	0xbdbdc4e0	-0.092660666
214	0xbd1cb12e	-0.03825491
215	0xbd391e52	-0.04519493
216	0xbbdbedb0	-0.006711684
217	0xbdb8cb74	-0.090231806
218	0x3db237b8	0.08702034
219	0xbdf382b3	-0.11890163
220	0xbd419b47	-0.047267225
221	0xbdcd2e64	-0.10018614
222	0x3d2c5761	0.04207552
223	0xbd1dad7c	-0.038495526
224	0x3dd92695	0.10603062
225	0xbd2bb709	-0.041922603
226	0x3dab1b65	0.083548345
227	0x3d4d80db	0.050171714
228	0xbdaf0ad3	-0.085469864
229	0x3d2d069e	0.04224264
230	0xbc6dba66	-0.014509773
231	0x3dbf5727	0.09342795
232	0xbd74f53e	-0.059804194
233	0xbd891275	-0.066929735
234	0xbc984e47	-0.018592013
235	0xbdfbd188	-0.12295824
236	0x3c03cb44	0.008044068
237	0x3d259e0f	0.04043394
238	0x3dd26fdc	0.10275242
239	0xbdbee816	-0.09321611
240	0x3d12b8d2	0.03582079
241	0xbe0bcfec	-0.13653535
242	0xbcd0d759	-0.02549331
243	0xbcb9bfaf	-0.02267441
244	0xbc780424	-0.015137706
245	0x3d16cdca	0.03681735
246	0x3da60734	0.08106843
247	0xbd7da989	-0.06192926
248	0x3c2809ee	0.010256274
249	0x3c87a552	0.016558323
250	0xbd7b12b8	-0.06129715
251	0xbbaced2e	-0.0052772975
252	0xbd7bd35d	-0.06148087
253	0xbcd74097	-0.026275916
254	0xbaef1bde	-0.0018242558
255	0xbd615ffb	-0.055023175

1 f4 [128, 64]
0	0xbd9b2b3c	-0.07576606
1	0xbd89ff39	-0.06738133
2	0xbe11ac71	-0.14225937
3	0x3d166b73	0.036723565
4	0x3e185a6c	0.14878243
5	0xbce55e0d	-0.027998948
6	0x3e1e2161	0.1544242
7	0xbd6de222	-0.058076985
8	0x3dfe09f7	0.124042444
9	0x3e23e9b4	0.1600712
10	0x3dce3e78	0.10070509
11	0xbdf00a8a	-0.1172076
12	0x3e30d071	0.17267014
13	0xbd92c325	-0.07166127
14	0xbe2b0d62	-0.16704324
15	0x3de1c3c2	0.11023666
16	0xbd92940f	-0.07157146
17	0xbcd70020	-0.026245177
18	0xbd439eaa	-0.047758736
19	0xbe2cf707	-0.16891108
20	0xbe3c92ed	-0.18415423
21	0xbcd1928d	-0.025582576
22	0xbe1fdc80	-0.15611458
23	0x3ce35c8f	0.027754096
24	0x3d80b790	0.06285012
25	0x3cd781f7	0.02630709
26	0xbd75ca95	-0.06000765
27	0xbd1b2553	-0.037877392
28	0x3c3fe8a1	0.011713178
29	0xbe088736	-0.13332829
30	0x3dff8cb5	0.124780096
31	0xbcb16cb0	-0.021658272
32	0xbe30237e	-0.17201039
33	0x3db5faca	0.08885725
34	0xbd905600	-0.07047653
35	0x3e2ee3d9	0.17079104
36	0xbe0d6775	-0.13808997
37	0x3d4a29ac	0.049356148
38	0x3d4d4ae6	0.050120257
39	0xbdefb9f5	-0.1170539
40	0xbdf43b7d	-0.11925409
41	0xbe1133c4	-0.14179903
42	0xbd9e7278	-0.07736677
43	0xbde81866	-0.11332779
44	0xbd54ea30	-0.05198115
45	0xbca6635e	-0.020311054
46	0x3e04559a	0.1292328
47	0x3d750ab0	0.059824646
48	0x3e00a27c	0.12561983
49	0x3e02d197	0.12775265
50	0x3df46a1a	0.119343
51	0xbe38592d	-0.18002768
52	0x3dcc9bdd	0.09990666
53	0xbd8b6070	-0.06805503
54	0x3cd34ac9	0.025792496
55	0x3df21ba7	0.118216805
56	0xbe22df12	-0.15905407
57	0x3e30dc98	0.1727165
58	0xbd8e2a53	-0.069416665
59	0xbdf4a0d0	-0.11944735
60	0xbdb4be98	-0.088254154
61	0xbd5e9a34	-0.05434628
62	0x3d51d1a4	0.05122532
63	0xbe2fd803	-0.17172246
64	0x3cfbba76	0.03072856
65	0x3d9bb30b	0.07602509
66	0xbdd612b6	-0.104527876
67	0x3e0abe75	0.13549216
68	0x3b8549dd	0.004067643
69	0xbdba6aab	-0.091023766
70	0x3dfb5928	0.122728646
71	0xbe18387b	-0.14865296
72	0x3d266ba2	0.04062999
73	0x3e23e566	0.16005477
74	0xbdc8d321	-0.09805895
75	0xbdf02182	-0.11725141
76	0x3df2a86a	0.11848529
77	0xbd9d35cc	-0.076762766
78	0xbdc3359f	-0.09531712
79	0x3e306d52	0.17229202
80	0x3dcce195	0.10003964
81	0xbca82fe4	-0.020530649
82	0x3dec8ac8	0.11549908
83	0x3d340fef	0.043960508
84	0x3d53f3e5	0.051746268
85	0xbddc6a80	-0.10762501
86	0xbdbdf36f	-0.09274947
87	0xbda9d51a	-0.08292599
88	0x3dd48c94	0.10378376
89	0x3e08c25c	0.13355392
90	0x3d56a8cc	0.05240707
91	0xbd62aeff	-0.05534267
92	0xbd52c8e6	-0.051461123
93	0x3e421fc1	0.18957426
94	0xbdc0e484	-0.09418586
95	0xbd84779d	-0.06468127
96	0x3bf2f599	0.0074145314
97	0xbd0af72f	-0.03392714
98	0xbd1222e8	-0.03567782
99	0x3d4242ba	0.047426917
100	0xbdfa278d	-0.12214575
101	0xbcaf8e3e	-0.021430131
102	0x3db3b52b	0.087747894
103	0xbda387b9	-0.079848714
104	0x3daa146e	0.08304678
105	0xbe15ded3	-0.14635782
106	0xbc7cef12	-0.015437858
107	0x3e0b1e4d	0.13585778
108	0x3e1d957f	0.1538906
109	0xbe16701f	-0.14691208
110	0x3e024ce1	0.1272464
111	0x3dd5e5c9	0.10444219
112	0x3da32d40	0.07967615
113	0x3dc0519b	0.09390565
114	0xbe093b36	-0.13401493
115	0x3de27a71	0.1105851
116	0x3e0116ba	0.12606326
117	0xbe1ce674	-0.15322286
118	0xbbcecee3	-0.006311284
119	0x3daff6d2	0.08591999
120	0xbc09d0f4	-0.008411635
121	0xbb8115ef	-0.0039393823
122	0x3da4e798	0.080519855
123	0x3d5eecc4	0.054425016
124	0xbcfa2bf1	-0.030538531
125	0xbe34ba7b	-0.17649262
126	0x3e2587a6	0.16165027
127	0x3b844a4e	0.004037178
128	0xbdb0e237	-0.08636897
129	0xbc1c9530	-0.009557053
130	0x3e1d36b0	0.15352893
131	0x3d3d8ecc	0.04627876
132	0x3e17a069	0.14807285
133	0xbd722463	-0.059116732
134	0xbe2cd58c	-0.16878337
135	0x3ddd687d	0.10810945
136	0x3e132c7d	0.1437244
137	0xbde8c197	-0.11365049
138	0x3d176af7	0.036967244
139	0x3da73bcc	0.08165702
140	0x3d29236d	0.04129355
141	0xbd9e0815	-0.07716385
142	0x3da3ea70	0.080037
143	0x3e1db255	0.1540006
144	0x3db9e50f	0.090768926
145	0x3e02cd12	0.1277354
146	0x3e0a5be4	0.13511616
147	0x3de7984d	0.11308346
148	0x3db983f4	0.09058371
149	0x3dc00c17	0.09377306
150	0xbd89c9f5	-0.06727973
151	0xbdb596ee	-0.08866678
152	0xbdedab84	-0.1160498
153	0xbddd92e2	-0.10819031
154	0xbda40ddc	-0.08010456
155	0x3cd07896	0.025448125
156	0x3d95b3ff	0.07309722
157	0x3d74aad4	0.059733227
158	0x3e34b7ca	0.17648235
159	0xbde29126	-0.11062841
160	0xbdbc598a	-0.09196766
161	0xbdadbb14	-0.08482948
162	0xbdf55b17	-0.11980265
163	0x3d9bc62f	0.0760616
164	0xbda9c2fa	-0.08289142
165	0xb9e13714	-0.0004295638
166	0x3d413b18	0.047175497
167	0xbbaf048f	-0.0053411196
168	0xbcf1a45f	-0.029497324
169	0x3e0af1e6	0.1356884
170	0x3e0d33fd	0.13789363
171	0xbdcc64e1	-0.099801786
172	0x3cd45b14	0.025922336
173	0xbe0575f7	-0.13033281
174	0x3ccb5e20	0.024825156
175	0x3e3ceecb	0.18450467
176	0x3b51681d	0.0031952925
177	0xbd3058aa	-0.043053307
178	0x3d9d2bec	0.07674393
179	0x3e1833e3	0.14863543
180	0xbd0ede21	-0.034879807
181	0xbdc4f7e1	-0.09617592
182	0x3dd486c5	0.10377268
183	0xbd43f972	-0.04784531
184	0xbdb86134	-0.09002915
185	0xbddc8d9c	-0.10769197
186	0x3e2b29d5	0.16715176
187	0xbd8eea59	-0.06978292
188	0xbcf0254a	-0.029314656
189	0xbd94c75c	-0.07264587
190	0xbdc66884	-0.096879035
191	0xbda97798	-0.08274764
192	0x3b8bfc02	0.004271985
193	0x3dd64978	0.10463232
194	0x3e13a97e	0.14420125
195	0x3dda731d	0.10666487
196	0xbddde2c5	-0.108342685
197	0xbd962939	-0.07332081
198	0x3dce42ea	0.100713566
199	0xbc48242e	-0.012215657
200	0xbd9b8851	-0.0759436
201	0x3e0c3dd5	0.13695462
202	0x3c9a3efc	0.018828861
203	0x3dcb2123	0.0991843
204	0x3d292a48	0.04130009
205	0xbdc0d6b6	-0.09415953
206	0x3df61bd2	0.12017025
207	0xbaea276e	-0.0017864534
208	0x3d629585	0.055318374
209	0x3dd46695	0.103711285
210	0xbd5d2931	-0.05399436
211	0xbda0dc93	-0.07854571
212	0xbb192419	-0.0023367463
213	0x3c79104a	0.0152016375
214	0x3d2c1f56	0.04202207
215	0x3d8a66a2	0.06757857
216	0x3d0b313d	0.033982504
217	0xbd474154	-0.048646286
218	0xbe02a782	-0.12759212
219	0xbd68286a	-0.056679167
220	0xbd6fe20d	-0.05856519
221	0xbe1fd6fc	-0.15609354
222	0x3de0d9e9	0.10979063
223	0xbe0203e2	-0.12696794
224	0x3dad5f37	0.084654264
225	0xbd5bae87	-0.05363324
226	0x3d4111ae	0.047136
227	0x3d953aab	0.07286581
228	0xbe0c1dc8	-0.13683236
229	0x3dbb1799	0.0913536
230	0x3d3d4cb4	0.046215728
231	0x3e3ad194	0.1824401
232	0x3e15f8c8	0.14645684
233	0x3ddd46d8	0.10804528
234	0xbdb31a73	-0.08745279
235	0x3b59751e	0.003318138
236	0xbcad4d7c	-0.021155111
237	0xbd803ba2	-0.06261374
238	0x3d9f4083	0.077759765
239	0x3d02b915	0.03191479
240	0xbd09ec63	-0.0336727
241	0xbd90b607	-0.07065969
242	0xbd13681a	-0.03598795
243	0xbd097fe4	-0.03356923
244	0x3e1871e4	0.14887196
245	0xbe299fe1	-0.16564895
246	0xbdfa03c8	-0.122077525
247	0x3ced7420	0.028986037
248	0x3dd74c89	0.10512645
249	0x3e0cac0e	0.13737509
250	0xbdacd1b6	-0.08438437
251	0x3dc6d54d	0.09708653
252	0x3d8a7c65	0.067620076
253	0x3d9b0a45	0.07570318
254	0x3db0d4a0	0.08634305
255	0xbdd1eed9	-0.10250635

mlp.0.weight f4 [8, 64]
0	0xbb975988	-0.0046188273
1	0x3dde4583	0.10853102
2	0x3d55ca76	0.052195035
3	0x3deea390	0.11652291
4	0xbdca85e8	-0.09888822
5	0x3d097588	0.033559352
6	0x3d982bf6	0.0743026
7	0xbdc48afb	-0.09596821
8	0xbb1c7821	-0.0023875313
9	0x3b791b87	0.0038010792
10	0x3d61d405	0.05513384
11	0x3beacd8d	0.007165617
12	0x3d930114	0.0717794
13	0x3d269c60	0.040676475
14	0x3e06affd	0.13153072
15	0x3d0f322a	0.03495995
16	0xbdd5303f	-0.10409593
17	0x3d8f9f81	0.07012845
18	0xbde8054f	-0.113291375
19	0x3d75ad50	0.059979737
20	0x3d6d820b	0.057985347
21	0xbdd4ea10	-0.103962064
22	0xbd29a178	-0.041413754
23	0x3ca1a0f7	0.019730074
24	0xbc45c33a	-0.012070471
25	0xbb99e770	-0.004696779
26	0x3d38d7c0	0.04512763
27	0x3d6d9e01	0.058012012
28	0x3d2afac8	0.04174307
29	0xbdba190b	-0.09086808
30	0xbc9131f3	-0.017724013
31	0xb9e0cdba	-0.00042877888
32	0x3e13bcd2	0.14427498
33	0xbdb61bdf	-0.08892035
34	0xbd3e3eb1	-0.046446506
35	0x3d80b986	0.06285386
36	0xbcf5bf13	-0.029998338
37	0x3a1984fe	0.0005856304
38	0x3cf837be	0.030300017
39	0xbe0d70f9	-0.13812627
40	0xbc60fe67	-0.013732529
41	0xbe104523	-0.14088874
42	0x3e16c5e7	0.14723931
43	0x3d1125b8	0.035436362
44	0x3c5bd810	0.0134182125
45	0x3d4fdf48	0.050750047
46	0x3da24ab5	0.079244055
47	0x3da976da	0.08274622
48	0xbdd66fab	-0.10470518
49	0x3cfdec77	0.030996544
50	0x3d9af3cb	0.07566031
51	0x3dd50a2c	0.10402331
52	0xbd186e1f	-0.037214395
53	0xbd858bbd	-0.065207936
54	0xbd5952cb	-0.053057473
55	0xbd897325	-0.06711415
56	0xbdaf2210	-0.08551419
57	0x3d651377	0.055926766
58	0x3db94d08	0.09047896
59	0x3d177e11	0.03698546
60	0x3de1401e	0.109985575
61	0x3c216915	0.009851714
62	0xbc6a8086	-0.014312869
63	0x3e095d6c	0.13414544
64	0x3decb117	0.11557215
65	0xbd4a3cc7	-0.049374368
66	0xbd46259f	-0.048375722
67	0x3cff87ac	0.031192623
68	0xbca90e29	-0.020636635
69	0x3dd32321	0.10309435
70	0x3c8fb0c7	0.017540349
71	0x3b9b4f4a	0.0047396766
72	0x3d115452	0.035480805
73	0x3d31f3cd	0.043445397
74	0x3e044b80	0.12919426
75	0x3d97754d	0.0739542
76	0xbdf578d0	-0.11985934
77	0x3d94128c	0.072301
78	0x3d09bcf0	0.03362745
79	0xbd200635	-0.03906842
80	0xbdd9b7a0	-0.10630727
81	0xbc129c1a	-0.00894835
82	0xbd9004d4	-0.07032171
83	0xbdd63d10	-0.104608655
84	0x3da65b91	0.08122934
85	0x3ca71c66	0.020399284
86	0xbdb821a0	-0.089907885
87	0xbd47fee3	-0.048827063
88	0xbda8d843	-0.08244374
89	0xbd2efa95	-0.042719442
90	0x3d4ca4ee	0.049961977
91	0xbc01dc7a	-0.007926101
92	0xbddd359d	-0.108012415
93	0xbc7643a7	-0.015030778
94	0x3dbe2fcb	0.092864595
95	0x3dee13fc	0.116249055
96	0x3e036052	0.12829712
97	0xbda9ffbf	-0.08300733
98	0xbc2e00e5	-0.01062033
99	0xbd42e022	-0.04757703
100	0xbcad18f1	-0.021130057
101	0xbbe4ef25	-0.006986516
102	0x3d308cbb	0.04310296
103	0x3ddce467	0.10785752
104	0xbd7a7237	-0.06114408
105	0x3c8a2554	0.016863503
106	0x3d8515fe	0.06498335
107	0x3ddfb8bf	0.109239094
108	0xbde35f84	-0.111022025
109	0x3d91c3a0	0.07117391
110	0xbd9192c6	-0.07108073
111	0xbe05e9df	-0.13077496
112	0xbd759bb7	-0.059962954
113	0xbbeeae6a	-0.0072839754
114	0xbd9b4598	-0.07581633
115	0x3dd873a3	0.10568931
116	0x3cb1b4c4	0.021692641
117	0x3d2bb1e3	0.041917693
118	0xbd5ab7a4	-0.05339779
119	0x3b0d2459	0.0021536557
120	0x3dc5a802	0.096511856
121	0x3dda001e	0.106445536
122	0xbd2fa476	-0.04288145
123	0xbd769a05	-0.06020548
124	0xbdc10c22	-0.09426142
125	0x3d8eebaf	0.06978547
126	0x3d169076	0.036758862
127	0x3e0263c6	0.12733373
128	0x3d8c7a55	0.068592705
129	0xbdd58377	-0.104254656
130	0xbc5cca3e	-0.013475953
131	0xbd48dc3f	-0.049038168
132	0xbc1ee4f1	-0.009698139
133	0xbd217fc6	-0.039428495
134	0x3dd66bc7	0.10469776
135	0xbda88a03	-0.08229449
136	0xbd376721	-0.044776086
137	0x3cda7882	0.02666879
138	0x3e200dd6	0.15630278
139	0x3d0ce2c9	0.034395967
140	0x3c93c307	0.018037332
141	0x3da6e913	0.08149924
142	0x3dcc7ba6	0.099845216
143	0xbe05055b	-0.12990324
144	0xbdd1b6f6	-0.10239975
145	0xbd74f52f	-0.059804138
146	0x3ce33134	0.027733423
147	0x3db59893	0.08866992
148	0xbdf60375	-0.12012378
149	0xbda1a95d	-0.078936316
150	0xbc28633f	-0.010277568
151	0x3d8dc355	0.06922022
152	0x3df8dde0	0.12151694
153	0x3d72526e	0.059160642
154	0xbba009dc	-0.004883988
155	0xbd26bfd8	-0.0407103
156	0x3da6bbdb	0.08141299
157	0xbcbbdf32	-0.022933576
158	0x3d6aab59	0.057292316
159	0xbd39b398	-0.04533729
160	0x3dd8474a	0.10560472
161	0x3d622de1	0.055219535
162	0x3d180eca	0.03712348
163	0x3c882e16	0.016623538
164	0x3e02297d	0.12711139
165	0xbd8bd74d	-0.06828175
166	0x3d57aba4	0.052653924
167	0x3dcd940c	0.10038003
168	0x3d0f1dc3	0.034940492
169	0xbda48a36	-0.08034174
170	0x3de84071	0.11340416
171	0x3d280825	0.041023392
172	0xbdebf5bb	-0.11521479
173	0xbd1215d2	-0.03566534
174	0x3d60ffae	0.054931335
175	0xbd84486e	-0.06459127
176	0xbddc3e2a	-0.10754044
177	0x3d0ad26d	0.033892084
178	0xbdb63ec0	-0.08898687
179	0xbdb07d6b	-0.086176716
180	0xbb1e8910	-0.0024190582
181	0x3de6ed6a	0.11275752
182	0x3d8aa2ee	0.067693576
183	0xbd89e5f7	-0.067333154
184	0x3ddecb92	0.10878672
185	0x3e17cb40	0.14823627
186	0x3d8844ce	0.066537485
187	0x3d97089d	0.0737469
188	0x3d522ad9	0.051310394
189	0x3dbb4bdf	0.09145331
190	0xbdb3ad13	-0.08773246
191	0x3dd5dab3	0.10442104
192	0xbc94a7f1	-0.018146487
193	0xbdb2f1c4	-0.087375194
194	0xbd3bd306	-0.045855545
195	0xbdb3626c	-0.08759007
196	0xbd8b1746	-0.067915484
197	0xbc2d3211	-0.010571019
198	0x3d624b7e	0.055247776
199	0x3d932545	0.07184843
200	0xbda0365a	-0.07822867
201	0x3d9ce277	0.07660382
202	0xbdd58a0b	-0.1042672
203	0xbce69ad9	-0.028150009
204	0x3cc1b32e	0.02364501
205	0xbdb79f3d	-0.08965919
206	0x3d8a719d	0.06759951
207	0x3dd5b323	0.10434558
208	0x3dc9e85a	0.09858771
209	0xbd822c65	-0.06356124
210	0x3ddaf2cb	0.1069084
211	0x3ce41356	0.027841251
212	0xbdd94dd7	-0.1061055
213	0xbd8a5b79	-0.06755728
214	0xbcf96022	-0.030441348
215	0x3d37e2c7	0.044894006
216	0x3d8d5e5d	0.06902764
217	0x3dad26c4	0.084546596
218	0xbc1303d4	-0.008973081
219	0x3b483e88	0.003055485
220	0x3c99a5f8	0.018755898
221	0xbd2ad4cc	-0.041706845
222	0xbdec85d9	-0.11548967
223	0x3de857a0	0.11344838
224	0x3c9fbfb4	0.01950059
225	0x3c87f891	0.016598018
226	0xbde14893	-0.110001706
227	0xbcdd094b	-0.02698197
228	0xbddf5af5	-0.109060206
229	0xbe016ac2	-0.12638381
230	0x3c1b2da9	0.009471335
231	0xbd040869	-0.032234583
232	0x3dd42a18	0.10359591
233	0xbdba8826	-0.091079995
234	0x3d222282	0.03958369
235	0x3dcec1c3	0.10095551
236	0x3dd74758	0.105116546
237	0x3dae836d	0.08521161
238	0xbd7a2933	-0.061074447
239	0xbd2117ae	-0.039329223
240	0xbd0341b3	-0.032045078
241	0x3cd04779	0.025424706
242	0x3d90e4db	0.07074901
243	0x3dcece0b	0.10097893
244	0x3ce6d7ba	0.028179038
245	0xbdde624e	-0.10858594
246	0xbc8362de	-0.016038354
247	0xbc9e51f6	-0.019326191
248	0xbce536f4	-0.027980305
249	0xbd6dbd73	-0.058042
250	0x3dae8f78	0.08523458
251	0x3cedd70c	0.029033206
252	0xbc3f66f1	-0.011682258
253	0xbdcdd54a	-0.10050447
254	0x3d9b8207	0.0759316
255	0x3dde2c45	0.108482875

mlp.0.bias f4 [8]
0	0x3c8c794a	0.017147679
1	0xbc8490a0	-0.016182244
2	0xbd10c95c	-0.03534828
3	0xbda93a30	-0.082630515
4	0xbd9b26b5	-0.07575742
5	0x3dcaae78	0.098965585
6	0xbd645687	-0.05574658
7	0xbdff060d	-0.12452326

mlp.2.weight f4 [2, 8]
0	0xbe904777	-0.28179523
1	0x3eaa0f29	0.3321469
2	0x3e8e8c9f	0.2784166
3	0x3e026771	0.12734772
4	0xbe8fbebf	-0.28075215
5	0xbe2cd811	-0.16879298
6	0xbebfbd12	-0.37448937
7	0xbe006d1a	-0.12541619
8	0xbebeb71f	-0.37249085
9	0x3dfedf49	0.12444932
10	0xbeba5b62	-0.36397845
11	0x3e278cfa	0.16362372
12	0xbea15e41	-0.31517223
13	0x3e54c655	0.20778783
14	0x3d633662	0.055471785
15	0x3db393ef	0.087684505

mlp.2.bias f4 [2]
0	0x3d785ad6	0.060633503
1	0x3e39e6f9	0.18154515
