DyGCN/savedmodel/cic2018/model.pt (torch, 46459 bytes, 14 tensors)

gc1.weight f4 [77, 32]
0	0xbb9cf1fa	-0.004789588
1	0xbdc7ba07	-0.09752279
2	0x3d469012	0.04847724
3	0x3dcc6753	0.09980645
4	0x3da17c8c	0.078850836
5	0x3cc7af83	0.024375683
6	0x3c44c916	0.012010833
7	0xbe2c4216	-0.16822085
8	0x3d3d7784	0.046256557
9	0xbe674185	-0.22583587
10	0x3e571bd3	0.21006708
11	0xbe873472	-0.264072
12	0xbdc72b15	-0.09725014
13	0x3e392842	0.18081763
14	0x3d91903a	0.07107587
15	0x3d441dac	0.04787986
16	0x3cca6f59	0.024711298
17	0x3cad3fe8	0.021148637
18	0x3ce84792	0.02835444
19	0x3e85b2d7	0.26113006
20	0xbe556479	-0.20839109
21	0xbd53c4de	-0.05170142
22	0x3e3b1470	0.18269515
23	0x3e06dfd8	0.13171327
24	0xbd4ac49d	-0.04950391
25	0x3e8b20a3	0.27173337
26	0xbdbe8c01	-0.093040474
27	0xbe0b9e98	-0.13634717
28	0xbe468f9d	-0.19390722
29	0xbe3bbb10	-0.18333077
30	0xbe4d72c8	-0.20063317
31	0xbbe18325	-0.0068820887
32	0x3c84ffc9	0.01623525
33	0xbeb38865	-0.35064998
34	0x3bc98e78	0.006151017
35	0x3cde96a3	0.027171439
36	0x3e5327a4	0.2062059
37	0xbd26820c	-0.040651366
38	0x3da6df86	0.081481025
39	0xbde37977	-0.11107152
40	0x3dd97e3d	0.10619781
41	0xbf5939e2	-0.8485395
42	0x3e0d12dc	0.13776726
43	0x3de0dbb1	0.10979403
44	0x3bc732d4	0.006079057
45	0x3e3f1f11	0.18664195
46	0x3e55960a	0.20858017
47	0x3e5d7f04	0.21630484
48	0xba0ab321	-0.00052909745
49	0x3e29446b	0.16530006
50	0x3e655625	0.22396143
51	0x3ece7879	0.40326288
52	0x3d1ec7e4	0.03876485
53	0x3ddae51c	0.106882304
54	0x3e6db135	0.2321213
55	0x3e5fb6af	0.21847032
56	0xbf25e84c	-0.6480758
57	0x3e49b3b0	0.19697452
58	0xbf114f26	-0.56761396
59	0x3dd50642	0.10401584
60	0xbf4161ba	-0.75539744
61	0xbf1d310c	-0.61402965
62	0x3c724b0b	0.014788399
63	0x3e9d1263	0.3067809
64	0x3e0f47ce	0.13992235
65	0xbec470f6	-0.38367432
66	0x3d70014a	0.05859498
67	0xbd5516bb	-0.05202363
68	0x3f6a446d	0.9151066
69	0x3e0a9d0a	0.13536468
70	0x3e586601	0.21132661
71	0x3e0d12d4	0.13776714
72	0x3e808a64	0.25105584
73	0xbeff7315	-0.49892488
74	0x3f5d5b89	0.86467797
75	0x3dd2958c	0.1028243
76	0xbcb07034	-0.021537878
77	0x3f2bb152	0.67067444
78	0x3cb435e8	0.02199836
79	0x3f6703e5	0.9024032
80	0x3e01186b	0.12606971
81	0x3ed72282	0.42018515
82	0x3f56c3da	0.83892596
83	0x3f999f58	1.2001753
84	0x397fc0e9	0.0002439056
85	0xbd4afaa8	-0.04955545
86	0x3f7029ba	0.9381367
87	0x3f7b188d	0.98084337
88	0xbf2c9f1e	-0.67430294
89	0x3f5ba05d	0.8579157
90	0xbf179c62	-0.59222996
91	0xbe63114b	-0.22174565
92	0xbf4a81d2	-0.7910434
93	0xbed524a1	-0.41629508
94	0x3d566929	0.052346382
95	0x3f69ca04	0.91323876
96	0xbe1f1b26	-0.155377
97	0xbee8b566	-0.45450896
98	0xbdf7a0c3	-0.1209121
99	0xba9a817d	-0.0011787858
100	0x3eb32f72	0.34997135
101	0x3e26c83b	0.1628732
102	0x3d5a772d	0.05333631
103	0x3db6f7e5	0.08934001
104	0x3e458d6f	0.19292234
105	0xbea7ba80	-0.32759476
106	0x3f06d60b	0.52670354
107	0x3e047087	0.12933551
108	0xbe50bcb8	-0.2038449
109	0x3e5f8971	0.21829773
110	0x3e3a9552	0.18221024
111	0x3ea7a9f8	0.32746863
112	0xbdc41334	-0.09573975
113	0x3dc37c9e	0.09545253
114	0x3ec5304f	0.3851342
115	0x3f00939c	0.50225234
116	0xbd2d276b	-0.04227392
117	0x3e2b6c78	0.16740596
118	0x3ebd72d7	0.37001678
119	0x3ee5f2c2	0.44911772
120	0xbe9ec491	-0.31009343
121	0x3f10c04b	0.56543416
122	0xbf0a0c72	-0.5392524
123	0x3dc98c27	0.09841185
124	0xbea18f33	-0.31554565
125	0xbecdfc15	-0.40231386
126	0xbdfc9191	-0.12332452
127	0x3ef66f93	0.48132
128	0xbe2d9fbc	-0.16955465
129	0xbe8bdb7a	-0.27315885
130	0xbdf55fee	-0.11981188
131	0x3d9b1abd	0.07573459
132	0xbd480c44	-0.048839822
133	0xbe262352	-0.16224411
134	0x3c908146	0.017639767
135	0x3da5ef32	0.081022635
136	0x3ac09193	0.0014691822
137	0xbe346ab8	-0.17618835
138	0x3ea6c192	0.32569557
139	0xbc8e99a7	-0.017407252
140	0xbe484094	-0.19555885
141	0x3da670ea	0.081270054
142	0x3dcc64c8	0.0998016
143	0x3df0f788	0.11765963
144	0xbc7f541a	-0.015584016
145	0x3de00249	0.10937936
146	0x3dea6bf1	0.114463694
147	0x3ea6510e	0.32483715
148	0x3e1b7744	0.15182215
149	0xbdbb21a6	-0.09137277
150	0x3ce8661a	0.028368998
151	0xbcea838b	-0.028627178
152	0xbe3c0852	-0.18362549
153	0x3e6b0077	0.22949396
154	0xbe196f68	-0.14983904
155	0xbe332a5e	-0.1749663
156	0xbe439e7e	-0.19103429
157	0xbca83d96	-0.020537179
158	0x3e0e8767	0.1391884
159	0x3e37eb9e	0.17960975
160	0xbdf1636c	-0.11786541
161	0x3db2f0a5	0.087373056
162	0x3c6dbd90	0.014510527
163	0xbda3ac2d	-0.07991824
164	0xb9dc4341	-0.00042011778
165	0x3f12896c	0.5724094
166	0xbda5ef77	-0.08102315
167	0x3ddb2513	0.10700431
168	0xbc0232e9	-0.007946708
169	0xbe2e3e8a	-0.17016044
170	0xbe24d405	-0.16096504
171	0x3c89cfc6	0.016822707
172	0x3dd1b0dc	0.102388114
173	0xbd60b83f	-0.05486321
174	0xbd9813ec	-0.07425675
175	0x3e1751e0	0.14777327
176	0xbe275f44	-0.16344935
177	0x3d3b6435	0.04574986
178	0x3e602ee7	0.21892892
179	0x3d7446f1	0.059637967
180	0xbdeca7cf	-0.115554444
181	0xbc89c647	-0.016818179
182	0x3d1bfdbb	0.038083773
183	0x3d930b35	0.07179872
184	0xbe3baa3d	-0.1832666
185	0xbe0202cd	-0.12696381
186	0xbddc48fd	-0.10756109
187	0x3d767662	0.060171492
188	0x3dfddcb2	0.1239561
189	0x3d750d55	0.059827168
190	0x3c58d48e	0.013234271
191	0xbd9b5afe	-0.07585715
192	0x3dd03159	0.10165662
193	0xbd741a83	-0.059595596
194	0xbd68d5eb	-0.056844633
195	0xbd6cac59	-0.05778155
196	0x3e1eacaf	0.15495561
197	0xbda02d66	-0.07821159
198	0x3d66e14b	0.0563672
199	0x3e063a89	0.13108267
200	0xbe328dba	-0.17436877
201	0xbe2088f7	-0.15677248
202	0x3d90ae8a	0.07064541
203	0xbe852152	-0.26001984
204	0xbd2a9be6	-0.041652583
205	0x3e7dd26b	0.247873
206	0x3da832a7	0.08212786
207	0x3c58f2b0	0.013241455
208	0xbcd806e3	-0.026370471
209	0xbcdef580	-0.027216673
210	0x3df08a64	0.11745146
211	0x3e49fa6a	0.19724432
212	0xbbc3aa99	-0.0059712646
213	0xbd176a81	-0.036966804
214	0xbdf703c6	-0.120612666
215	0x3df4ac0b	0.11946877
216	0xbc381a27	-0.011236704
217	0x3e29f029	0.1659552
218	0xbd2bcadf	-0.04194152
219	0x3e0e70ec	0.13910264
220	0xbd34e8de	-0.044167392
221	0xbe131d59	-0.14366664
222	0x3e0fb6ec	0.14034623
223	0x3e6936a3	0.22774749
224	0xbcffcd71	-0.031225892
225	0xbda385f2	-0.079845324
226	0xbd98c2d7	-0.07459038
227	0x3d4f4410	0.05060202
228	0xbcfa8ba9	-0.030584173
229	0x3d18d0fc	0.037308678
230	0xbd201fad	-0.03909271
231	0xbe91bca9	-0.2846425
232	0xbdbafc93	-0.09130206
233	0xbca9b5c3	-0.020716554
234	0xbdd5575b	-0.10417052
235	0xbc1b2445	-0.009469097
236	0xbd82d1d3	-0.06387677
237	0xbe1e33a2	-0.15449384
238	0xbe64f56c	-0.22359246
239	0xbe9d6e42	-0.30748183
240	0xbdb08bbc	-0.08620402
241	0x3d28a14a	0.041169442
242	0xbe99da06	-0.3004915
243	0xbea04907	-0.31305715
244	0x3e11705e	0.14203021
245	0xbd4fbd18	-0.050717443
246	0x3e9a57ce	0.30145115
247	0x3d1bc179	0.038026307
248	0xbdc9536b	-0.09830364
249	0x3d04cbe3	0.032421004
250	0xbe4633c8	-0.1935569
251	0xbd1ebcd9	-0.038754318
252	0x3d045391	0.032306258
253	0xbe493afa	-0.19651404
254	0xbe13858f	-0.14406417
255	0x3e0ae578	0.13564098

gc1.bias f4 [32]
0	0xbde3a0a7	-0.111146264
1	0xba0c3919	-0.00053490844
2	0xbe08f32f	-0.13374017
3	0x399c20d9	0.00029779112
4	0xba1da0e0	-0.0006013047
5	0xbe1eb98a	-0.15500465
6	0xbb2aa2d8	-0.0026037004
7	0xbd518a45	-0.051157255
8	0xbab70038	-0.0013961857
9	0xb906f729	-0.0001287131
10	0xbab3d3a2	-0.0013719688
11	0xbdfb6b57	-0.12276333
12	0xbe0371bf	-0.1283636
13	0xba032d87	-0.00050040375
14	0xbd54dcc1	-0.05196834
15	0xbae20043	-0.001724251
16	0xbe506af4	-0.203533
17	0xb8d3c1b9	-0.00010097348
18	0xba848b19	-0.0010112255
19	0xb9f3df73	-0.00046515054
20	0xbdce0c36	-0.10060923
21	0xbe16c9f4	-0.14725477
22	0xb95e3a4a	-0.00021193284
23	0xbaa287e6	-0.001240012
24	0xb93cae8a	-0.00017994098
25	0xbb0b272d	-0.0021233067
26	0xba0cd276	-0.00053719373
27	0xbe3006cb	-0.17190091
28	0xba07f2d7	-0.0005186027
29	0xba0c7096	-0.0005357353
30	0xbe0b09b3	-0.13577919
31	0xbac41a35	-0.0014961424

gc2.weight f4 [77, 32]
0	0xbdf5c05a	-0.11999579
1	0xbe21433c	-0.15748304
2	0xbd61ac32	-0.05509586
3	0xbd9275c6	-0.0715137
4	0x3d4c20c2	0.049835928
5	0xbcbee7c3	-0.023303872
6	0x3d46db60	0.048549056
7	0xbd122642	-0.035681017
8	0xbe3267c5	-0.17422397
9	0xbdfd59f6	-0.12370674
10	0x3d60eee3	0.05491532
11	0xbea9a307	-0.33132192
12	0x3de965ed	0.11396394
13	0xbe6f2624	-0.23354393
14	0xbdc35acf	-0.09538805
15	0xbe15c23c	-0.14624876
16	0xbcdc9953	-0.02692858
17	0xbe366e2a	-0.17815462
18	0x3c38a991	0.0112708965
19	0xbe606c64	-0.21916348
20	0xbca55811	-0.020183595
21	0xbd945dad	-0.0724443
22	0xbe3addce	-0.18248674
23	0xbddf9b7b	-0.109183274
24	0xbe16af2f	-0.14715265
25	0xbb9e1ca8	-0.0048251934
26	0xbc421d4b	-0.011847804
27	0xbd83510b	-0.06411942
28	0xbdee9121	-0.11648775
29	0xbe2c946b	-0.16853492
30	0xbd3cd693	-0.04610307
31	0xbe138f6a	-0.14410177
32	0xbe332bf4	-0.17497236
33	0x3de43f3a	0.11144872
34	0xbef58083	-0.4794961
35	0x3d2b8147	0.041871335
36	0xbd12c430	-0.03583163
37	0x3e049cec	0.12950486
38	0xbe3b5555	-0.1829427
39	0xbf1e690f	-0.61879057
40	0xbe7cbd5b	-0.24681608
41	0xbe4b5620	-0.19857073
42	0x3dbe4b78	0.09291738
43	0xbe7dbc88	-0.2477895
44	0xbde98ad8	-0.114034355
45	0x3d3041a9	0.04303137
46	0xbe4240cc	-0.1897003
47	0xbd8e09d7	-0.069354706
48	0xbe245e2a	-0.16051546
49	0xbf079cbb	-0.52973527
50	0xbe011694	-0.12606269
51	0xbd85866e	-0.06519781
52	0xbf132f64	-0.5749419
53	0x3d888379	0.066657014
54	0xbf3a59e6	-0.72793424
55	0xbdf4801f	-0.119385
56	0xbdac4b6b	-0.08412822
57	0x3d620c0d	0.055187274
58	0xbe23310c	-0.15936679
59	0xbd3180ac	-0.0433356
60	0xbf409855	-0.7523244
61	0xbe632147	-0.22180663
62	0xbd954f46	-0.07290511
63	0xbdb1961b	-0.086712085
64	0xbedf6ce5	-0.43637767
65	0xbe1f7f21	-0.1557584
66	0xbf0e2917	-0.5553145
67	0xbd3e2f76	-0.04643198
68	0xbe042cd3	-0.12907724
69	0x3d8f6e64	0.07003477
70	0x3d0be56c	0.03415434
71	0xbe982288	-0.29713845
72	0xbdaac5c5	-0.08338503
73	0xbd955245	-0.07291082
74	0xbd3ca877	-0.046059098
75	0xbd3e5994	-0.046472147
76	0xbe87b9a6	-0.26508826
77	0xbdf287f6	-0.11842339
78	0xbdf67b8e	-0.12035285
79	0x3cae5449	0.021280425
80	0xbdd01bea	-0.10161574
81	0xbed2da8a	-0.41182357
82	0x3c2b4bf5	0.010455121
83	0xbd8df445	-0.06931356
84	0xbf07ee7c	-0.53098273
85	0x3e9325fe	0.28739923
86	0xbf201435	-0.62530833
87	0xbdb4cff5	-0.08828727
88	0xbe2f577d	-0.17123218
89	0xbd522acd	-0.05131035
90	0xbda82a1b	-0.08211156
91	0x3ea5fa54	0.32417548
92	0xbf25cf2f	-0.6476926
93	0x3d90893a	0.07057424
94	0xbe507768	-0.2035805
95	0x3dc4bb7d	0.09606073
96	0xbe4b450d	-0.1985056
97	0xbdc6e24e	-0.09711133
98	0xbf156273	-0.58353347
99	0x3df23691	0.11826814
100	0xbd079894	-0.033104494
101	0xbda38907	-0.0798512
102	0x3d828ce5	0.0637453
103	0xbf1953ad	-0.59893304
104	0xbe45f1c1	-0.19330503
105	0xbe17e14f	-0.14832042
106	0x3dd1b65a	0.10239859
107	0x3d70d41e	0.05879604
108	0x3d332041	0.04373193
109	0x3d4a5014	0.049392775
110	0x3d0e6be0	0.034770846
111	0x3e90ff6a	0.28319865
112	0xbe10280e	-0.1407778
113	0xbeebb4db	-0.4603642
114	0xbd9c723b	-0.07638975
115	0xbe1076c6	-0.14107808
116	0xbf417ca2	-0.755808
117	0x3e726188	0.23670018
118	0xbee0bca8	-0.43893933
119	0x3d2c1b1a	0.042018034
120	0xbdb94306	-0.09045987
121	0xbe29844f	-0.16554378
122	0xbe8324e4	-0.25614083
123	0xbd0c50cf	-0.034256753
124	0xbed2778f	-0.4110684
125	0xbe83e3ce	-0.2575974
126	0xbdcf20ef	-0.101137035
127	0xbda0badb	-0.0784814
128	0x3d5d772e	0.054068737
129	0xbdbe487d	-0.0929117
130	0xbdd2f918	-0.10301417
131	0x3db6b10a	0.08920486
132	0xbe2f6017	-0.17126499
133	0xbdd9f7f1	-0.10642994
134	0x3db36fe3	0.08761575
135	0x3dd7d96e	0.10539518
136	0xbd85f05b	-0.06539985
137	0x3ceb8217	0.028748555
138	0x3da5eae9	0.08101446
139	0x3e055cf3	0.13023739
140	0x3c9c943f	0.019113658
141	0xbe3905ee	-0.18068668
142	0x3d3c9a44	0.046045557
143	0xbe32bf52	-0.17455795
144	0x3d8708ee	0.065935
145	0xbe33eee7	-0.17571603
146	0xbe4f1516	-0.20222887
147	0x3e2fb77e	0.1715984
148	0x3e08db67	0.13364945
149	0xbdc5b928	-0.096544564
150	0x3d9b73e0	0.07590461
151	0x3d4d8fe2	0.050186045
152	0xbe1e4b21	-0.15458347
153	0x3adb7982	0.0016744586
154	0x3dbcb822	0.09214808
155	0xbe5f819f	-0.2182679
156	0xbdf379dd	-0.11888478
157	0xbe387f3e	-0.18017289
158	0xbd640a79	-0.05567405
159	0xbd3eb535	-0.04655953
160	0xbe2f7596	-0.17134699
161	0xbd26040f	-0.040531214
162	0x3dd227b7	0.10261481
163	0x3ed4937b	0.4151877
164	0x3e0c48a7	0.1369959
165	0x3ceac003	0.028656011
166	0xbe5829d7	-0.2110971
167	0x3dce8d02	0.10085489
168	0xbdf6b09f	-0.120454066
169	0x3c89f921	0.016842427
170	0x3cb6e78e	0.02232721
171	0x3d5777ee	0.05260461
172	0xbdc6968e	-0.09696685
173	0xbd725ef9	-0.059172604
174	0xbe05c0f4	-0.13061887
175	0x3cee9d49	0.029127734
176	0xbe66663a	-0.22499934
177	0xbe0f0eb3	-0.13970451
178	0x3d14ce20	0.03632939
179	0x3e157ea8	0.14599097
180	0x3c211db6	0.009833744
181	0xbe4b5fcc	-0.19860762
182	0xbd56e3e3	-0.052463423
183	0xbe083d4d	-0.13304634
184	0x3ca75987	0.020428432
185	0xbe331297	-0.1748756
186	0x3dac5bfb	0.084159814
187	0x3d2c1406	0.042011283
188	0xbcc009f2	-0.023442242
189	0xbde104ea	-0.109872654
190	0x3e12d5ef	0.14339422
191	0x3d65321c	0.05595599
192	0x3d66ed65	0.05637874
193	0xbc6fe7f1	-0.0146427015
194	0xbe03d729	-0.12875046
195	0xbdc1e759	-0.09467954
196	0x3dbb850a	0.091562346
197	0x3c334bcb	0.010943363
198	0x3e74425d	0.2385344
199	0xbdb673c2	-0.08908798
200	0xbe2eb3b0	-0.17060733
201	0xbd158682	-0.03650523
202	0xbde72a46	-0.1128736
203	0x3dd17e5e	0.10229181
204	0x3e087926	0.13327464
205	0xbd7445bc	-0.059636816
206	0xbd821527	-0.06351691
207	0xbe21e922	-0.1581159
208	0x3cb7445c	0.022371463
209	0xbe47be10	-0.19506097
210	0xbd7b4fd2	-0.06135542
211	0xbe243a13	-0.16037779
212	0x3cb2be80	0.021819353
213	0xbe5315e8	-0.20613825
214	0xbda7ea33	-0.08198967
215	0xbdbf6958	-0.093462646
216	0xbe154a83	-0.14579205
217	0x3dad7ded	0.08471284
218	0xbe16b41b	-0.14717142
219	0xbdc2948f	-0.095009916
220	0xbe2398e2	-0.15976289
221	0xbd4cdc0c	-0.05001454
222	0xbdabb0b4	-0.08383313
223	0x3d8f655b	0.07001754
224	0x3d923605	0.0713921
225	0x3c47437c	0.012162086
226	0x3d9982e9	0.07495672
227	0x3e0cd135	0.13751681
228	0xbe64d99a	-0.22348633
229	0x3d11ca62	0.035593398
230	0xbe18ad6b	-0.14909904
231	0xbe08abdb	-0.13346808
232	0x3d8d34cc	0.06894836
233	0x3cb94b3e	0.022618886
234	0xbd22c678	-0.039740056
235	0x3d61299e	0.05497133
236	0x3e8cf66a	0.2753175
237	0xbe34e392	-0.17664936
238	0xbdbe04b7	-0.09278243
239	0xbca295f9	-0.019846903
240	0xbca053da	-0.019571234
241	0xbe1ad0ea	-0.15118757
242	0x3d6b134f	0.05739146
243	0xbe2a18d8	-0.1661104
244	0xbdafe8bb	-0.08589312
245	0xbde5f958	-0.11229199
246	0x3d9e2997	0.077227764
247	0xbdf46546	-0.11933379
248	0x3c992a9c	0.018697076
249	0xbe1f56bb	-0.15560429
250	0x3e0e7f0a	0.13915649
251	0x3e27049c	0.16310352
252	0xbe2e86f4	-0.17043668
253	0x3c145b27	0.009054936
254	0x3ccebcfa	0.025236595
255	0xbb060fe7	-0.0020456256

gc2.bias f4 [32]
0	0xbaa6ccae	-0.0012725794
1	0xbd80ebe4	-0.062949926
2	0xba31209c	-0.00067568733
3	0xbd812549	-0.0630594
4	0xbe0f795b	-0.14011137
5	0xbe02e1ee	-0.12781498
6	0xbdf80415	-0.121101536
7	0x3bf91430	0.0076012835
8	0xbe34e687	-0.17666064
9	0xbbb401d2	-0.005493381
10	0xbe6f029f	-0.23340844
11	0x3c12c92b	0.008959095
12	0xbe240e11	-0.16020991
13	0xbb6d1821	-0.0036177712
14	0xbe45715e	-0.19281527
15	0xbb2c8cbc	-0.0026329001
16	0xbcd97012	-0.026542697
17	0xba7f7189	-0.0009744396
18	0xbd54be11	-0.051939074
19	0xbd0e4a0a	-0.034738578
20	0x3bbd83cd	0.005783534
21	0xbb4e361f	-0.0031465364
22	0x3bc234c5	0.005926701
23	0xbdb43f0a	-0.08801086
24	0xbe157a72	-0.1459749
25	0xbe5eb095	-0.21747048
26	0xbc27dbd9	-0.010245287
27	0xba875045	-0.0010323605
28	0x3bbd7510	0.005781777
29	0xba472d3b	-0.00075979874
30	0xbd8580eb	-0.0651873
31	0xbe2ccf9e	-0.16876075

lstm.weight_ih_l0 f4 [64, 64]
0	0xbf40ccfd	-0.7531279
1	0xbd25aac8	-0.040446073
2	0xbf345cf0	-0.7045431
3	0xbece7483	-0.40323266
4	0x3f218ccc	0.63105464
5	0xbf213d5e	-0.62984264
6	0xbe1e5259	-0.154611
7	0xbf14bc0a	-0.58099425
8	0xbebc3f56	-0.3676707
9	0xbe50fd69	-0.20409168
10	0x3f0bc805	0.5460208
11	0xbef1073f	-0.4707584
12	0xbf0edc9f	-0.5580539
13	0x3f470a8d	0.77750474
14	0xbee0922e	-0.43861526
15	0xbe06759a	-0.13130799
16	0xbed08af4	-0.40731013
17	0xbe5c77bd	-0.21530052
18	0x3ef187b2	0.4717384
19	0xbe0a298f	-0.13492416
20	0xbed1b406	-0.4095766
21	0xbeaa5b9d	-0.3327302
22	0xbeb93a5c	-0.36177337
23	0x3e845fba	0.25854284
24	0xbeceeba1	-0.40414146
25	0x3d823199	0.06357116
26	0xbe8a9379	-0.27065638
27	0xbf44f9f9	-0.7694393
28	0xbebe84bc	-0.37210643
29	0x3e7f88db	0.2495455
30	0xbebff8c7	-0.3749449
31	0xbe0b2d42	-0.13591483
32	0xbf170b79	-0.5900188
33	0x3f4769ec	0.77896
34	0x3e9362ba	0.2878626
35	0x3f21462a	0.62997687
36	0xbf0c7f2e	-0.5488156
37	0xbf2b0324	-0.6680167
38	0xbe469cf4	-0.1939581
39	0x3d32f5cb	0.043691438
40	0xbf17baff	-0.5926971
41	0xbda3c220	-0.07996011
42	0xbf2807e4	-0.6563704
43	0x3d19e882	0.037575252
44	0x3e3e031d	0.18555875
45	0xbed4641e	-0.41482633
46	0xbeefd8a0	-0.4684496
47	0xbf2c15b5	-0.6722062
48	0x3e8f988e	0.28046077
49	0xbf34abd0	-0.70574665
50	0xbef8248b	-0.4846538
51	0xbf137056	-0.57593286
52	0xbe54a704	-0.20766836
53	0x3eaa5fe2	0.33276278
54	0xbeacdd68	-0.3376267
55	0xbf0ab7ed	-0.541869
56	0xbf5f2bf3	-0.87176436
57	0xbf23638e	-0.63823783
58	0x3ece0b65	0.40243068
59	0x3ee82071	0.4533725
60	0x3e0e9d1c	0.1392712
61	0x3eefd0b7	0.46838924
62	0x3e838004	0.25683606
63	0xbf2421a4	-0.6411383
64	0xbd7dea87	-0.06199124
65	0xbd1f4193	-0.038880896
66	0xbf0cf2e9	-0.5505815
67	0xbebb6959	-0.3660381
68	0x3d2237ca	0.039603986
69	0xbdaafda2	-0.08349158
70	0xbdd805be	-0.1054797
71	0xbc79bf35	-0.015243341
72	0xbbea174a	-0.0071438896
73	0xbe16a8ff	-0.14712904
74	0x3e1a796a	0.15085378
75	0xbee72ad6	-0.4514987
76	0x3d6e44ea	0.05817119
77	0x3ebd5322	0.36977488
78	0xbe989115	-0.2979819
79	0x3c67ce95	0.014148374
80	0xbe7ab73b	-0.2448396
81	0x3b05e1b9	0.002042873
82	0xbe6d6daa	-0.23186365
83	0xbe9dd1a0	-0.30823994
84	0xbec45785	-0.38348022
85	0xbe99cfa4	-0.3004123
86	0xbeb3247c	-0.34988773
87	0x3e2af8a1	0.16696407
88	0xbe8d5e9d	-0.27611247
89	0x3e8460fc	0.25855243
90	0xbd92dc9d	-0.07170985
91	0xbda35bdc	-0.07976505
92	0xbd5e6d77	-0.054303613
93	0xbe1a2a08	-0.15055096
94	0xbebf3834	-0.37347567
95	0xbe582e35	-0.21111377
96	0xbee90a5d	-0.4551572
97	0xbc5dfad3	-0.013548571
98	0xbd3ba014	-0.04580696
99	0x3d2710b6	0.04078742
100	0xbe9e7236	-0.3094651
101	0xbe39897c	-0.18118852
102	0xbde39578	-0.11112493
103	0xbd23edc6	-0.04002168
104	0xbeca4f9a	-0.39513856
105	0x3dbad056	0.09121768
106	0xbeecb85a	-0.462344
107	0x3e348470	0.17628646
108	0x3d2a31c8	0.04155138
109	0xbda214db	-0.07914134
110	0xbde4ccb4	-0.111718565
111	0xbd6ed805	-0.05831148
112	0x3e3d8357	0.18507133
113	0xbe455ba2	-0.19273236
114	0xbec73de5	-0.3891441
115	0xbe707219	-0.23481025
116	0xbe69b200	-0.22821808
117	0x3dd820c1	0.10553122
118	0xbe83395c	-0.256297
119	0xbedcdb10	-0.4313588
120	0xbe823467	-0.25430605
121	0xbed10f71	-0.40832093
122	0x3eab7d17	0.33493873
123	0x3cf5c35e	0.030000385
124	0xbc9273f7	-0.017877562
125	0x3de9c59e	0.114146456
126	0x3c871b9c	0.016492657
127	0xbe09daf7	-0.13462435
128	0xbd689856	-0.056785904
129	0x3d9e0499	0.07715721
130	0xbe048ee2	-0.1294513
131	0xbe7b4a4e	-0.24540064
132	0x3ce0ad3e	0.027426358
133	0xbeab723f	-0.334856
134	0x3e36fc62	0.17869714
135	0xbeb67eac	-0.35643518
136	0x3da09c0f	0.07842266
137	0xbe5aa765	-0.21352918
138	0x3df2d491	0.1185695
139	0x3cba9410	0.02277568
140	0xbe4ea03c	-0.20178312
141	0x3e6f022c	0.23340672
142	0x3e2f4819	0.17117347
143	0x3e1882c6	0.14893636
144	0xbe4e3329	-0.20136704
145	0x3e4a6d80	0.19768333
146	0x3e782c3a	0.24235621
147	0x3eb85a0e	0.36006206
148	0xbe5c13e3	-0.21491961
149	0xbe742286	-0.23841295
150	0xbd342ae9	-0.043986235
151	0x3daf586c	0.08561787
152	0xbdc0d78d	-0.09416113
153	0x3e0fc803	0.14041142
154	0xbe516a64	-0.20450741
155	0xbe1e2dec	-0.15447205
156	0xbdeff1e7	-0.11716061
157	0x3d9ffd31	0.07811964
158	0xbea1b9d6	-0.31587094
159	0x3e26e409	0.16297926
160	0xbe15e4a8	-0.14638007
161	0x3e175523	0.14778571
162	0xbda74198	-0.08166808
163	0x3e979429	0.29605225
164	0xbe964445	-0.2934896
165	0xbe635fac	-0.22204465
166	0xbd8219e7	-0.06352597
167	0x3d9616bb	0.07328554
168	0xbec54ef9	-0.38536814
169	0xbdd29843	-0.10282948
170	0x3c023489	0.007947096
171	0x3b03f8a2	0.002013721
172	0xbd1be8d5	-0.038063843
173	0x3d7e241b	0.06204615
174	0xbdb4f202	-0.08835222
175	0xbde8e8b7	-0.11372512
176	0x3bd6a39b	0.006550265
177	0xbeb1223e	-0.34596437
178	0x3d7fecd1	0.062481705
179	0xbe9588bc	-0.29205883
180	0xbd890986	-0.066912696
181	0x3c92ea0c	0.017933868
182	0xbeb91716	-0.36150426
183	0x3ccd3a6c	0.025052272
184	0xbdb12c21	-0.08650995
185	0xbdce3ce2	-0.10070206
186	0xbd842cb0	-0.06453836
187	0xbdf6d5b5	-0.1205248
188	0x3e207ce4	0.15672642
189	0xbe6501ed	-0.22364016
190	0xbe27904d	-0.1636364
191	0xbd0dba58	-0.03460154
192	0x3ce83d6b	0.028349599
193	0x3dac60ef	0.08416926
194	0xbe270a38	-0.16312492
195	0x3dbc3c8a	0.091912344
196	0xbdee54df	-0.116372816
197	0xbe973f96	-0.295407
198	0xbebe004b	-0.371096
199	0xbd8273ea	-0.06369765
200	0xbed40a9f	-0.41414353
201	0x3cb9835f	0.02264565
202	0xbe468935	-0.19388278
203	0x3ae2104b	0.0017247287
204	0x3df4c276	0.11951153
205	0xbcd3d3b8	-0.025857791
206	0xbe8e0173	-0.2773548
207	0xbe7ea0aa	-0.24865976
208	0x3e050bd5	0.12992795
209	0xbebf9800	-0.37420654
210	0x3dd48ef9	0.10378832
211	0xbc640fa1	-0.013919742
212	0xbe28077b	-0.16409104
213	0xbe9dcf4f	-0.30822226
214	0xbe9c04d6	-0.3047244
215	0xbe4481af	-0.19190095
216	0xbe3adf0c	-0.18249148
217	0xbe0a7531	-0.13521267
218	0x3e519399	0.2046646
219	0xbd81623a	-0.06317563
220	0x3e68e1ca	0.22742382
221	0x3e83eae0	0.25765133
222	0x3d95d1b6	0.0731539
223	0xbe0a502e	-0.13507149
224	0x3e4e3aa4	0.20139557
225	0x3e1af97c	0.15134233
226	0x3e891dc5	0.26780525
227	0x3e93bf25	0.2885677
228	0xbdbe32b2	-0.09287013
229	0xbeaddcac	-0.33957422
230	0x3c6ed530	0.014577195
231	0xbd832c78	-0.06404966
232	0x3d9e9ee2	0.07745148
233	0x3db42756	0.08796565
234	0xbe9ff5ea	-0.31242305
235	0x3e07a709	0.13247313
236	0x3c0532af	0.00812976
237	0xbe91ceee	-0.28478187
238	0x3d8aee40	0.06783724
239	0x3d97ec68	0.07418138
240	0x3e6e42b8	0.23267639
241	0x3e022bf1	0.12712075
242	0xbde3f4c7	-0.11130672
243	0xbde85864	-0.11344984
244	0x3e1d5a3b	0.15366451
245	0x3ec49604	0.38395703
246	0xbe8640b5	-0.26221243
247	0x3e0c793b	0.13718121
248	0xbc551b41	-0.013006986
249	0xbcb86a80	-0.02251172
250	0x3d9678ff	0.07347297
251	0x3e1b73b7	0.1518086
252	0x3e1b3700	0.151577
253	0xbde19ac9	-0.11015851
254	0x3e03f29b	0.12885515
255	0xbdc1aa47	-0.09456306

lstm.weight_hh_l0 f4 [64, 16]
0	0x3e1e7be5	0.1547695
1	0x3ef06dc8	0.46958756
2	0xbdb32814	-0.08747879
3	0xbe593b53	-0.21214037
4	0x3de24622	0.11048533
5	0x3ebfcfa5	0.37463108
6	0xbe2c7a8c	-0.16843623
7	0xbe81be46	-0.2534048
8	0x3e4187ad	0.18899412
9	0xbe754bbf	-0.23954676
10	0xbe76d07a	-0.24102965
11	0x3da3a335	0.07990114
12	0xbe44687a	-0.1918048
13	0xbe5c1d36	-0.21495518
14	0x3ddacddd	0.106837966
15	0x3db44b86	0.088034675
16	0xbe0ab56d	-0.13545771
17	0x3dc03fc0	0.09387159
18	0x3eb3d70e	0.3512501
19	0xbd83d903	-0.06437876
20	0xbe8ce71e	-0.27520078
21	0xbd85aaf8	-0.0652675
22	0xbe311f91	-0.17297198
23	0x3d5ba51c	0.053624257
24	0x3e2e7782	0.17037776
25	0xbe2537de	-0.16134593
26	0xbeba3e0a	-0.36375457
27	0x3e87b4b9	0.26505068
28	0xbd908c70	-0.07058036
29	0x3e7e879d	0.2485642
30	0xbe859c2e	-0.26095718
31	0x3d5c5fb5	0.05380221
32	0xbdff9280	-0.124791145
33	0xbef92b2d	-0.48665753
34	0xbe88fb10	-0.26754045
35	0x3e17ac19	0.14811744
36	0x3ddd891c	0.10817167
37	0x3e222312	0.15833691
38	0x3e0e9939	0.13925637
39	0x3e895df1	0.26829484
40	0x3a9ee4ac	0.0012122593
41	0x3ed06c3c	0.40707576
42	0x3ceb5813	0.02872852
43	0x3c920a7a	0.017827261
44	0x3f075d75	0.5287698
45	0x3c54ef6f	0.012996539
46	0x3ed86550	0.42264795
47	0xbea3c437	-0.31985638
48	0x3d6279fd	0.05529212
49	0xbdc8ab7c	-0.09798333
50	0xbe9fa6c5	-0.31181923
51	0xbc58130b	-0.013188134
52	0x3e90dd43	0.2829381
53	0xbdcfe856	-0.101517364
54	0xbe9f7626	-0.31144828
55	0xbde3c7fb	-0.111221276
56	0xbe6418d5	-0.22275098
57	0xbe3a9191	-0.18219592
58	0xbd68d7d3	-0.05684645
59	0xbb694f7c	-0.0035600355
60	0xbe09e46f	-0.13466047
61	0x3d5c6717	0.05380925
62	0x3d500117	0.05078229
63	0xbe9a6b26	-0.30159873
64	0xbdbc9765	-0.09208564
65	0x3d68e925	0.05686297
66	0xbe0dd287	-0.13849841
67	0xbedec9f9	-0.43513468
68	0x3e0b2666	0.13588867
69	0x3daa0fc8	0.08303791
70	0x3c91960b	0.017771741
71	0xbe5ece6c	-0.21758431
72	0xbe23aae9	-0.15983166
73	0xbe3f0669	-0.18654789
74	0x3e3eaa0a	0.18619552
75	0xbe24bd2d	-0.1608779
76	0x3e894a6f	0.268146
77	0xbe848fb4	-0.25890887
78	0x3ebacf33	0.36486205
79	0xbdc5ba6b	-0.09654697
80	0x3e654497	0.22389446
81	0x3e6472c3	0.22309403
82	0xbedf946c	-0.43667924
83	0xbd638ee6	-0.0555562
84	0x3e5c920f	0.21540092
85	0x3ed307ba	0.41216832
86	0xbea2a311	-0.31765035
87	0xbe6837e7	-0.22677575
88	0x3d11ba7b	0.035578232
89	0xbe4ae5c4	-0.19814211
90	0x3dff00c9	0.12451322
91	0xbe37c2e7	-0.17945443
92	0x3de5a650	0.11213362
93	0xbe287740	-0.1645174
94	0x3da680ea	0.08130057
95	0xbe4f2df0	-0.20232368
96	0x3d4f6333	0.050631713
97	0xbcb80035	-0.022461036
98	0xbe2c2b9e	-0.16813514
99	0x3e04fe67	0.12987672
100	0xbdd4c724	-0.103895456
101	0x3e5b353f	0.2140703
102	0xbe3ae753	-0.18252306
103	0x3d3ff10e	0.046860747
104	0x3e9f49d3	0.3111101
105	0xbe6fdfb9	-0.23425187
106	0xbe0d5aca	-0.13804165
107	0xbe5c4060	-0.21508932
108	0xbd921064	-0.071320325
109	0x3e3547c8	0.17703164
110	0xbea3756c	-0.31925523
111	0xbe1bd6b3	-0.1521862
112	0x3f2d4b7e	0.67693317
113	0xbd992647	-0.07478004
114	0xbe1d6d70	-0.15373778
115	0xbc6c4af5	-0.014422168
116	0x3e3401f9	0.17578878
117	0x3ece5287	0.40297338
118	0xbf1ca895	-0.61194736
119	0xbe402498	-0.1876396
120	0x3e6b9481	0.23005868
121	0xbee44a98	-0.4458816
122	0xbeb16f8a	-0.3465541
123	0x3b46f7e8	0.0030360166
124	0xbe16bbaf	-0.14720033
125	0x3dd6f1bb	0.10495325
126	0xbd2767b2	-0.040870376
127	0x3e2663e8	0.16249049
128	0x3ea26f39	0.3172548
129	0x3f084cae	0.53242004
130	0xbde87bdc	-0.11351749
131	0xbd2d82e4	-0.042361155
132	0x3ea4f8f6	0.32221192
133	0x3ece7055	0.40320078
134	0xbe5be342	-0.2147341
135	0xbe98cff3	-0.29846153
136	0x3e924547	0.2856848
137	0xbe8e2dc0	-0.2776928
138	0xbe0df3ae	-0.13862488
139	0xbc5a70ef	-0.0133325895
140	0x3da17119	0.078829
141	0xbdc8e9a9	-0.09810192
142	0x3e274d68	0.16338122
143	0x3d4d84fc	0.050175652
144	0x3eddc981	0.43317798
145	0x3e959061	0.29211715
146	0x3c129ca5	0.00894848
147	0x3ce56474	0.028002001
148	0x3e42c74a	0.19021335
149	0x3e4e6ebe	0.20159432
150	0xbc8fb55c	-0.017542534
151	0xbe333049	-0.17498888
152	0x3c419c25	0.011817013
153	0xbed3ee7c	-0.41392887
154	0xbe94e8e4	-0.2908393
155	0x3d036b02	0.032084472
156	0x3d9bda7c	0.07610032
157	0xbcf0f8f9	-0.029415594
158	0xbe456282	-0.19275859
159	0x3ea15027	0.31506464
160	0x3e69b7e4	0.22824055
161	0x3d8de93d	0.06929252
162	0x3d8181b0	0.06323564
163	0xbe4268d8	-0.18985307
164	0x3e0a619a	0.13513795
165	0x3e3f91ad	0.18707915
166	0x3d785614	0.060628965
167	0x3db8bea2	0.09020735
168	0x3dd33e48	0.103146136
169	0xbedc422e	-0.4301924
170	0xbd7637f1	-0.060111944
171	0x3e75ef0c	0.2401697
172	0xbd095a90	-0.033533633
173	0xbd001a37	-0.031275
174	0x3d971464	0.07376936
175	0xbe0af9ea	-0.13571897
176	0x3e501b88	0.20323002
177	0x3ec36f8d	0.38171044
178	0xbde8b537	-0.11362689
179	0x3d84e257	0.064884834
180	0xbe351b6f	-0.17686246
181	0xbd8672f4	-0.06564894
182	0x3dcc0184	0.099612266
183	0xbd304753	-0.04303677
184	0x3e1e6685	0.15468796
185	0xbdc729be	-0.097247586
186	0xbeb4bd99	-0.35300902
187	0xbe30c774	-0.17263585
188	0x3e012d62	0.12614968
189	0x3cfdab1d	0.030965382
190	0xbe5e39bb	-0.2170171
191	0x3d9e5518	0.07731074
192	0xbdb45272	-0.08804788
193	0xbe89721e	-0.26844877
194	0xbe818d4c	-0.25303113
195	0xbe878a50	-0.26472712
196	0x3ea3ccc4	0.3199216
197	0x3ea310c9	0.31848744
198	0xbca25a6c	-0.019818507
199	0xbe7ec5b5	-0.24880107
200	0xbd575be0	-0.052577853
201	0xbbcd41c6	-0.0062639443
202	0xbe35eb06	-0.17765436
203	0xbe06bc2f	-0.13157724
204	0x3e6b3c8d	0.22972317
205	0xbc9aa5a2	-0.018877808
206	0x3dfc0ec1	0.123075016
207	0xbdb39109	-0.08767898
208	0xbe9d6019	-0.3073738
209	0x3e76b298	0.24091566
210	0x3da026da	0.0781991
211	0x3ed5e1f8	0.41773963
212	0xbe926ec0	-0.2860012
213	0xbdee2155	-0.11627451
214	0xbe1f369a	-0.15548173
215	0x3d9865fb	0.07441326
216	0xbec9c638	-0.3940904
217	0x3e9a7296	0.30165547
218	0xbe703511	-0.23457743
219	0xbd04e36e	-0.032443456
220	0xbe03d865	-0.12875517
221	0x3ed13502	0.40860754
222	0xbeae86a5	-0.340871
223	0x3eb1d4e7	0.34732744
224	0x3dd87879	0.10569853
225	0x3ed439f0	0.41450453
226	0x3cc20ad4	0.023686804
227	0xbd308167	-0.043092158
228	0x3e9b29b8	0.30305266
229	0xbe56756d	-0.20943232
230	0xbc9b245c	-0.018938236
231	0xbeb2ea52	-0.34944397
232	0xbda5e637	-0.081005506
233	0xbcae8942	-0.021305684
234	0xbe8dde79	-0.27708796
235	0x3e802e48	0.2503531
236	0xbe81f229	-0.25380066
237	0xbdec9daf	-0.11553513
238	0xbc74f21a	-0.0149503
239	0x3c7b0fa4	0.015323553
240	0xbefeea53	-0.4978815
241	0x3c3afc3b	0.0114126755
242	0x3f2ce65e	0.6753901
243	0x3ec1bd43	0.37839708
244	0xbebc4bfd	-0.36776724
245	0xbf1f6949	-0.6227003
246	0xbe12b9dd	-0.14328714
247	0xbe21ac6c	-0.1578843
248	0xbf190c24	-0.5978415
249	0x3d9c2c7f	0.076256745
250	0x3c98cba5	0.018651793
251	0x3ddea981	0.10872174
252	0xbe37fba6	-0.1796709
253	0x3e113517	0.14180408
254	0xbd65e725	-0.05612864
255	0x3e8f67c1	0.28008845

lstm.bias_ih_l0 f4 [64]
0	0x3ee9b026	0.45642203
1	0x3e53b13a	0.20673075
2	0x3e16ae3a	0.147149
3	0x3ca9427a	0.020661581
4	0x3ea92340	0.33034706
5	0x3ea348ff	0.3189163
6	0x3e16753a	0.14693156
7	0x3e419f3e	0.18908402
8	0x3ef00df2	0.4688564
9	0xbd858598	-0.065196216
10	0x3f2c25c4	0.67245126
11	0x3d9da9ee	0.07698427
12	0x3e87a264	0.26491082
13	0xbbc32441	-0.0059552495
14	0x3ec40249	0.38282993
15	0x3dcfe00d	0.10150156
16	0x3e655ff2	0.22399881
17	0x3ea57e8e	0.32323116
18	0x3db6b2c9	0.08920819
19	0x3ce46c30	0.02788362
20	0x3e1c784f	0.15280269
21	0x3e9f0eb6	0.3106591
22	0x3d485796	0.048911653
23	0x3f03266b	0.51230496
24	0x3ea8031f	0.3281488
25	0x3eb767da	0.3582142
26	0x3e97e49f	0.29666612
27	0x3e076a50	0.13224149
28	0x3d8591f4	0.06521979
29	0x3e873db3	0.2641426
30	0x3cdc1e74	0.02686999
31	0x3e8338d5	0.25629297
32	0x3ede67bb	0.43438515
33	0xbdbce30e	-0.09222995
34	0x3e1755b6	0.1477879
35	0x3e3ccce3	0.18437533
36	0x3d59523d	0.053056944
37	0x3da39cdc	0.07988903
38	0xbe11580f	-0.14193748
39	0xbc07714d	-0.008266759
40	0x3f1c26ca	0.6099669
41	0xbdb2e30c	-0.08734712
42	0x3dee1b27	0.11626273
43	0x3d19a9a6	0.037515305
44	0xbd9ef711	-0.07761968
45	0xbe37cb04	-0.17948538
46	0xbd953fae	-0.072875366
47	0x3e3dfce3	0.185535
48	0x3e633c36	0.22190937
49	0x3edf8df8	0.43663
50	0x3ead252f	0.3381743
51	0x3e888ec6	0.26671427
52	0x3d9396db	0.07206508
53	0x3ef2ab2d	0.47396222
54	0x3ed1cdb3	0.4097725
55	0xbc304afb	-0.010760064
56	0x3e0c0d4c	0.13676947
57	0x3ecdc98b	0.40192828
58	0x3e40ff56	0.18847403
59	0x3e698f2f	0.22808526
60	0x3f003223	0.500765
61	0x3dfd1a96	0.123585865
62	0x3eae7e8d	0.34080926
63	0x3ee72902	0.45148474

lstm.bias_hh_l0 f4 [64]
0	0x3f212050	0.6293993
1	0x3e6060a9	0.21911873
2	0x3da3489c	0.079728335
3	0x3e87418d	0.264172
4	0x3d55a7aa	0.05216185
5	0x3ef626f2	0.48076588
6	0xbc9f4f92	-0.019447122
7	0x3bd4b060	0.006490752
8	0x3f0b6589	0.54451805
9	0x3d019f6d	0.03164618
10	0x3ebebc60	0.37253094
11	0x3e5f0183	0.2177792
12	0x3e2488e3	0.16067843
13	0xbe0fbdec	-0.14037293
14	0x3e1f3425	0.15547235
15	0xbcf537b7	-0.029933793
16	0x3ee8ec53	0.454928
17	0x3e19d75a	0.15023556
18	0x3ea419a9	0.32050827
19	0x3e754e54	0.23955661
20	0x3e06b5c3	0.13155274
21	0x3e49f912	0.19723919
22	0x3db4fc78	0.08837217
23	0x3edd322a	0.43202335
24	0x3ec9c322	0.39406687
25	0x3d3341e8	0.043764025
26	0x3e3f8d60	0.18706274
27	0x3e1855c9	0.14876474
28	0x3e69a805	0.22818
29	0x3efd45f0	0.4946742
30	0x3e977df5	0.29588285
31	0x3ea3db8b	0.32003435
32	0x3ec4d955	0.3844706
33	0x3e672997	0.22574459
34	0x3e1bc9f5	0.15213759
35	0xbe4356b1	-0.19076039
36	0x3d2bfe77	0.041990723
37	0xbcce9831	-0.025219055
38	0xbe9b8bf2	-0.30380207
39	0xbd6b6d3e	-0.05747723
40	0x3f14c2a2	0.58109486
41	0xbebe851e	-0.37210935
42	0xbe969265	-0.29408565
43	0x3e099ba7	0.13438283
44	0xbdffdd85	-0.12493423
45	0x3da0bbcb	0.07848319
46	0xbdc46147	-0.09588867
47	0x3e2c0a2e	0.16800758
48	0x3e230e5f	0.15923451
49	0x3e09c2aa	0.13453165
50	0x3d95b0ec	0.07309136
51	0x3e91f84b	0.28509745
52	0x3e78439c	0.24244541
53	0x3e858e0c	0.26084936
54	0x3e9b80a0	0.3037157
55	0x3ea40a29	0.32039002
56	0x3ef6a55e	0.4817304
57	0x3ecdcfb1	0.40197518
58	0x3f01deda	0.5073067
59	0x3e28c1c4	0.16480166
60	0x3eaf84c1	0.3428097
61	0x3e45604e	0.19275019
62	0x3d24959f	0.040181752
63	0x3e6e6db7	0.2328404

ln.weight f4 [64]
0	0x3f825b63	1.0184139
1	0x3f8f154a	1.1178372
2	0x3f97efd3	1.1870064
3	0x3f73132d	0.94951135
4	0x3f723760	0.94615746
5	0x3f9264fd	1.1437069
6	0x3f73661e	0.95077693
7	0x3f91a25e	1.1377676
8	0x3f81fd4b	1.0155424
9	0x3f92dedc	1.1474261
10	0x3f5e7c59	0.8690849
11	0x3f8bb407	1.0914315
12	0x3f741437	0.95343345
13	0x3f4808cb	0.78138417
14	0x3f88af0f	1.0678424
15	0x3f7cab39	0.98698765
16	0x3f83c34d	1.0293976
17	0x3f7f0a48	0.9962506
18	0x3f478652	0.7793933
19	0x3f6d0afd	0.9259489
20	0x3f861cee	1.0477579
21	0x3f9836b1	1.189169
22	0x3f87bbd8	1.06042
23	0x3f5b0b2e	0.85563934
24	0x3f96b7ed	1.177488
25	0x3f72a7e0	0.94787407
26	0x3f9284e3	1.1446804
27	0x3f938dfe	1.1527708
28	0x3f8b9330	1.0904293
29	0x3f83710e	1.0268877
30	0x3f8816d9	1.0631973
31	0x3f84f075	1.0385882
32	0x3f53be21	0.8271199
33	0x3f5745d4	0.84090924
34	0x3f48af85	0.7839282
35	0x3f5d2dfb	0.86398286
36	0x3f91d2f5	1.1392504
37	0x3f88c719	1.068576
38	0x3f784606	0.9698185
39	0x3f7b22e9	0.98100144
40	0x3f806e12	1.0033591
41	0x3f498c32	0.78729546
42	0x3f7b9aa5	0.98282844
43	0x3f678e40	0.9045143
44	0x3f583d71	0.8446875
45	0x3f8406d1	1.031458
46	0x3f6f7352	0.9353534
47	0x3f830593	1.0236076
48	0x3f4ab0ce	0.7917603
49	0x3f885a18	1.0652494
50	0x3f8a8d87	1.0824441
51	0x3f89d179	1.0767051
52	0x3f642ccc	0.89130855
53	0x3f75f99f	0.96084017
54	0x3f7eda20	0.9955158
55	0x3f98d113	1.1938804
56	0x3f7124bf	0.94196695
57	0x3f816508	1.0108957
58	0x3f5cf6a1	0.86313826
59	0x3f435c7d	0.76313
60	0x3f658bfd	0.8966673
61	0x3f3fb301	0.74882513
62	0x3f5e2fe8	0.8679185
63	0x3f64c33e	0.89360416

ln.bias f4 [64]
0	0x3d484daf	0.04890221
1	0xbd0e4393	-0.034732413
2	0xbe872be7	-0.26400682
3	0xbdd763ab	-0.10517057
4	0x3e8dae83	0.27672204
5	0xbea29522	-0.31754404
6	0xbe6810d1	-0.22662665
7	0xbe6d20f4	-0.23157102
8	0xbe69f272	-0.22846392
9	0xbd5c0581	-0.053716186
10	0x3e1f8b92	0.15580586
11	0xbd307b24	-0.043086186
12	0x3de044ed	0.109506465
13	0x3e4de197	0.20105587
14	0xbe5fddc1	-0.21861936
15	0xbe31869c	-0.17336506
16	0x3d2be90f	0.04197031
17	0xbe420ab9	-0.18949403
18	0x3df52b78	0.11971182
19	0x3caa61ba	0.020798553
20	0xbba499e2	-0.005023227
21	0xbe72b945	-0.23703487
22	0xbe450bcf	-0.19242786
23	0x3da697aa	0.081343964
24	0xbd39dea3	-0.04537834
25	0x3cebb215	0.02877144
26	0xbd0d3b00	-0.034480095
27	0xbd6e7dd5	-0.05822547
28	0xbc0ad3d9	-0.00847336
29	0x3e08afd6	0.13348326
30	0x3c81bb6b	0.015836438
31	0xbe44fd03	-0.19237141
32	0xbd861d2e	-0.06548534
33	0x3e4ee589	0.20204748
34	0x3e46ca71	0.19413163
35	0x3e71cbb8	0.23612869
36	0xbe1b1eba	-0.1514844
37	0xbe0ece0d	-0.1394579
38	0x3ced733b	0.02898561
39	0xbdcff10b	-0.10153397
40	0x3d9f6504	0.07782939
41	0x3cf08668	0.029360965
42	0xbe16a6a4	-0.14712006
43	0x3d4a9a7f	0.049463745
44	0x3dda91e9	0.106723614
45	0xbd67b280	-0.056566715
46	0xbdd24594	-0.10267177
47	0xbe4b31fd	-0.19843288
48	0x3dbc11b8	0.09183067
49	0xbe611aef	-0.2198293
50	0xbde0a281	-0.10968495
51	0xbe663982	-0.22482875
52	0xbd652447	-0.0559428
53	0x3e84b7e1	0.25921538
54	0xbe12b12f	-0.14325403
55	0xbdd48f69	-0.10378916
56	0xbca8c82f	-0.020603267
57	0xbdc2f270	-0.095188975
58	0x3e52622c	0.20545262
59	0x3e568d5a	0.20952359
60	0x3d7ec21f	0.062196847
61	0x3e15fbdb	0.14646856
62	0x3e21e9fc	0.15811914
63	0x3d602344	0.054721132

mlp.0.weight f4 [8, 32]
0	0x3e9c744a	0.30557472
1	0x3e901aec	0.2814554
2	0xbe6a5855	-0.22885258
3	0xbc4081b4	-0.011749674
4	0x3de21c83	0.110405944
5	0x3c063fe5	0.008193945
6	0xbe03b14c	-0.12860602
7	0xbd941d58	-0.072321594
8	0x3ea7d1e5	0.32777324
9	0xbec1d7a5	-0.37859836
10	0xbe3b15ec	-0.18270081
11	0x3e9deacf	0.30843207
12	0xbd0f6646	-0.035009645
13	0x3d8f4438	0.069954336
14	0x3dc6b8dd	0.097032286
15	0x3e2632b4	0.16230279
16	0x3e3aed3b	0.18254559
17	0xbe06ed8f	-0.13176559
18	0xbec40dc1	-0.38291743
19	0xbec66753	-0.38750705
20	0x3e52a7b4	0.20571786
21	0x3ea1cc45	0.31601158
22	0x3e206d45	0.15666683
23	0x3e924015	0.28564516
24	0x3e9c9b74	0.3058735
25	0xbe884d52	-0.2662149
26	0x3dda2b57	0.10652798
27	0xbe828fff	-0.25500485
28	0x3df488b7	0.11940139
29	0xbe4bd3f9	-0.1990508
30	0x3ea167fd	0.3152465
31	0xbe8a88bd	-0.27057448
32	0x3e5c62bd	0.2152204
33	0x3eb10088	0.34570718
34	0xbe57d92b	-0.21078937
35	0x3dc473a3	0.095923685
36	0x3e7c0d29	0.24614395
37	0x3e41f848	0.18942368
38	0xbd4d4c6a	-0.050121702
39	0xbdd2e38c	-0.10297307
40	0x3ea5732a	0.32314426
41	0xbebd4ff9	-0.36975077
42	0xbe373589	-0.17891516
43	0x3d1c7b92	0.038203783
44	0x3ddd72cc	0.108129114
45	0x3e3173b1	0.17329289
46	0x3cf9c5b5	0.030489782
47	0x3dd0bbcc	0.101920694
48	0x3ea28e6a	0.31749278
49	0xbc1cb3d1	-0.009564356
50	0xbed2909e	-0.4112596
51	0xbe961454	-0.29312384
52	0x3ed94505	0.4243547
53	0x3e9b41cb	0.30323634
54	0x3e9c05d3	0.30473194
55	0x3ea0ff75	0.31444898
56	0x3e9fdad2	0.31221634
57	0xbe7fb06c	-0.24969643
58	0xbcb59340	-0.02216494
59	0xbe9b5d7d	-0.30344763
60	0x3eaed55e	0.3414716
61	0xbe6194d1	-0.22029425
62	0x3d584eb5	0.052809436
63	0xbe67f4e0	-0.22652006
64	0x3d1ad237	0.037798133
65	0x3e873364	0.26406395
66	0x3ec27eab	0.37987265
67	0x3e3705dd	0.1787333
68	0xbf102cb4	-0.5631821
69	0xbe1164c7	-0.141986
70	0xbe900fdd	-0.28137103
71	0xbed8b9bd	-0.42329207
72	0xbe529070	-0.20562911
73	0xbdcb2bde	-0.099204764
74	0xbe803361	-0.250392
75	0x3ddf37f2	0.108993426
76	0xbe84be72	-0.25926548
77	0x3e979131	0.2960296
78	0xbe2bb8d8	-0.16769731
79	0x3e554b35	0.2082947
80	0xbbdce6fb	-0.006741402
81	0x3e643d1d	0.22288938
82	0x3eac8021	0.33691505
83	0x3f3499f8	0.7054744
84	0xbeefe6ce	-0.46855778
85	0xbefcfe98	-0.4941299
86	0xbeb38fd0	-0.35070658
87	0xbe09d84e	-0.1346142
88	0xbe65e2ce	-0.224498
89	0x3d3f3f46	0.0466912
90	0xbda55769	-0.08073313
91	0x3eca4fc3	0.39513978
92	0xbe788a38	-0.24271476
93	0x3ec24a3d	0.37947264
94	0xbe6dd49d	-0.23225637
95	0x3e841a94	0.25801528
96	0x3ecb516b	0.39710554
97	0x3e9566cc	0.2917999
98	0xbe89bb85	-0.2690088
99	0xbb9a0d8b	-0.0047013215
100	0x3e6770b3	0.22601585
101	0x3e5d807b	0.21631043
102	0xbd62f962	-0.05541361
103	0x3caad84d	0.020855093
104	0x3edec095	0.43506303
105	0xbe052fe7	-0.13006555
106	0xbd881c76	-0.066460535
107	0x3c79be08	0.015243061
108	0x3e0f4433	0.1399086
109	0x3c7b29f4	0.015329827
110	0xba35e775	-0.0006939092
111	0x3ddbad7c	0.10726449
112	0x3eadd74f	0.3395333
113	0x3c343b76	0.011000505
114	0xbea34e62	-0.3189574
115	0xbe9feebb	-0.31236824
116	0x3e925343	0.2857915
117	0x3ec4fd40	0.38474464
118	0x3d811bdb	0.06304141
119	0x3e08c48c	0.13356227
120	0x3e339561	0.17537452
121	0xbe9c8d8f	-0.3057675
122	0xbe5b5653	-0.21419649
123	0xbe09a776	-0.13442788
124	0x3e4da61d	0.20082898
125	0xbe550781	-0.20803644
126	0x3ea054a9	0.3131459
127	0xbe4a0938	-0.19730079
128	0xbd332139	-0.043732855
129	0x3ade206c	0.0016946918
130	0x3eb7fefa	0.3593672
131	0x3ea33238	0.3187425
132	0xbec57157	-0.38563034
133	0xbe8fd124	-0.2808925
134	0xbe48adb7	-0.19597517
135	0xbe243411	-0.16035487
136	0xbd13a84e	-0.03604918
137	0xbe18c8cd	-0.1492035
138	0xbe86d211	-0.26332143
139	0x3dcbb9ec	0.09947571
140	0xbe7c14eb	-0.24617355
141	0x3deac029	0.11462433
142	0xbea6de3a	-0.3259142
143	0x3e350478	0.17677486
144	0xbe0b2477	-0.13588129
145	0x3dbb93d8	0.09159058
146	0x3ed7ea73	0.42171058
147	0x3f01b9cf	0.50674146
148	0xbe89b99d	-0.26899424
149	0xbed29fe4	-0.41137612
150	0xbe9f8656	-0.31157178
151	0xbe612aba	-0.21988955
152	0xbe666c71	-0.22502305
153	0xbe22911f	-0.15875672
154	0xbe5c0797	-0.2148727
155	0x3ec44d93	0.38340434
156	0xbe907113	-0.2821127
157	0x3e8b2021	0.2717295
158	0xbe8ffa8a	-0.28120834
159	0x3e09f0cc	0.13470763
160	0x3d43efb1	0.04783601
161	0x3d808a0f	0.062763326
162	0x3d9a9d81	0.07549573
163	0xbd8bbbb7	-0.06822913
164	0x3d8d90e1	0.06912399
165	0xbdb255e8	-0.087077916
166	0xbd1316f2	-0.035910554
167	0xbc4fc63f	-0.012681543
168	0xbe76e2a4	-0.24109894
169	0x3b0dbf78	0.0021629017
170	0xbd406829	-0.046974335
171	0xbd357e5f	-0.04430997
172	0xbd0f763c	-0.035024866
173	0xbcb7f6e0	-0.022456586
174	0x3dc859e5	0.09782771
175	0xbd26c7c9	-0.040717874
176	0xbe21dd84	-0.15807158
177	0x3b3c4d3d	0.002873256
178	0xbdb338b6	-0.08751051
179	0x3e36ba46	0.17844495
180	0x3b5511ed	0.0032511905
181	0xbdbe8d65	-0.093043126
182	0x3d87a933	0.06624069
183	0x3db376ff	0.08762931
184	0x3d7e7c9e	0.062130563
185	0xbbbf43cd	-0.00583694
186	0x3e10c071	0.1413591
187	0x3ddeaf68	0.108733
188	0x3dd9e5d6	0.10639541
189	0x3de272f1	0.110570796
190	0x3de2f7f1	0.11082447
191	0xbd77be28	-0.06048408
192	0xbe8df7b8	-0.27728057
193	0x3e9ad926	0.30243796
194	0x3ee80615	0.4531714
195	0x3ee7ec16	0.45297307
196	0xbf16f4e5	-0.5896743
197	0xbeb86cdd	-0.36020556
198	0xbe9b7972	-0.30366093
199	0xbea2e8c8	-0.31818223
200	0x3b29ece9	0.0025928563
201	0xbc18b0fc	-0.00931954
202	0xbdde9ff7	-0.108703546
203	0x3eabd30a	0.33559448
204	0xbd385e1b	-0.04501162
205	0x3ddcdce4	0.10784319
206	0xbe9ada42	-0.30244642
207	0x3e8055c5	0.25065437
208	0xbd9f79c3	-0.07786896
209	0x3e1a238b	0.15052621
210	0x3eabaa4e	0.3352837
211	0x3f38108b	0.7190024
212	0xbe840598	-0.25785518
213	0xbec5cbf9	-0.3863218
214	0xbe9a5380	-0.3014183
215	0xbe91d970	-0.28486204
216	0xbe36ed8d	-0.17864056
217	0xbdadcc64	-0.0848625
218	0xbe8ebf1a	-0.27880174
219	0x3ec13db3	0.37742385
220	0xbeacb622	-0.33732706
221	0x3dfcae71	0.123379596
222	0xbe939384	-0.28823483
223	0x3e892cd7	0.26792023
224	0xbd2619ad	-0.04055183
225	0x3ea0338a	0.3128932
226	0x3e6ce0dd	0.23132654
227	0x3e717e2e	0.2358329
228	0xbefae867	-0.49005434
229	0xbec85a3c	-0.39131343
230	0xbeca00e7	-0.39453813
231	0xbed76d5a	-0.42075616
232	0xbd61e21c	-0.055147275
233	0x3daa1512	0.083048
234	0xbe085172	-0.13312319
235	0x3e2f359c	0.17110294
236	0xbe8b5f91	-0.2722135
237	0xbbb3870b	-0.005478745
238	0xbec0f97e	-0.37690347
239	0x3ea55802	0.32293707
240	0xbe254f59	-0.1614355
241	0x3e64c712	0.22341564
242	0x3eee173a	0.46502095
243	0x3f4e29fc	0.80532813
244	0xbeee5bab	-0.46554312
245	0xbec6c8ac	-0.38824975
246	0xbe9aa000	-0.30200195
247	0xbe908eb8	-0.28233886
248	0xbd97a270	-0.07404029
249	0xbe4dd622	-0.20101216
250	0xbe175dba	-0.14781848
251	0x3edab425	0.42715564
252	0xbe1dd3ce	-0.15412828
253	0x3e979ac3	0.2961026
254	0xbea72e7b	-0.3265265
255	0x3e28754f	0.16451

mlp.0.bias f4 [8]
0	0x3e649db7	0.22325788
1	0x3e99dc29	0.3005078
2	0xbdecd44e	-0.115639314
3	0x3dded36e	0.10880171
4	0xbd4baa67	-0.049723055
5	0xbe2dc61e	-0.16970107
6	0xbc8bc6b5	-0.017062524
7	0xbe82917d	-0.25501624

mlp.2.weight f4 [2, 8]
0	0xbe996c99	-0.29965666
1	0xbef09890	-0.46991396
2	0x3e91a4a2	0.28445917
3	0xbf105062	-0.56372654
4	0x3f1ec458	0.62018347
5	0xbe0365a5	-0.12831743
6	0x3f379eb5	0.7172654
7	0x3f1b13a7	0.6057686
8	0x3eb0877b	0.34478363
9	0x3f09e939	0.53871495
10	0xbf3f0850	-0.7462206
11	0x3d1904b5	0.037358005
12	0xbeb2fcd4	-0.34958518
13	0xbe3ea1ad	-0.18616362
14	0xbeae8af7	-0.34090397
15	0xbf09d4cb	-0.5384032

mlp.2.bias f4 [2]
0	0xbce70a92	-0.028203283
1	0x3e7b30b4	0.24530298
